output/weight.pt (torch, 66746 bytes, 22 tensors)

net.0.layer.weight f4 [40, 2]
0.23145288 0.16996044 0.24842341 -0.23879637 -0.364005 0.056134444 0.0015302373 0.1781734
0.444615 -0.043141775 -0.29375863 0.2929764 0.07330311 0.029209616 0.32104537 -0.16057646
0.04582105 -0.29258937 0.28935978 0.27930316 -0.082860634 0.18503676 -0.22254361 0.2571538
0.18015154 0.20423886 0.028163297 0.22441022 0.4008858 0.1709488 0.3278672 -0.07317256
-0.47085968 0.21258098 0.20621608 0.13852198 -0.02836461 0.27096456 -0.34642565 -0.08869893
0.18294683 -0.038689785 0.29838905 0.04661348 -0.4184978 -0.21118358 -0.16995604 0.07653976
0.3278898 -0.18238749 -0.4363105 0.2323404 -0.21494247 0.32239923 0.32711533 0.2408396
-0.09971474 -0.3027623 -0.16305359 0.35173294 0.34963858 -0.01929212 0.19508955 -0.10830899
0.31929368 0.23281193 0.20374705 0.18587936 0.46132112 0.0077779912 -0.01285057 -0.18814613
0.033547133 -0.07383252 -0.19747563 -0.091814026 -0.20122668 0.09450194 -0.34556305 -0.14167975
00000000: fc01 6d3e 1c0a 2e3e b562 7e3e 0987 74be
00000010: dd5e babe 3bed 653d 3e92 c83a 1673 363e
00000020: 94a4 e33e 6eb5 30bd 8867 96be 0101 963e
00000030: f11f 963d 0149 ef3c 0f60 a43e 286e 24be
00000040: daae 3b3d 46ce 95be f726 943e d300 8f3e
00000050: d6b2 a9bd 477a 3d3e 79e2 63be aaa9 833e
00000060: a579 383e fe23 513e b7b6 e63c cbcb 653e
00000070: e740 cd3e 340d 2f3e 36de a73e 7fdb 95bd
00000080: 8514 f1be d4ae 593e 4f2a 533e b5d8 0d3e
00000090: e65c e8bc debb 8a3e b45e b1be c9a7 b5bd
000000a0: 6a56 3b3e 2e79 1ebd 73c6 983e c7ed 3e3d
000000b0: 5845 d6be 8240 58be f508 2ebe e1c0 9c3d
000000c0: 2ce1 a73e c9c3 3abe 1764 dfbe a4ea 6d3e
000000d0: e119 5cbe 8311 a53e a97b a73e a89e 763e
000000e0: 3e37 ccbd a903 9bbe 85f7 26be 5716 b43e
000000f0: d403 b33e 820a 9ebc 8ec5 473e 1bd1 ddbd
00000100: 767a a33e 4066 6e3e 11a3 503e 2957 3e3e
00000110: 4832 ec3e 85de fe3b 328b 52bc 61a9 40be
00000120: b868 093d 8135 97bd 0d37 4abe fe08 bcbd
00000130: 5e0e 4ebe 3c8a c13d a4ed b0be 7f14 11be

net.0.layer.bias f4 [40]
-0.06264779 0.13842502 -0.009980684 -0.1664126 0.0198353 -0.006340588 0.13752367 0.15474401
-0.10037269 -0.16374755 -0.0029225233 0.053179443 -0.021809282 -0.055691034 -0.22588134 0.030221019
-0.12679443 -0.13309741 0.030513713 -0.10533261 -0.10625675 -0.032550395 -0.00062055024 0.06810171
-0.06635806 -0.18055345 -0.10946365 -0.14669804 0.11726301 0.08633495 0.04737852 0.1620375
0.071496345 -0.16186284 -0.08750098 -0.03889039 -0.0070301606 0.17372282 -0.08138307 0.04430373
00000000: 7c4d 80bd 4abf 0d3e 0686 23bc 1168 2abe
00000010: a47d a23c b5c4 cfbb 01d3 0c3e 3775 1e3e
00000020: 3290 cdbd 70ad 27be ce87 3fbb b0d2 593d
00000030: 61a9 b2bc 481c 64bd 704d 67be 1292 f73c
00000040: 66d6 01be b04a 08be e5f7 f93c a0b8 d7bd
00000050: 249d d9bd 9053 05bd 6cac 22ba e978 8b3d
00000060: bce6 87bd 01e3 38be 7a2e e0bd 0338 16be
00000070: 9727 f03d 61d0 b03d fb0f 423d 29ed 253e
00000080: ad6c 923d 5fbf 25be b733 b3bd 884b 1fbd
00000090: 435d e6bb 65e4 313e 2bac a6bd d477 353d

net.1.layer.weight f4 [40, 40]
-0.03278357 -0.054554213 -0.2206948 0.20013417 0.012865721 -0.23425934 0.03697863 -0.16473302
0.19538796 0.10950324 -0.10100011 -0.01626243 -0.038558617 0.21787849 0.22221108 0.24826151
0.25927013 0.18365312 -0.112401165 -0.0023751257 -0.05877916 0.22612828 0.12886982 0.048143465
0.25299188 0.12166113 -0.16086057 0.10198798 -0.10626043 0.018629272 0.24858573 -0.1675005
0.13315576 -0.12604974 0.07684175 0.20897412 0.1352748 0.033463523 -0.2368012 0.183656
-0.070264585 -0.22215949 0.26308447 0.060512125 0.20193157 0.22023825 -0.22736347 -0.2946724
0.0012012478 0.25562954 -0.019676818 0.113711126 0.0175893 -0.14468789 0.28079084 -0.011486383
0.11209355 -0.014792192 -0.07982242 0.12940668 0.23729527 -0.1438036 0.041640267 -0.003379775
0.24907763 0.2088123 -0.13599667 0.07833087 -0.26578945 0.09749544 -0.23184448 -0.11504743
-0.17754857 0.04827417 0.1602715 -0.28419572 -0.22528592 -0.19303946 0.28281292 -0.13101684
-0.08750309 -0.26274782 0.21553275 -0.20678958 -0.25504604 -0.22407517 0.056154493 -0.2047756
0.22072206 -0.24421878 0.18094915 0.1866864 0.013812892 0.00045368684 0.24177867 -0.18653785
0.26009217 -0.017930549 -0.07912319 0.013631703 -0.1474984 -0.24120389 -0.0895783 -0.15704912
0.04753588 0.1367802 0.287056 -0.04801142 -0.10922765 0.24394476 -0.090696424 -0.2888838
0.15443368 0.1508841 0.10220311 0.025986433 0.013667564 -0.09237351 0.019418245 0.15358362
0.26811627 0.1311924 0.11461756 -0.28793612 -0.06086809 -0.004740097 -0.035805 0.050160997
0.07356689 -0.047511686 -0.18962236 -0.0017250518 -0.09607246 -0.2262354 0.3327284 -0.028320212
0.07174859 0.29277387 -0.13683486 -0.14347953 0.25585052 0.23540407 -0.10091645 -0.18757233
0.07052299 -0.26678184 0.20576105 -0.11609206 -0.18686639 0.13638397 -0.13027929 -0.076443285
0.09954447 0.31526423 -0.019100724 0.28997245 0.1189636 0.16256976 -0.28852168 -0.07224997
-0.112955056 -0.06922497 -0.019383868 -0.0787503 -0.29348665 0.23502414 -0.12773372 0.017746635
-0.21117921 -0.07220417 0.021036409 -0.015245282 -0.27963525 -0.20191523 -0.24864553 0.11767495
-0.2223551 0.10889105 0.08983963 0.10105748 -0.20904094 -0.2675481 -0.13479763 0.12534706
-0.26170734 0.06843368 -0.24605608 0.13000275 -0.24505284 0.20196244 0.09563663 0.094080664
0.23109177 -0.30907714 0.12443958 0.12811068 0.020372866 0.19217524 0.24242723 0.2670921
0.27020323 -0.15662758 0.04228187 -0.2422033 -0.059389785 -0.2665961 0.058536608 -0.14525275
-0.21925676 -0.16154005 0.12937741 -0.03435747 -0.18685725 -0.24480262 0.2765608 -0.17782995
-0.058025926 0.28434354 0.25972828 0.01714647 0.10680754 0.1934505 -0.22795202 -0.054761913
-0.102305844 0.25280616 0.0060818414 -0.057353385 -0.28640643 -0.2215102 0.15275213 0.23341422
0.1403787 -0.13265313 0.28877968 0.25564212 -0.25713667 0.09078037 0.12816085 0.07745803
0.2059383 -0.042858515 0.18070893 0.025368657 -0.048962153 -0.17271325 -0.16353609 -0.16115667
-0.21581739 0.015810829 -0.14478125 -0.092880346 -0.2231214 0.20573431 -0.14876343 0.11362639
00000000: 1148 06bd 3d74 5fbd d1fd 61be f9ef 4c3e
00000010: bfca 523c aee1 6fbe e776 173d c6af 28be
00000020: c813 483e 3c43 e03d 25d9 cebd ca38 85bc
00000030: a4ef 1dbd 8a1b 5f3e 4d8b 633e 4438 7e3e
00000040: 0ebf 843e 900f 3c3e 9532 e6bd ffa7 1bbb
00000050: 6bc2 70bd 2c8e 673e 73f6 033e 1532 453d
00000060: 2788 813e 7829 f93d a2b8 24be 13df d03d
00000070: 119f d9bd 6a9c 983c 428d 7e3e 4085 2bbe
00000080: fc59 083e 2f13 01be 355f 9d3d 50fd 553e
00000090: 7a85 0a3e 0c11 093d 047c 72be 5210 3c3e
000000a0: e1e6 8fbd c77d 63be 02b3 863e 90db 773d
000000b0: 26c7 4e3e 2386 613e f8d1 68be 4ddf 96be
000000c0: 3073 9d3a e0e1 823e 4731 a1bc 61e1 e83d
000000d0: 7017 903c 1029 14be d1c3 8f3e 6231 3cbc
000000e0: 4e91 e53d f35a 72bc f079 a3bd 2f83 043e
000000f0: 88fd 723e 4041 13be fc8e 2a3d 377f 5dbb
00000100: 350e 7f3e e4d2 553e b642 0bbe ef6b a03d
00000110: 8e15 88be b0ab c73d a468 6dbe fd9d ebbd
00000120: 4bcf 35be 23bb 453d 361e 243e 1a82 91be
00000130: 5ab1 66be 23ac 45be dbcc 903e 4729 06be
00000140: d234 b3bd e286 86be 9eb4 5c3e a6c0 53be
00000150: 6595 82be f673 65be 4102 663d b2b0 51be
00000160: f704 623e 7d14 7abe bc4a 393e b82a 3f3e
00000170: 784f 623c d1dc ed39 d494 773e c703 3fbe
00000180: cd2a 853e 16e3 92bc 570b a2bd 8257 5f3c
00000190: d209 17be 27fe 76be d474 b7bd 7cd1 20be
000001a0: fcb4 423d 1c10 0c3e 01f9 923e 9fa7 44bd
000001b0: bfb2 dfbd a8cc 793e 0cbf b9bd 94e8 93be
000001c0: dd23 1e3e 5d81 1a3e dd4f d13d 80e1 d43c
000001d0: ebed 5f3c 532e bdbd 0313 9f3c 0645 1d3e
000001e0: 8946 893e 4d57 063e 9cbc ea3d 5d6c 93be
000001f0: d150 79bd d152 9bbb 44a8 12bd 9e75 4d3d
00000200: 3daa 963d 9d9b 42bd 5d2c 42be 221b e2ba
00000210: a3c1 c4bd 41aa 67be 605b aa3e caff e7bc
00000220: edf0 923d 75e6 953e 701e 0cbe 4cec 12be
00000230: d7fe 823e c40d 713e 49ad cebd f612 40be
00000240: 5b6e 903d a197 88be 06b3 523e adc1 edbd
00000250: e759 3fbe 3da8 0b3e ef67 05be 4c8e 9cbd
00000260: f9dd cb3d 506a a13e 1f79 9cbc 4577 943e
00000270: 30a3 f33d b078 263e 1db9 93be cbf7 93bd
00000280: fb54 e7bd d2c5 8dbd ebca 9ebc d647 a1bd
00000290: e243 96be 2baa 703e a1cc 02be 6461 913c
000002a0: 5d3f 58be c8df 93bd 8c54 ac3c 59c7 79bc
000002b0: 5a2c 8fbe dec2 4ebe ef9c 7ebe 90ff f03d
000002c0: 0eb1 63be 4502 df3d d7fd b73d 39f7 ce3d
000002d0: d40e 56be 11fc 88be 6408 0abe fb5a 003e
000002e0: 81fe 85be f526 8c3d 20f6 7bbe 711f 053e
000002f0: 22ef 7abe 3ecf 4e3e 23dd c33d 5dad c03d
00000300: 52a3 6c3e 5c3f 9ebe 2eda fe3d 722f 033e
00000310: ffe4 a63c 96c9 443e d83e 783e 4cc0 883e
00000320: 1458 8a3e fb62 20be c12f 2d3d 2404 78be
00000330: b442 73bd 497f 88be 15c4 6f3d 23bd 14be
00000340: d884 60be c16a 25be 837b 043e 6bba 0cbd
00000350: 8257 3fbe 8aad 7abe 6199 8d3e 0e19 36be
00000360: 98ac 6dbd 7a95 913e 1bfb 843e c176 8c3c
00000370: e9bd da3d e317 463e 416c 69be 074e 60bd
00000380: ba85 d1bd cf6f 813e 2f4a c73b 62eb 6abd
00000390: dda3 92be 92d3 62be 0e6b 1c3e 2304 6f3e
000003a0: 6fbf 0f3e 39d6 07be eeda 933e 86e3 823e
000003b0: 6ba7 83be 0feb b93d 993c 033e 51a2 9e3d
000003c0: 7de1 523e 698c 2fbd c30b 393e eed1 cf3c
000003d0: 8a8c 48bd bedb 30be 0176 27be 4106 25be
000003e0: 3cff 5cbe b685 813c 8941 14be 0d38 bebd
000003f0: f079 64be 04ac 523e 7155 18be f4b4 e83d

net.1.layer.bias f4 [40]
-0.11046758 -0.112481944 -0.11863208 -0.032079883 0.09104902 -0.09432507 -0.067748904 -0.018110413
-0.06602444 0.072554104 0.12828448 -0.09026847 0.08927712 0.035642635 -0.05771083 -0.04199045
-0.06564503 0.1162112 -0.013897236 -0.1272435 -0.02812411 -0.04107484 -0.02638244 -0.06581398
0.024507968 -0.07383603 0.044860277 0.07046329 -0.06616577 -0.0899048 0.041503504 0.04882133
0.095795706 0.033562437 0.014197872 0.105984114 0.107989766 -0.08669801 -0.0911333 0.12739782
00000000: d43c e2bd ef5c e6bd 60f5 f2bd 3266 03bd
00000010: e977 ba3d 812d c1bd f0bf 8abd 4a5c 94bc
00000020: d237 87bd 3f97 943d 025d 033e adde b8bd
00000030: ecd6 b63d 03fe 113d 3162 6cbd 2efe 2bbd
00000040: e770 86bd 2300 ee3d 3cb1 63bc 1f4c 02be
00000050: 8964 e6bc 173e 28bd fd1f d8bc 7bc9 86bd
00000060: efc4 c83c 5837 97bd 69bf 373d 0f4f 903d
00000070: eb81 87bd 0220 b8bd 94ff 293d e0f8 473d
00000080: 8a30 c43d c478 093d 319e 683c 330e d93d
00000090: bd29 dd3d ba8e b1bd 18a4 babd 9374 023e

net.2.layer.weight f4 [40, 40]
-0.027999146 -0.1092903 0.25982213 0.09844369 0.20237659 -0.15038154 0.14681882 0.2247982
-0.24188527 0.17637666 -0.053519163 0.00057417376 0.03289539 -0.0200113 -0.021917347 0.0511473
0.036653996 -0.30858946 -0.02327832 0.25028408 -0.10423651 0.2061472 0.17973685 0.10383772
0.050594863 0.11623467 -0.19098654 0.15162034 0.07391317 -0.24080788 0.009612331 0.050300926
-0.010649474 -0.17243321 -0.022116816 -0.23449151 0.0461299 -0.137225 0.13258421 -0.13339171
-0.100342594 0.23057759 -0.2520971 0.1811833 0.049909677 -0.060847864 -0.07709196 0.149246
-0.12785263 -0.26219258 -0.10416001 -0.16889615 0.13539512 -0.26884204 0.08066472 -0.1522385
-0.16666874 0.054207165 -0.10790903 0.14973757 -0.12384327 -0.055032257 -0.050796457 0.23560357
-0.2474089 -0.06700263 0.14582998 0.13384813 0.16054201 0.067130886 -0.10772233 0.26747942
-0.2369563 0.26650357 0.09988917 -0.033721473 0.13288309 -0.1290903 -0.064285785 -0.123144686
-0.13993472 -0.29019672 -0.040312935 0.2746935 -0.19542152 -0.01201668 0.24490295 0.19312255
0.10893556 -0.085649624 0.23623481 0.16936886 -0.23040755 0.090939395 0.036445014 0.2555942
-0.19129393 0.128293 0.16166548 -0.29958236 -0.020649958 0.013919988 0.02817128 -0.13113669
0.22824417 -0.26083583 -0.111551866 0.19999582 0.2997005 0.27553606 0.1543747 0.054187857
0.10431485 -0.14079098 0.0509964 0.12650521 0.16793735 0.017577948 0.089377485 0.2098943
-0.25697875 0.14781173 0.038888764 0.10093616 0.17861746 0.25419122 0.17425081 0.2248536
-0.09756206 -0.025920188 0.06745131 0.17667185 -0.27193168 0.23656617 0.060554054 0.15903588
-0.18735164 0.07412799 0.23339222 -0.012298059 -0.21275109 -0.012039486 0.11878268 -0.18474674
0.047493435 0.12952544 0.13268812 0.17541045 -0.2323648 -0.020727424 -0.09637742 0.03160178
-0.16910101 0.14643143 0.015298781 -0.140244 0.12931916 -0.07187663 -0.23611751 -0.072013296
0.21552296 -0.07640081 -0.061354518 -0.13501388 -0.19027579 0.06028564 0.04377224 -0.14285752
-0.22513531 0.23222707 0.14477842 -0.1145746 0.1328423 -0.24477443 -0.18355893 -0.15418349
-0.013161773 0.021229222 0.1558095 0.19637986 0.09146077 -0.14803983 -0.10074952 0.07458869
0.19264226 0.022291904 -0.19963765 -0.07054077 -0.02408811 -0.25038478 0.045575846 -0.24844523
-0.028470943 -0.14785227 0.10535404 0.208933 -0.15214127 -0.25278386 -0.23390813 -0.08367447
0.25896016 -0.042033765 0.25258005 -0.14576945 0.07683254 0.23286961 0.014279186 -0.10654158
0.13485523 -0.16733503 0.18586063 0.07289999 -0.23194052 -0.17187949 -0.10035861 -0.039033975
0.29930326 -0.27160433 0.22074199 0.33181977 0.18570408 -0.22702205 -0.040727846 -0.08202521
0.18863153 -0.0820267 -0.16778608 0.020982048 0.065258175 0.17411222 0.12693104 0.14274989
0.11996622 0.25399616 -0.046053376 0.04886644 0.009692807 0.044402365 0.09539705 0.0238272
0.16124037 -0.21259058 0.15484458 0.18464813 0.1993168 0.18899226 -0.00044096142 -0.06579516
0.05863708 0.22639304 -0.21608171 0.11692519 -0.31623954 0.17598389 0.07478165 0.0722165
00000000: 775e e5bc 98d3 dfbd 6807 853e d89c c93d
00000010: cf3b 4f3e 9efd 19be ac57 163e 8031 663e
00000020: c6b0 77be 159c 343e e936 5bbd 2684 163a
00000030: 51bd 063d bdee a3bc 028c b3bc d57f 513d
00000040: 8022 163d 70ff 9dbe 2db2 bebc 3c25 803e
00000050: f479 d5bd 4018 533e f00c 383e dfa8 d43d
00000060: 8f3c 4f3d 710c ee3d fa91 43be 5d42 1b3e
00000070: ca5f 973d 5796 76be 0a7d 1d3c 5808 4e3d
00000080: 227b 2ebc 5592 30be 532e b5bc 8b1e 70be
00000090: b5f2 3c3d b684 0cbe 28c4 073e d697 08be
000000a0: 6b80 cdbd 881c 6c3e df12 81be 1d88 393e
000000b0: 176e 4c3d 9c3b 79bd 64e2 9dbd f2d3 183e
000000c0: cdeb 02be 1b3e 86be d851 d5bd 1df3 2cbe
000000d0: 05a5 0a3e aaa5 89be 8b33 a53d 69e4 1bbe
000000e0: 36ab 2abe 5508 5e3d 69ff dcbd ce54 193e
000000f0: 8aa1 fdbd 8169 61bd f20f 50bd 1042 713e
00000100: c258 7dbe ad38 89bd 7454 153e 7c0f 093e
00000110: 2065 243e eb7b 893d 869d dcbd 10f3 883e
00000120: aca4 72be 2873 883e b192 cc3d 871f 0abd
00000130: 8112 083e 3f30 04be 44a8 83bd 4833 fcbd
00000140: 0c4b 0fbe aa94 94be 2d1f 25bd a0a4 8c3e
00000150: 941c 48be 9ce1 44bc d7c7 7a3e ebc1 453e
00000160: 9b19 df3d 1269 afbd 8ae7 713e 086f 2d3e
00000170: f5ef 6bbe 6f3e ba3d 5e47 153d 3edd 823e
00000180: 8ee2 43be 3d5f 033e a38b 253e dc62 99be
00000190: 1a2a a9bc a910 643c 75c7 e63c b248 06be
000001a0: d7b8 693e 468c 85be 4e75 e4bd b4cb 4c3e
000001b0: 5872 993e 1013 8d3e 6714 1e3e 16f4 5d3d
000001c0: 06a3 d53d 832b 10be 9ae1 503d 958a 013e
000001d0: c5f7 2b3e a1ff 8f3c 8b0b b73d 88ee 563e
000001e0: b892 83be f55b 173e d349 1f3d 9eb7 ce3d
000001f0: 7fe7 363e 5a25 823e ce6e 323e 0640 663e
00000200: 9ece c7bd 9356 d4bc ea23 8a3d 77e9 343e
00000210: a13a 8bbe 673e 723e 8707 783d 4dda 223e
00000220: 1cd9 3fbe 6ad0 973d 5ffe 6e3e cc7d 49bc
00000230: 6cdb 59be 4441 45bc 5544 f33d 402e 3dbe
00000240: 7a88 423d 51a2 043e 65df 073e cc9e 333e
00000250: 0af1 6dbe 8fcc a9bc 8661 c5bd de70 013d
00000260: d128 2dbe 1ff2 153e bda7 7a3c 209c 0fbe
00000270: 3e6c 043e 0e34 93bd cac8 71be b57b 93bd
00000280: 0db2 5c3e 0778 9cbd e04e 7bbd 1441 0abe
00000290: a8d7 42be 13ee 763d 854a 333d 3e49 12be
000002a0: df89 66be efcc 6d3e cb40 143e 16a6 eabd
000002b0: d007 083e 26a6 7abe dff6 3bbe 47e2 1dbe
000002c0: 7aa4 57bc e8e8 ad3c 878c 1f3e cd17 493e
000002d0: c94f bb3d c197 17be c455 cebd f5c1 983d
000002e0: 0344 453e 839d b63c d06d 4cbe ae77 90bd
000002f0: 6e54 c5bc 6f32 80be bdad 3a3d 6d68 7ebe
00000300: e53b e9bc 9666 17be dcc3 d73d 88f2 553e
00000310: ecca 1bbe e36c 81be 9d85 6fbe 855d abbd
00000320: 6d96 843e 992b 2cbd 2c52 813e 9644 15be
00000330: 615a 9d3d 5f75 6e3e 3ff3 693c 7932 dabd
00000340: 7d17 0a3e e059 2bbe 4052 3e3e 974c 953d
00000350: d181 6dbe 2d01 30be d188 cdbd 17e2 1fbd
00000360: 473e 993e b90f 8bbe 300a 623e 48e4 a93e
00000370: 3629 3e3e 7878 68be 3ed2 26bd d5fc a7bd
00000380: a028 413e 9dfd a7bd 1dd0 2bbe 8be2 ab3c
00000390: 14a6 853d 794a 323e 36fa 013e 072d 123e
000003a0: d9b0 f53d c90b 823e 77a2 3cbd 2d28 483d
000003b0: 94ce 1e3c 41df 353d 875f c33d 4331 c33c
000003c0: 321c 253e 58b1 59be 948f 1e3e 6614 3d3e
000003d0: b419 4c3e 3087 413e d730 e7b9 9dbf 86bd
000003e0: 6f2d 703d 94d3 673e 8644 5dbe 7976 ef3d
000003f0: 26ea a1be 1f35 343e 1f27 993d 3fe6 933d

net.2.layer.bias f4 [40]
0.0033791205 0.05092254 0.038557496 0.00835251 0.02949968 -0.06337194 -0.075016454 0.07397914
-0.08047732 -0.0062080817 0.012404372 -0.0024876317 -0.02170972 0.044076644 0.122463636 0.052067075
0.08049961 -0.030721549 -0.06904329 -0.07485276 -0.01445276 0.05698784 0.057863425 0.071637705
-0.018653667 0.1311946 -0.0050488315 0.0366578 -0.058942545 0.06883217 0.025750635 -0.13136894
0.11508462 0.070288226 0.02406336 0.04944826 0.050414544 0.09853285 -0.06493352 -0.03686678
00000000: 3c74 5d3b 2794 503d 77ee 1d3d f7d8 083c
00000010: 50a9 f13c 26c9 81bd 3aa2 99bd 6082 973d
00000020: 4bd1 a4bd 2a6d cbbb b53b 4b3c 8907 23bb
00000030: 95d8 b1bc b689 343d 37ce fa3d 4944 553d
00000040: fbdc a43d c2ab fbbc 9266 8dbd 674c 99bd
00000050: 45cb 6cbc 156c 693d 3302 6d3d cab6 923d
00000060: 93cf 98bc e157 063e ab70 a5bb 7d26 163d
00000070: bd6d 71bd e1f7 8c3d fff2 d23c 9485 06be
00000080: 7cb1 eb3d 46f3 8f3d 8620 c53c 428a 4a3d
00000090: 7b7f 4e3d 97cb c93d defb 84bd 9f01 17bd

net.3.layer.weight f4 [40, 40]
-0.15275931 -0.16319208 -0.11019691 -0.19090472 0.170439 0.10109172 -0.13730583 -0.05215495
0.13049659 0.12929204 -0.106774025 -0.040913895 0.24674027 -0.110810645 0.19539037 -0.108979546
0.08142681 -0.24704246 -0.20898269 -0.1767144 -0.22816113 -0.037598703 0.066701226 0.028409386
-0.13181198 -0.24932119 0.046603005 -0.05193017 -0.104322545 0.033632826 -0.22596923 -0.07325367
-0.12484202 0.034713745 -0.090987 0.020615665 -0.02751817 -0.26494864 -0.08397089 -0.035374586
-0.016890157 -0.21019101 0.084314644 -0.033485107 -0.004753762 -0.20692313 0.24115734 -0.13250911
-0.13948059 -0.08269539 -0.19949941 0.1994583 0.23895587 -0.22405086 0.08749418 0.2693837
0.05967272 -0.11189323 -0.25730333 0.031147415 -0.20709462 -0.03549061 0.21504737 -0.16114542
0.20181116 0.17307284 0.044870637 -0.011220301 -0.29672292 0.23305091 -0.20278345 -0.1805584
-0.07840674 -0.12626411 -0.22831753 0.22478336 -0.2031263 0.078493014 -0.03230541 -0.24004051
0.04620507 0.083857976 -0.158582 -0.15268368 0.15124972 -0.07591018 0.087823786 0.088971004
-0.22641185 0.19024932 -0.24740423 -0.026796794 0.051936954 -0.0048370976 -0.07966774 0.20568298
-0.1160763 0.18454517 -0.039815538 -0.23466767 0.2138492 0.07427184 -0.105612084 -0.23314781
0.22699076 0.18818505 -0.08443462 -0.04838729 -0.1968751 -0.23029791 -0.060244676 -0.04127798
-0.18178517 0.15787987 -0.20055151 0.22605382 0.28177235 0.24943595 -0.20088105 0.20517527
-0.06438923 -0.1719155 -0.0074293963 0.12841111 0.17003888 0.2262855 0.087404646 -0.042754114
0.09958019 0.012035213 0.066465676 0.14306155 0.25994065 -0.1860207 -0.26018006 0.12601127
-0.19314206 0.24396315 0.028868152 0.18700297 -0.056839522 -0.34353018 -0.16541928 -0.30977285
-0.18878347 -0.41787618 -0.13333294 0.13950728 0.1816818 0.11071939 -0.25188354 0.0108216
-0.2110642 -0.33934593 0.20567915 -0.13545147 0.21636239 -0.30447653 -0.022421952 0.26146325
0.33480152 0.011731497 -0.26912308 0.011384521 -0.03736556 0.24873586 0.20283526 0.35662478
0.1410766 -0.15155153 -0.11746901 0.10285105 0.047195382 -0.12986384 -0.083685316 -0.2255448
0.10349226 0.111778595 0.16030882 -0.012894083 -0.24734358 0.32163572 0.29997286 0.10054112
0.25439087 0.06717245 -0.23688558 -0.04408284 0.023161741 0.18936718 -0.06787578 -0.05037933
-0.034146756 0.20875682 -0.3246409 0.35280353 -0.13955054 0.20982929 0.24215846 -0.0716763
0.07645227 -0.3527037 0.17808135 0.2797272 -0.25982913 0.09340973 0.3964638 -0.30806464
-0.0986077 -0.175587 0.057132207 0.023436142 0.2861222 0.018184459 0.3719594 -0.04664824
0.2317925 0.27734557 0.033772122 0.11217668 -0.2685501 -0.34045574 -0.007458563 -0.36814725
-0.36029944 0.18600951 -0.22847067 -0.15597157 -0.3442404 -0.2566407 0.3160951 0.0650825
0.27466965 0.16801247 -0.24870639 0.06959129 -0.37194797 -0.3561263 0.049101185 -0.15578596
0.2775622 0.13098547 0.20102279 -0.11497019 -0.23404543 0.118096136 -0.14958179 0.12967254
-0.310167 0.28172445 0.044039667 -0.1595636 -0.23424162 0.22777088 -0.0676451 -0.017868815
00000000: f06c 1cbe d31b 27be ebae e1bd 877c 43be
00000010: 9087 2e3e 2d09 cf3d e699 0cbe 6ea0 55bd
00000020: e6a0 053e 2265 043e 57ac dabd 5495 27bd
00000030: 7ba9 7c3e b1f0 e2bd 6a14 483e ab30 dfbd
00000040: 19c3 a63d b3f8 7cbe 8fff 55be 9ff4 34be
00000050: 12a3 69be 1901 1abd a79a 883d cdba e83c
00000060: b8f9 06be 0e4e 7fbe cbe2 3e3d bbb4 54bd
00000070: 0fa7 d5bd 93c2 093d 7a64 67be 0506 96bd
00000080: 2cad ffbd 0030 0e3d 6457 babd 2fe2 a83c
00000090: c96d e1bc 59a7 87be eef8 abbd f1e4 10bd
000000a0: 3a5d 8abc 503c 57be 28ad ac3d ae27 09bd
000000b0: 72c5 9bbb a8e3 53be f3f1 763e 78b0 07be
000000c0: 00d4 0ebe 335c a9bd 9349 4cbe cc3e 4c3e
000000d0: d9b0 743e 976d 65be 2630 b33d a9ec 893e
000000e0: 626b 743d 4728 e5bd 43bd 83be dd28 ff3c
000000f0: 9d10 54be 9a5e 11bd 6135 5c3e 4e03 25be
00000100: 96a7 4e3e 023a 313e 46ca 373d 5ad5 37bc
00000110: 11ec 97be e6a4 6e3e 77a6 4fbe 4de4 38be
00000120: b793 a0bd 614b 01be 12cc 69be 9c2d 663e
00000130: 5700 50be f2c0 a03d ad52 04bd 2ecd 75be
00000140: 8741 3d3d bbbd ab3d 5263 22be 1c59 1cbe
00000150: 35e1 1a3e cc76 9bbd f5dc b33d 6e36 b63d
00000160: 82d8 67be b8d0 423e 8957 7dbe f384 dbbc
00000170: d8bb 543d 8480 9ebb d728 a3bd 8f9e 523e
00000180: 69b9 edbd 69f9 3c3e 9e15 23bd b94c 70be
00000190: 49fb 5a3e d61b 983d 264b d8bd 4dbe 6ebe
000001a0: 4470 683e 95b3 403e 0fec acbd c031 46bd
000001b0: a099 49be 37d3 6bbe 1fc3 76bd 1913 29bd
000001c0: e425 3abe 43ab 213e 605d 4dbe a77a 673e
000001d0: 7744 903e 236c 7f3e c3b3 4dbe 7719 523e
000001e0: 80de 83bd 9e0a 30be 4b72 f3bb 347e 033e
000001f0: ac1e 2e3e 63b7 673e 3501 b33d f01e 2fbd
00000200: b3f0 cb3d 582f 453c 281f 883d ba7e 123e
00000210: f116 853e 367c 3ebe 5236 85be 1909 013e
00000220: 08c7 45be 7ad1 793e e77c ec3c b57d 3f3e
00000230: 8fd0 68bd 30e3 afbe ac63 29be 8c9a 9ebe
00000240: 7450 41be def3 d5be 6e88 08be ffda 0e3e
00000250: cb0a 3a3e d9c0 e23d e1f6 80be 154d 313c
00000260: 3721 58be c0be adbe 8e9d 523e cab3 0abe
00000270: 1a8e 5d3e 59e4 9bbe 3eae b7bc 83de 853e
00000280: 1b6b ab3e 7735 403c 80ca 89be 2486 3a3c
00000290: a10c 19bd 9db4 7e3e 0cb4 4f3e 8697 b63e
000002a0: 6276 103e 5330 1bbe 9893 f0bd 92a3 d23d
000002b0: f24f 413d 07fb 04be 3563 abbd 37f5 66be
000002c0: c0f3 d33d 2dec e43d ff27 243e b441 53bc
000002d0: a347 7dbe 70ad a43e 0b96 993e 81e8 cd3d
000002e0: 853f 823e b691 893d 2292 72be 3590 34bd
000002f0: b1bd bd3c 78e9 413e 7502 8bbd 8e5a 4ebd
00000300: 78dd 0bbd 59c4 553e 5537 a6be aaa2 b43e
00000310: 56e6 0ebe 7ddd 563e 63f8 773e 06cb 92bd
00000320: 0293 9c3d 9495 b4be f55a 363e 6738 8f3e
00000330: 5308 85be 9a4d bf3d 4efd ca3e a6ba 9dbe
00000340: d5f2 c9bd 14cd 33be 7603 6a3d 27fd bf3c
00000350: 9c7e 923e 93f7 943c 7671 be3e 3a12 3fbd
00000360: 035b 6d3e 3d00 8e3e a354 0a3d e3bc e53d
00000370: 667f 89be 3750 aebe f666 f4bb cc7d bcbe
00000380: 2b79 b8be 4779 3e3e 37f4 69be 03b7 1fbe
00000390: 4740 b0be 6966 83be 38d7 a13e f949 853d
000003a0: 80a1 8c3e 760b 2c3e e3ac 7ebe e185 8e3d
000003b0: f76f bebe 3056 b6be 531e 493d 5b86 1fbe
000003c0: a21c 8e3e 0e21 063e ebd8 4d3e 7e75 ebbd
000003d0: 9ba9 6fbe 63dc f13d f82b 19be e1c8 043e
000003e0: 36ce 9ebe 303e 903e f062 343d a464 23be
000003f0: 09dd 6fbe c53c 693e 8489 8abd 9f61 92bc

net.3.layer.bias f4 [40]
-0.012039711 0.08292095 -0.0010362172 -0.07262988 -0.023187047 -0.033250984 0.036352966 0.058224846
-0.004544336 -0.096401386 0.01900196 -0.03504827 0.058940016 -0.0033513792 -0.085659586 -0.04505862
0.00858006 0.021116123 0.0772012 0.023211045 -0.054836515 0.0015299139 -0.0119792055 0.06707063
-0.05061252 0.024293466 -0.03523778 0.034726616 -0.10203503 0.0034155485 -0.03141839 -0.03749286
-0.08856397 0.034939714 0.049794734 0.04817059 -0.050487828 0.03871073 0.002069077 0.11545439
00000000: 3542 45bc 76d2 a93d aed1 87ba f9be 94bd
00000010: c3f2 bdbc 2f32 08bd d9e6 143d 2d7d 6e3d
00000020: a7e8 94bb 176e c5bd 00aa 9b3c c68e 0fbd
00000030: 166b 713d d0a2 5bbb 4b6e afbd 638f 38bd
00000040: 6193 0c3c b8fb ac3c aa1b 9e3d 1725 be3c
00000050: 419c 60bd 6487 c83a 6e44 44bc 545c 893d
00000060: 134f 4fbd 1703 c73c 7e55 10bd 7f3d 0e3d
00000070: bef7 d0bd 65d7 5f3b 92b0 00bd 1d92 19bd
00000080: 0761 b5bd f21c 0f3d 90f5 4b3d 864e 453d
00000090: 53cc 4ebd 248f 1e3d 5a99 073b 5a73 ec3d

net.4.layer.weight f4 [40, 40]
-0.14304025 0.22478461 -0.19092302 -0.037235558 0.046848055 0.040883526 -0.18010965 -0.23050527
-0.15655588 0.007280554 -0.029940937 -0.21491379 -0.105622545 0.18060546 0.23694116 -0.29038066
0.23080066 0.3282683 0.17587967 0.2238601 -0.16245222 0.14947595 0.08309777 -0.098704234
-0.17657547 0.21785316 0.299706 0.07088523 -0.22373606 -0.13596284 0.006458194 -0.16452749
-0.06675378 -0.15981396 0.083630115 -0.1265571 0.22386295 -0.23111013 0.26768222 -0.001376348
0.004895785 0.18973716 -0.27985805 -0.15851185 -0.123678 0.07236734 0.0162682 0.15233563
0.05011695 -0.05142469 -0.23928839 0.08755553 -0.055938836 -0.10866475 -0.08949317 -0.03393439
0.087173715 0.22734685 0.24818498 0.3071974 -0.27535564 0.258384 -0.08633106 0.2696195
0.23849438 0.1509024 0.21223083 0.013529183 -0.21029 0.008188673 -0.21466011 0.049188923
-0.214328 0.2997507 0.20330529 -0.23040453 -0.03395433 0.23820972 -0.19516777 -0.1397959
-0.25411016 -0.15194379 -0.13565573 -0.17394066 0.30062744 -0.3202515 0.064145036 -0.36180702
0.30451775 -0.24010187 0.10790908 -0.24939363 0.14257665 -0.030312262 0.1591392 -0.22736737
0.26584864 0.26466414 0.25140083 -0.2623923 0.08501385 -0.28456408 0.18772027 0.03343063
0.25540763 0.33768222 0.20546946 0.12532441 -0.056865666 -0.39792088 -0.16648862 -0.30024222
-0.19922057 -0.23846701 0.042784475 0.0700691 0.17421378 0.16383754 0.1999396 -0.12762354
-0.12284656 0.1999603 -0.22657304 0.08312455 -0.2676368 0.05262191 0.027467243 -0.15109278
-0.100788556 0.12078669 -0.23672159 0.14234637 -0.29348618 0.12472773 -0.087228745 -0.12166569
-0.06724305 -0.25019452 0.014578266 -0.07570627 0.036458902 0.26253182 0.27169347 -0.04535729
0.13601162 -0.29542005 -0.25063398 0.34813124 -0.118574716 0.2544328 -0.013938804 -0.24744442
0.09822584 0.1667362 0.057428103 0.23190135 -0.12882032 0.1160079 -0.08669055 0.22302556
0.2931663 0.37721097 0.0884367 -0.21809655 -0.056933604 0.31787777 0.06298022 -0.17274082
-0.1854048 0.07416105 0.09346171 -0.010364747 0.08705327 -0.22999264 0.034183927 0.12757988
-0.09211591 -0.07547332 0.37406477 0.14544953 -0.10155195 -0.1388212 -0.29613864 0.1455239
0.115736306 -0.23071004 -0.30124605 0.17307533 -0.24241748 0.031234289 0.19108763 -0.37312678
0.08082075 -0.012526305 0.37267205 0.10249231 -0.27950013 0.04185781 -0.1789521 -0.024284199
0.1426425 0.2019459 -0.15228753 0.02772209 -0.17866501 0.18671742 -0.06841881 0.29466075
-0.27438372 0.20226358 -0.08101902 -0.23786514 -0.14531156 0.27750686 -0.10747572 0.050224006
-0.07973407 -0.08398444 0.013851553 0.07381995 0.061242484 -0.07212382 -0.02418465 -0.01097178
0.084961616 -0.14195438 0.21310775 0.35830572 -0.05608218 0.05468758 -0.23323387 0.19352043
-0.17005251 -0.08422161 -0.26032686 0.18920568 -0.09651779 -0.19741282 0.1519964 0.086754724
0.18756427 -0.2024447 -0.22105329 -0.22283523 -0.023270512 0.08504844 -0.19102404 -0.049826115
-0.13994636 0.13851629 0.15917177 -0.20238434 -0.25117558 -0.16091198 0.19773321 0.20149057
00000000: 2579 12be f02d 663e 5381 43be 5084 18bd
00000010: bfe3 3f3d 7c75 273d aa6e 38be 9309 6cbe
00000020: 2f50 20be b791 ee3b b246 f5bc 5c12 5cbe
00000030: a250 d8bd a3f0 383e b4a0 723e c6ac 94be
00000040: 0257 6c3e c812 a83e cd19 343e 953b 653e
00000050: e059 26be 3910 193e 2a2f aa3d 7225 cabd
00000060: 33d0 34be e614 5f3e 1173 993e 472c 913d
00000070: 111b 65be d839 0bbe 429f d33b e579 28be
00000080: 35b6 88bd 45a6 23be 4446 ab3d 2f98 01be
00000090: 543c 653e 22a8 6cbe a50d 893e 9366 b4ba
000000a0: d26c a03b 754a 423e 8e49 8fbe ee50 22be
000000b0: e44a fdbd 5435 943d e344 853c dffd 1b3e
000000c0: 6e47 4d3d b2a2 52bd 0408 75be 5050 b33d
000000d0: 1f20 65bd a08b debd 3248 b7bd c9fe 0abd
000000e0: 2288 b23d 9dcd 683e 3424 7e3e fa48 9d3e
000000f0: 6afb 8cbe e84a 843e 57ce b0bd 910b 8a3e
00000100: df37 743e 2986 1a3e 0a53 593e 82a9 5d3c
00000110: 4356 57be c929 063c dccf 5bbe 537a 493d
00000120: cd78 5bbe ec78 993e 432f 503e 2aef 6bbe
00000130: b213 0bbd 40ed 733e 0fda 47be a826 0fbe
00000140: ba1a 82be 2797 1bbe 56e9 0abe 801d 32be
00000150: d7eb 993e 01f8 a3be 795e 833d c53e b9be
00000160: c0e9 9b3e 44dd 75be 70ff dc3d 0b61 7fbe
00000170: 9dff 113e 6c51 f8bc 63f5 223e fed2 68be
00000180: 501d 883e 0f82 873e 9cb7 803e 4958 86be
00000190: be1b ae3d 62b2 91be be39 403e 8eee 083d
000001a0: cac4 823e afe4 ac3e 9666 523e 0b55 003e
000001b0: f9eb 68bd 49bc cbbe fe7b 2abe 59b9 99be
000001c0: 7a00 4cbe b230 74be c63e 2f3d 6380 8f3d
000001d0: 1965 323e 07c5 273e f7bc 4c3e bfaf 02be
000001e0: fa96 fbbd 65c2 4c3e c302 68be 343d aa3d
000001f0: b107 89be 128a 573d fc02 e13c 11b8 1abe
00000200: 3b6a cebd 035f f73d 2567 72be 3fc3 113e
00000210: d243 96be 4171 ff3d fca4 b2bd dc2b f9bd
00000220: b9b6 89bd 7f19 80be aed9 6e3c e40b 9bbd
00000230: ee55 153d 926a 863e 681b 8b3e 91c8 39bd
00000240: a146 0b3e 4c41 97be 1953 80be 423e b23e
00000250: 4dd7 f2bd 0445 823e 955f 64bc 1262 7dbe
00000260: a12a c93d e5bc 2a3e bb39 6b3d 8c77 6d3e
00000270: 79e9 03be 8d95 ed3d d18a b1bd d060 643e
00000280: e519 963e cc21 c13e 4d1e b53d b454 5fbe
00000290: 3633 69bd e0c0 a23e c6fb 803d f8e2 30be
000002a0: c2da 3dbe c0e1 973d da68 bf3d e6d0 29bc
000002b0: fc48 b23d 3183 6bbe 7204 0c3d 4da4 023e
000002c0: 44a7 bcbd c291 9abd 6b85 bf3e b9f0 143e
000002d0: 78fa cfbd 2527 0ebe 7c9f 97be 3804 153e
000002e0: 2807 ed3d 413f 6cbe ec3c 9abe a93a 313e
000002f0: 4a3c 78be 0ddf ff3c 7aac 433e 790a bfbe
00000300: 5985 a53d 223b 4dbc dfce be3e 7de7 d13d
00000310: a41a 8fbe 1873 2b3d 383f 37be a8ef c6bc
00000320: e010 123e e8ca 4e3e 43f1 1bbe 7019 e33c
00000330: f6f3 36be da32 3f3e 291f 8cbd c6dd 963e
00000340: 067c 8cbe 2f1e 4f3e 4ded a5bd eb92 73be
00000350: 8ecc 14be 6115 8e3e 3b1c dcbd b0b7 4d3d
00000360: 9e4b a3bd 0900 acbd a0f1 623c ea2e 973d
00000370: 66d9 7a3d a7b5 93bd e31e c6bc fbc2 33bc
00000380: 5b00 ae3d 7d5c 11be eb38 5a3e d973 b73e
00000390: 6eb6 65bd 1500 603d dcd4 6ebe 382a 463e
000003a0: 3f22 2ebe 617c acbd 9049 85be 22bf 413e
000003b0: 1eab c5bd 9626 4abe f2a4 1b3e 76ac b13d
000003c0: d910 403e aa4d 4fbe cb5b 62be eb2e 64be
000003d0: cda1 bebc e02d ae3d ce9b 43be 7816 4cbd
000003e0: 194e 0fbe 37d7 0d3e edfd 223e d73d 4fbe
000003f0: 169a 80be 1cc6 24be 937a 4a3e 8b53 4e3e

net.4.layer.bias f4 [40]
-0.021555476 0.09753799 -0.03258958 -0.018781934 0.06719467 -0.0031182317 0.027916268 0.0025455742
-0.06422506 -0.10502482 0.03395862 -0.07575385 0.0050462056 -0.0034351328 -0.032689407 -0.07553833
0.077123925 0.0101562515 -0.026317706 -0.087215155 0.03901761 0.057571255 0.028557235 0.04029907
-0.04918503 -0.044178173 -0.028786171 0.028645648 0.052027915 0.020908736 -0.059564102 -0.0056941807
0.037207518 0.010826034 0.0614775 -0.06829169 0.012330006 0.027295684 0.024033543 0.022507815
00000000: 1c95 b0bc ffc1 c73d a77c 05bd 92dc 99bc
00000010: 5c9d 893d 3f5b 4cbb a8b0 e43c a6d3 263b
00000020: 6e88 83bd 4117 d7bd 3218 0b3d d624 9bbd
00000030: a45a a53b f71f 61bb 54e5 05bd d7b3 9abd
00000040: 26f3 9d3d 6866 263c 3b98 d7bc dc9d b2bd
00000050: eed0 1f3d d6cf 6b3d ddf0 e93c a310 253d
00000060: 3e76 49bd 2cf4 34bd fad0 ebbc 47aa ea3c
00000070: 391b 553d cc48 ab3c 7df9 73bd 4096 babb
00000080: e966 183d ad5f 313c d5cf 7b3d 83dc 8bbd
00000090: cb03 4a3c 339b df3c fee1 c43c 4f62 b83c

net.5.layer.weight f4 [40, 40]
0.001365406 0.09739312 -0.0501442 0.042401746 -0.15840808 0.21126811 0.034949217 -0.17137115
0.1046233 -0.09493601 0.26370716 -0.31508914 0.24859917 0.17419058 -0.12506813 0.06479389
-0.06576833 -0.17774536 -0.08080327 -0.3108756 -0.03055561 0.0965479 0.18363668 0.16821864
-0.19592209 0.08212315 0.18251468 0.046094343 -0.05918787 -0.06239454 -0.21903002 -0.13423541
0.12902336 -0.058574423 -0.18013087 0.13404126 -0.076874286 0.22756487 -0.18684347 -0.02945173
0.15756051 0.19478297 0.19756797 0.16934457 0.09778058 -0.009781146 -0.21221635 0.10045819
0.16675423 -0.14047015 0.17351976 -0.29798278 -0.023261338 0.1639005 -0.30592564 -0.0036289864
-0.01736789 0.06446991 -0.2288857 -0.26148883 0.053746406 -0.23270407 0.11134826 -0.10941855
-0.05909668 0.07561085 -0.24790405 0.16701902 0.216594 -0.06654169 -0.24031405 0.07454783
-0.25507975 0.21878803 0.013205881 -0.13313942 0.2371239 0.17812474 -0.0102805095 -0.11873398
-0.04310187 0.22202925 0.1586888 -0.32017493 -0.049487345 0.10026552 0.1818079 -0.058301076
0.052479345 -0.07997033 -0.013959935 -0.035387617 0.0408513 -0.22169217 0.05448741 0.12849434
-0.29632962 -0.012201445 0.17739758 0.28348818 -0.28742254 0.09862515 0.0066230977 -0.14130074
-0.04475218 -0.12529068 0.13486516 0.051235378 -0.16435334 -0.2342031 -0.06249814 0.023779865
-0.3281129 0.08909378 0.22292341 -0.15232138 -0.3052789 -0.18148394 -0.01112761 -0.124390036
0.072660305 0.04363356 0.049054574 0.26147854 0.16518384 -0.06642715 -0.18171492 -0.047595043
-0.17424528 0.19025302 -0.26554438 -0.11433769 -0.21190724 -0.12058979 -0.26186746 -0.24768633
-0.15174995 -0.053118464 -0.25205657 0.19722505 0.15764593 -0.018024327 0.0057018124 0.13621365
0.17753635 0.025849916 0.2665001 -0.23299655 -0.14138988 -0.046713885 0.07821259 -0.13326919
-0.06282945 -0.12346815 -0.12884657 0.20695311 0.16911857 0.20495254 -0.21156764 -0.06637037
-0.032929894 0.2628831 0.14714856 -0.027284738 -0.0069184243 0.09520966 0.2470562 0.12329911
-0.19525355 -0.04067056 -0.1252596 -0.07993899 -0.09872134 0.12283012 0.056326993 -0.2597706
0.20004438 0.04061739 0.23360413 -0.16603738 0.052399583 -0.0053059408 -0.104518496 0.09195443
-0.17376198 -0.22949708 -0.13249236 -0.1551319 -0.23144926 -0.016162073 0.20827466 -0.15504484
-0.16790913 -0.09440652 0.002302153 0.22158302 0.14960521 0.0331427 0.16662905 -0.04321774
0.29779384 -0.028692324 0.35596356 0.0018431549 -0.049630005 0.23561162 0.23144774 -0.092591316
-0.14488772 -0.0813295 -0.041528694 -0.030876067 -0.12883486 0.12830414 -0.0023073945 -0.108535714
0.11873694 -0.014482488 -0.29623637 0.1483955 0.15284966 -0.15357767 0.12886788 0.26156324
-0.22754589 -0.17765611 0.092026055 0.275108 -0.19320463 0.13037121 -0.19747205 -0.1312628
0.031548984 0.0059364154 -0.121075675 0.11788478 0.058113288 0.15525849 0.064082175 0.059273086
-0.080666356 0.108235195 -0.3232821 0.29258847 -0.012155426 0.06341905 -0.22919828 -0.24992503
-0.229757 -0.20853803 -0.15825933 -0.26595125 -0.19810282 -0.10089306 0.21743293 -0.26813695
00000000: 6cf7 b23a 0b76 c73d 0164 4dbd 74ad 2d3d
00000010: ba35 22be ab56 583e e926 0f3d eb7b 2fbe
00000020: be44 d63d d06d c2bd a004 873e 5d53 a1be
00000030: c890 7e3e 045f 323e dc11 00be a9b2 843d
00000040: 8cb1 86bd e102 36be 2f7c a5bd 162b 9fbe
00000050: c24f fabc e8ba c53d 410b 3c3e 8241 2c3e
00000060: cd9f 48be 2f30 a83d 21e5 3a3e 6ccd 3c3d
00000070: fb6e 72bd 6b91 7fbd 6849 60be 0275 09be
00000080: b31e 043e bceb 6fbd 3a74 38be 1d42 093e
00000090: 4470 9dbd c406 693e e553 3fbe c144 f1bc
000000a0: 8b57 213e 3075 473e 424f 4a3e aa68 2d3e
000000b0: 2f41 c83d 1a41 20bc 3e4f 59be 06bd cd3d
000000c0: 9fc1 2a3e 68d7 0fbe 2aaf 313e 3391 98be
000000d0: 908e bebc 88d5 273e 49a2 9cbe 4ad4 6dbb
000000e0: 1b47 8ebc cd08 843d 0361 6abe dde1 85be
000000f0: 3125 5c3d fa49 6ebe 8e0a e43d d516 e0bd
00000100: 5c0f 72bd dcd9 9a3d 8fda 7dbe 0907 2b3e
00000110: d1ca 5d3e 0247 88bd e314 76be 88ac 983d
00000120: d099 82be f809 603e 7b5d 583c b355 08be
00000130: 9cd0 723e 5566 363e 956f 28bc cd2a f3bd
00000140: 968b 30bd a35b 633e 517f 223e f8ed a3be
00000150: 3eb3 4abd 0258 cd3d da2b 3a3e 1ccd 6ebd
00000160: 95f4 563d 7cc7 a3bd 36b8 64bc 9bf2 10bd
00000170: b153 273d 4603 63be 312e 5f3d 0594 033e
00000180: 84b8 97be 92e8 47bc b6a7 353e 5d25 913e
00000190: 0c29 93be fcfb c93d 9206 d93b 24b1 10be
000001a0: 104e 37bd 334c 00be 181a 0a3e 30dc 513d
000001b0: 3e4c 28be f0d2 6fbe 0dfe 7fbd fecd c23c
000001c0: 6afe a7be cd76 b63d 0946 643e 23fa 1bbe
000001d0: 844d 9cbe edd6 39be 9450 36bc 34c0 febd
000001e0: edce 943d 1bb9 323d 73ed 483d 84e0 853e
000001f0: f425 293e f50a 88bd 7a13 3abe 05f3 42bd
00000200: 5b6d 32be b0d1 423e 6ff5 87be e129 eabd
00000210: 36fe 58be c8f7 f6bd 7e13 86be 7ca1 7dbe
00000220: 5764 1bbe bf92 59bd 8f0d 81be 5df5 493e
00000230: ef6d 213e c1a7 93bc 45d6 ba3b 977b 0b3e
00000240: 17cc 353e 34c3 d33c b372 883e a696 6ebe
00000250: 82c8 10be 0f57 3fbd ec2d a03d b877 08be
00000260: baac 80bd dfdc fcbd 5bf0 03be 84eb 533e
00000270: 6b2d 2d3e 14df 513e 30a5 58be 30ed 87bd
00000280: 7fe1 06bd 9d98 863e 1dae 163e 3e84 dfbc
00000290: f3b3 e2bb 48fd c23d 4dfc 7c3e 3e84 fc3d
000002a0: 8cf0 47be 2c96 26bd 0d44 00be 0eb7 a3bd
000002b0: 6a2e cabd 5c8e fb3d 22b7 663d a700 85be
000002c0: 6fd8 4c3e 6c5e 263d ec35 6f3e b405 2abe
000002d0: f2a0 563d 75dd adbb cb0d d6bd 9b52 bc3d
000002e0: a9ee 31be 4801 6bbe 14ac 07be e6da 1ebe
000002f0: 0901 6dbe 5366 84bc f445 553e 13c4 1ebe
00000300: 5ff0 2bbe 3558 c1bd b8df 163b a9e6 623e
00000310: 1c32 193e a4c0 073d cea0 2a3e 1605 31bd
00000320: 6f78 983e 2a0c ebbc db40 b63e 0496 f13a
00000330: d548 4bbd 2c44 713e a300 6d3e 84a0 bdbd
00000340: 725d 14be 1590 a6bd fe19 2abd ceef fcbc
00000350: 49ed 03be 2962 033e a837 17bb f947 debd
00000360: 5a2c f33d f547 6dbc 4bac 97be fdf4 173e
00000370: 9f84 1c3e 7743 1dbe f1f5 033e 9eeb 853e
00000380: ca01 69be 7ceb 35be 2878 bc3d f5da 8c3e
00000390: 6fd7 45be 0880 053e 1d36 4abe c169 06be
000003a0: 8239 013d 4386 c23b 86f6 f7bd 936d f13d
000003b0: 3308 6e3d 15fc 1e3e 843d 833d 56c8 723d
000003c0: 6734 a5bd 6aaa dd3d 3b85 a5be 28ce 953e
000003d0: 8d27 47bc d9e1 813d f4b2 6abe 59ec 7fbe
000003e0: 6b45 6bbe fe8a 55be bc0e 22be c32a 88be
000003f0: 77db 4abe 05a1 cebd bda6 5e3e 3f49 89be

net.5.layer.bias f4 [40]
-0.02813626 0.020773323 -0.060671546 -0.040937576 0.0684681 0.018987946 0.005756705 -0.037317034
0.059740927 -0.04163485 0.00908102 0.03393547 -0.027218968 -0.068703175 -0.03840782 0.010182469
-0.0034003495 0.058307044 -0.010066932 0.08778469 -0.09571178 0.003416563 -0.022745842 0.059359554
0.018681955 0.06617577 0.079878606 -0.076184444 -0.11413159 0.082982115 -0.021959983 0.064865045
0.06384711 0.027170394 -0.040421236 -0.076687366 0.041473515 0.06564806 0.060774773 0.00816767
00000000: 047e e6bc d12c aa3c ba82 78bd 29ae 27bd
00000010: 0139 8c3d 9c8c 9b3c bea2 bc3b bfd9 18bd
00000020: e7b2 743d 4e89 2abd 8fc8 143c ebff 0a3d
00000030: 50fa debc 40b4 8cbd 8551 1dbd 5fd4 263c
00000040: 66d8 5ebb 5ed3 6e3d c6ef 24bc 76c8 b33d
00000050: 8a04 c4bd 6ae8 5f3b 7d55 babc 0123 733d
00000060: e60a 993c 2987 873d 6597 a33d 9706 9cbd
00000070: d3bd e9bd 87f2 a93d 6ce5 b3bc f7d7 843d
00000080: 46c2 823d 7294 de3c bd90 25bd 440e 9dbd
00000090: 22e0 293d 7d72 863d f8ee 783d b1d1 053c

net.6.layer.weight f4 [40, 40]
0.14526771 0.13384932 -0.18506597 0.095569775 -0.17943723 -0.046523947 0.14021873 -0.04533565
0.11527432 -0.14774132 0.22436813 0.052059617 -0.11413887 0.16634873 0.14117405 -0.20482127
-0.2597322 0.23938283 -0.010208051 0.21809636 0.11208191 0.22019182 -0.26419714 0.061315533
0.20263171 -0.21345368 -0.06778755 0.22906972 0.054528676 -0.060868345 -0.16628096 0.04322436
-0.13718633 0.02774749 -0.09185473 -0.21386051 0.21624973 -0.0854857 0.12149024 0.087713055
-0.02726641 -0.2883888 -0.050837252 -0.013063715 -0.13173719 -0.17547137 -0.30633962 -0.025148306
-0.16611168 0.06456439 -0.27316615 -0.10983458 0.3403943 0.11159062 0.1276791 0.4504198
0.30238852 0.07906433 0.11849168 -0.30980211 -0.13298005 -0.28166488 0.18791981 -0.3531038
0.040580977 -0.37980407 0.14214604 -0.09825485 -0.28451055 0.07596808 0.21436699 0.15877557
-0.1878848 0.30140266 -0.25576836 0.5341115 -0.30949232 -0.06844673 0.06901402 -0.30401623
0.11297515 0.20713195 -0.03769984 0.07666282 0.10138402 -0.15236849 0.109355316 0.31105125
0.26352462 -0.25015688 0.22870661 0.28317136 0.047527548 -0.05492061 0.043131217 -0.052303184
-0.08074487 -0.16581053 0.25269565 0.20445831 0.13669728 -0.05010867 0.07810165 -0.05511852
-0.1037903 0.24131109 0.20350143 -0.09160055 -0.30497867 -0.2414342 -0.030685993 0.13236512
0.251245 0.030374065 -0.10682333 0.139088 -0.2539396 -0.18461134 -0.10658376 -0.054364983
-0.03779023 -0.11967666 -0.16138045 0.29727694 0.040039998 -0.21674041 -0.21396722 -0.38488555
-0.195374 0.19476786 -0.0038130411 -0.021774882 0.2710582 -0.00090129283 -0.13935715 0.045982793
-0.10259556 0.039575983 -0.24745925 -0.035968512 0.27122074 0.2388472 0.1743317 0.22365604
0.18976702 0.032516234 0.124873914 0.020500246 0.14142236 -0.32412535 0.06496807 -0.20981434
0.22968504 0.21630774 -0.048345055 0.14040656 0.18268226 -0.06364614 -0.09080289 -0.23686162
-0.16371413 0.34252205 -0.31809953 0.0043278113 -0.021851094 0.037350886 0.11491238 0.085204594
0.31135148 -0.24009795 0.18325002 0.25640514 -0.27185923 0.06345352 0.022606658 -0.22173479
0.14992152 0.31536022 -0.17292377 0.2883038 0.07291651 0.21947221 -0.32254088 0.0028217318
-0.06849438 0.088297226 -0.16958871 0.01349383 0.15163682 0.1448448 -0.20463245 0.08471075
-0.24162687 0.10423326 -0.2975646 -0.13410017 0.07172464 -0.21746464 -0.034456108 0.22609252
0.21487094 0.0031083245 0.08830959 -0.26016653 0.1505232 -0.18084879 -0.24588986 0.2087785
0.041328166 -0.19961384 -0.30177483 0.086851306 -0.1439146 0.1625817 -0.010257542 0.0638609
0.28316137 -0.038576778 0.16991958 -0.07340864 0.28702188 0.14748187 -0.041782383 -0.25311837
-0.33737618 -0.16314164 -0.09383075 -0.16737671 -0.2839059 -0.08801718 -0.27622584 -0.32860565
0.15414684 -0.28508312 -0.0072974665 0.28532502 -0.11286019 -0.07551779 -0.12474516 -0.18557276
0.15072018 0.038503148 -0.17964809 -0.25055784 -0.2127791 -0.1249689 0.16676416 0.20979945
0.29206985 -0.12781525 0.10533632 -0.27061322 0.13470416 -0.0051442673 0.23595391 0.28904575
00000000: 0fc1 143e cc0f 093e ef81 3dbe 16ba c33d
00000010: 65be 37be e58f 3ebd 8095 0f3e e0b1 39bd
00000020: f114 ec3d 8049 17be c2c0 653e 773c 553d
00000030: a4c1 e9bd 5257 2a3e ee8f 103e abbc 51be
00000040: 9efb 84be c620 753e ab3f 27bc a754 5f3e
00000050: 338b e53d f779 613e d944 87be ff25 7b3d
00000060: b07e 4f3e 9a93 5abe 33d4 8abd 4191 6a3e
00000070: 7659 5f3d 1651 79bd 8e45 2abe 070c 313d
00000080: 937a 0cbe b44e e33c 551e bcbd 40fe 5abe
00000090: 9270 5d3e 2013 afbd e0cf f83d e7a2 b33d
000000a0: ce5d dfbc b2a7 93be b93a 50bd 3109 56bc
000000b0: 1de6 06be c4ae 33be 8cd8 9cbe d203 cebc
000000c0: 2e19 2abe 563a 843d 6fdc 8bbe f4f0 e0bd
000000d0: 2948 ae3e 9f89 e43d 4fbe 023e 6d9d e63e
000000e0: abd2 9a3e 7bec a13d c4ab f23d 629e 9ebe
000000f0: ec2b 08be 6136 90be 0d6e 403e 05ca b4be
00000100: 3d38 263d ae75 c2be bb8e 113e d739 c9bd
00000110: 5eab 91be 2795 9b3d 0583 5b3e 1096 223e
00000120: df64 40be 7351 9a3e 12f4 82be 88bb 083f
00000130: c775 9ebe cd2d 8cbd 3957 8d3d 04a8 9bbe
00000140: 845f e73d 661a 543e 266b 1abd 6601 9d3d
00000150: 6da2 cf3d 7c06 1cbe aef5 df3d 1c42 9f3e
00000160: b3ec 863e 9014 80be 1132 6a3e d6fb 903e
00000170: 3fac 423d 6ff4 60bd 5caa 303d dd3b 56bd
00000180: 915d a5bd 3cca 29be 5361 813e 855d 513e
00000190: 5ffa 0b3e c03e 4dbd c2f3 9f3d f5c3 61bd
000001a0: 0290 d4bd 411a 773e ae62 503e 1299 bbbd
000001b0: 2a26 9cbe 873a 77be 3161 fbbc b98a 073e
000001c0: 2fa3 803e 08d3 f83c 31c6 dabd 166d 0e3e
000001d0: 5f04 82be c10a 3dbe 9648 dabd d1ad 5ebd
000001e0: eec9 1abd 0919 f5bd eb40 25be af34 983e
000001f0: fb00 243d 33f1 5dbe 391a 5bbe b80f c5be
00000200: 1f10 48be 3a71 473e 37e4 79bb 3d61 b2bc
00000210: 24c8 8a3e bd44 6cba a4b3 0ebe 7458 3c3d
00000220: 9f1d d2bd 6d1a 223d f565 7dbe b853 13bd
00000230: 72dd 8a3e 5c94 743e 0284 323e 1706 653e
00000240: 4952 423e be2f 053d e5bd ff3d 22f0 a73c
00000250: 06d1 103e c2f3 a5be fb0d 853d 92d9 56be
00000260: 8e32 6b3e c77f 5d3e 7705 46bd bdc6 0f3e
00000270: 0f11 3b3e e858 82bd def6 b9bd da8b 72be
00000280: ada4 27be 0d5f af3e f1dd a2be 50d0 8d3b
00000290: 1101 b3bc 3efd 183d 2f57 eb3d bf7f ae3d
000002a0: 7669 9f3e 3ddc 75be e5a5 3b3e 8947 833e
000002b0: 2231 8bbe ebf3 813d 9931 b93c 720e 63be
000002c0: 0785 193e e576 a13e ee12 31be 8e9c 933e
000002d0: 4055 953d 53bd 603e 1424 a5be ceec 383b
000002e0: c846 8cbd 2dd5 b43d aaa8 2dbe 3a15 5d3c
000002f0: af46 1b3e 3252 143e 2b8b 51be d47c ad3d
00000300: 096d 77be 3f78 d53d 635a 98be 8e51 09be
00000310: 5ee4 923d 0daf 5ebe d921 0dbd cc84 673e
00000320: 2107 5c3e 08b5 4b3b a9db b43d 8c34 85be
00000330: c122 1a3e 6d30 39be 8dca 7bbe 08ca 553e
00000340: b947 293d 9267 4cbe 3b82 9abe 19df b13d
00000350: 595e 13be d17b 263e 400f 28bc 81c9 823d
00000360: 87fa 903e af02 1ebd 66ff 2d3e 4557 96bd
00000370: 88f4 923e 7d05 173e 0124 2bbd bb98 81be
00000380: 92bc acbe 9a0e 27be 562a c0bd cd64 2bbe
00000390: 1d5c 91be 5a42 b4bd 796d 8dbe 003f a8be
000003a0: abd8 1d3e 6af6 91be 961f efbb 1f16 923e
000003b0: 3e23 e7bd 12a9 9abd 647a ffbd c906 3ebe
000003c0: 6456 1a3e 7ab5 1d3d abf5 37be 1e49 80be
000003d0: c4e2 59be b2ef ffbd 39c4 2a3e abd5 563e
000003e0: 2e8a 953e 00e2 02be 92ba d73d d18d 8abe
000003f0: e3ef 093e 3e91 a8bb e79d 713e cefd 933e

net.6.layer.bias f4 [40]
0.006533612 -0.028096057 0.09171919 -0.047580652 0.021092668 -0.004649276 -0.03274483 -0.02917878
-0.035715315 -0.035316672 -0.10315965 0.03764048 0.0175227 -0.010341136 -0.02906458 0.020524247
-0.12748842 -0.03754225 -0.051029745 -0.07846993 0.014799197 -0.026838081 -0.10431935 -0.017236024
0.05315617 0.09077167 -0.0284152 -0.04838992 -0.021613345 -0.061493825 -0.07847 0.009734753
0.08019536 -0.053471766 0.0015931452 0.011750346 -0.037230417 0.00089555926 -0.0031950055 -0.08145899
00000000: e917 d63b b429 e6bc 45d7 bb3d eee3 42bd
00000010: 88ca ac3c f458 98bb 711f 06bd 5608 efbc
00000020: 394a 12bd 37a8 10bd 5e45 d3bd e72c 1a3d
00000030: c48b 8f3c de6d 29bc d818 eebc 7722 a83c
00000040: 538c 02be e7c5 19bd 9104 51bd d8b4 a0bd
00000050: 5578 723c 89db dbbc 62a5 d5bd 9032 8dbc
00000060: 49ba 593d 7fe6 b93d fec6 e8bc 8234 46bd
00000070: 780e b1bc f3e0 7bbd e1b4 a0bd 837e 1f3c
00000080: 773d a43d 3605 5bbd 15d1 d03a 8684 403c
00000090: ec7e 18bd f7c3 6a3a 4c63 51bb f9d3 a6bd
