output/NLS/weight.pt (torch, 66746 bytes, 22 tensors)

net.0.layer.weight f4 [40, 2]
000000 b6 73 8b 3e 9a 0f 5c 3e 0f bb 4e 3e 65 0a 67 be
       0.27236718 0.21490327 0.20188545 -0.22562559
000010 4b 47 92 be cb d0 76 3d e0 31 7f bd 6f ae f5 3d
       -0.28570017 0.060257714 -0.062303424 0.11996161
000020 12 48 ac 3e 89 a2 e5 3c df ce 96 be 90 c5 30 3e
       0.33648735 0.028031604 -0.29454705 0.17262864
000030 46 2b 33 3d 1e 3c a3 3d e5 3b 9d 3e 85 a8 1b be
       0.04374244 0.07970451 0.30709758 -0.15201004
000040 0d f0 bf 3c 9d a5 84 be ae 29 7e 3e cf 94 c4 3e
       0.023429895 -0.25907603 0.24820587 0.38394782
000050 f0 e3 92 bd 48 42 38 3e 3d 63 2e be 69 38 79 3e
       -0.07172382 0.17994034 -0.17030044 0.24337925
000060 1b 19 22 3e a3 46 18 3e b5 ca 86 bc c4 43 96 3e
       0.1582989 0.14870696 -0.01645408 0.29348576
000070 77 12 a0 3e 6b 00 8a 3d ff dc a7 3e d5 10 b2 bd
       0.31264088 0.06738361 0.32785794 -0.08694617
000080 dd d5 d6 be 77 d0 5e 3e da e6 31 3e d2 73 2a 3e
       -0.4196004 0.2175921 0.17373219 0.16645744
000090 f9 9a 9d bb 05 cf 4c 3e e8 45 8f be a7 80 3b be
       -0.004809734 0.20000847 -0.27983022 -0.18310796
0000a0 d2 75 23 3e a1 b0 68 bd 03 50 74 3e f1 12 9c 3d
       0.15962914 -0.05680907 0.23858647 0.076208
0000b0 b2 a6 b3 be 9c 0c a4 be 1e 70 a8 bd 75 86 d0 3d
       -0.35088116 -0.3204087 -0.0822451 0.10181896
0000c0 99 b5 a7 3e 86 e9 29 be 6b f4 a9 be 55 3b 5b 3e
       0.32755736 -0.16592988 -0.3319429 0.21409352
0000d0 82 5a 25 be ae cb a9 3e 15 f3 89 3e f3 4b 91 3e
       -0.16147807 0.33163208 0.2694327 0.28378257
0000e0 22 a6 b8 bd f0 13 af be 32 e1 53 be 50 b7 9d 3e
       -0.09016062 -0.341949 -0.20691374 0.3080392
0000f0 d9 37 8f 3e 9f 80 3d 3d b8 13 1f 3e 09 c3 ac bd
       0.27972296 0.04626524 0.15534866 -0.084356375
000100 16 e0 97 3e 89 d8 4c 3e a5 f9 2d 3e 70 80 20 3e
       0.29663152 0.20004477 0.16989763 0.15673995
000110 d7 45 ba 3e 85 e5 82 bd 18 e4 fd bc b7 08 31 be
       0.3638141 -0.063914336 -0.030992553 -0.1728848
000120 b5 bb 62 bc 51 4f 7e bd 84 49 26 be b5 a5 9f bd
       -0.013838698 -0.06208736 -0.16238981 -0.07795278
000130 2e 85 44 be 8f a4 56 3d 22 3d b0 be e8 71 3d bd
       -0.19191429 0.05240303 -0.3442164 -0.046251208

net.0.layer.bias f4 [40]
000000 70 61 f6 3c 7e 65 79 3c 29 55 dd 3d 4b 38 fb bd
       0.030075759 0.0152219515 0.10807259 -0.122665964
000010 20 a6 d8 bd 0b 90 d4 3c 13 25 17 3d 4b 53 90 3c
       -0.10578561 0.025947591 0.03690059 0.017617842
000020 52 4c 43 bd e7 73 ad bd 8e de 05 bd e1 81 84 3d
       -0.047680207 -0.08469372 -0.032682948 0.06470085
000030 f1 f0 73 bd bb 1d 67 bd ea 10 d5 bd ef 0c 0a bd
       -0.05955595 -0.056424838 -0.10403617 -0.03370374
000040 73 b4 0f 3d 83 c0 63 bd 67 d1 12 bd 72 ea 5b bd
       0.0350842 -0.055603515 -0.035844233 -0.05369038
000050 b3 b1 8e bd f1 90 29 bd 6d 3b eb 3c 48 a6 8c 3d
       -0.06967487 -0.041397993 0.02871486 0.06867653
000060 5f 0b 46 bd 94 15 17 bd d1 be 25 3c bd 2a ee bd
       -0.048350688 -0.036885813 0.010116295 -0.116292454
000070 6b 05 fc 3d b0 dd 45 3d 69 b8 db bc ad f5 77 3d
       0.12305721 0.04830712 -0.026821332 0.06053703
000080 df b5 86 bc 59 f2 97 bd 6a 7b fb bd b2 a9 3e bd
       -0.016444145 -0.07419271 -0.12279399 -0.046548553
000090 d0 d5 b1 bc 68 98 9f 3d c3 8c ae bd 83 10 8c 3d
       -0.021708399 0.07792741 -0.08522942 0.06839087

net.1.layer.weight f4 [40, 40]
000000 bd fa 44 bd e5 e0 74 bd 62 3b 62 be d0 ff 4f 3e
       -0.048090685 -0.05978479 -0.22092965 0.20312428
000010 9f 52 54 3c cb f3 68 be 5c 95 38 3d 80 3a 27 be
       0.0129591515 -0.2274925 0.045064315 -0.1633091
000020 b9 5a 00 3e aa 2b ce 3d 6b 4c 93 bd fd f9 87 bb
       0.12534608 0.10066922 -0.0719231 -0.004149674
000030 38 d2 1f bd de 89 6d 3e 13 54 5d 3e c0 c4 7e 3e
       -0.03901884 0.23197123 0.21614103 0.24879742
000040 f7 0e 85 3e 34 d4 2f 3e 2e a6 2f bd bb a8 38 3b
       0.2598798 0.17170793 -0.04288309 0.0028176743
000050 2b 06 74 bd 3c 0b 61 3e 71 e7 0d 3e 4a 67 9b 3d
       -0.059576195 0.21976942 0.13857819 0.0758806
000060 46 61 7a 3e b3 31 fa 3d 48 26 18 be e3 5a be 3d
       0.2445117 0.122165106 -0.14858353 0.09294679
000070 80 e2 1a be 80 b2 18 3d 5f 29 7b 3e 5f bd 2b be
       -0.15125465 0.037279606 0.245275 -0.16771458
000080 7e bd 05 3e f1 29 0d be 3b ad 98 3d 1b d5 26 3e
       0.13060567 -0.1378553 0.07454916 0.16292231
000090 0e 88 bc 3d 69 8a 2b 3d 88 a8 6c be 8d 73 3e 3e
       0.09205638 0.041880045 -0.23111165 0.18598767
0000a0 ca 18 8d bd bc 69 3f be ad 9d 7c 3e 31 cc 4e bc
       -0.06889494 -0.18692678 0.24669524 -0.012621925
0000b0 be 87 65 3e fd 21 3f 3e f9 80 5b be 55 5b 7f be
       0.22415063 0.18665309 -0.21435918 -0.24937184
0000c0 fb 63 7d 3c 25 91 76 3e 23 58 41 bd d0 07 ce 3d
       0.015465732 0.24078806 -0.047203194 0.10060084
0000d0 ee 59 7c 3b 4c f0 39 be dd f5 8e 3e 21 04 e1 3c
       0.003850575 -0.18158072 0.27921954 0.02746779
0000e0 38 00 99 3d 0a 0c 07 bd b7 3f da bd 26 57 c9 3d
       0.07470745 -0.032970466 -0.10656684 0.09831075
0000f0 c4 fd 7d 3e b3 c4 ff bd 11 6d 0a 3d b7 08 0d bc
       0.24803835 -0.12488689 0.03379542 -0.008608035
000100 0e 50 8c 3e ac a0 25 3e 2c 56 2c be 0f 86 86 3d
       0.27404827 0.16174573 -0.16829747 0.065685384
000110 fc 9a 73 be de 63 a8 3d f8 85 4f be ee bd 68 bd
       -0.2378959 0.08222173 -0.20265949 -0.056821756
000120 6e ed 1a be 69 df c6 3c e4 86 31 3e 5d f0 88 be
       -0.15129635 0.024276452 0.17336613 -0.26745883
000130 4e 79 54 be 21 2c 33 be 46 7d 6f 3e b1 98 1b be
       -0.20749399 -0.17497303 0.23387632 -0.15194966
000140 5c 71 c3 bd a7 bb 82 be 5c 82 77 3e c8 2a 43 be
       -0.09543106 -0.25533792 0.24170822 -0.19059289
000150 bd 7b 84 be 6c eb 59 be fb ae 82 3d 30 6d 61 be
       -0.25875655 -0.21281213 0.06381031 -0.22014308
000160 13 e8 69 3e 54 29 84 be a9 fc 21 3e 85 54 4d 3e
       0.22842436 -0.2581278 0.15819038 0.20051773
000170 37 1b ad ba fd d5 7c bd bf e8 6a 3e f5 c8 4b be
       -0.0013206963 -0.061727513 0.22940348 -0.19900878
000180 ea 4b 8a 3e f8 3e 20 bd 61 26 c2 bd cf 81 e7 3a
       0.27011043 -0.03912255 -0.094799764 0.0017662587
000190 5b 1b 33 be ef 38 77 be 47 73 b5 bd 1c 86 09 be
       -0.17490904 -0.24142812 -0.08859878 -0.13430065
0001a0 5e 1f bb 3c 9c ae 16 3e cb 9f 8e 3e a9 37 82 bd
       0.022842105 0.14715046 0.27856287 -0.063582726
0001b0 46 89 b9 bd f1 cc 7f 3e 7d 61 b8 bd 50 65 9e be
       -0.09059386 0.24980523 -0.090029694 -0.3093667
0001c0 2f 87 28 3e a5 b8 fe 3d 0b 03 96 3d 68 4a f0 3c
       0.16457818 0.12437562 0.07324799 0.029332355
0001d0 37 59 b2 3c ed 31 a0 bd 58 da 07 3d 43 4b 21 3e
       0.021771057 -0.078220226 0.033167213 0.15751366
0001e0 eb ec 88 3e 43 12 d2 3d a3 0b 00 3e 8b 47 91 be
       0.26743254 0.102573894 0.12504439 -0.28374895
0001f0 c9 00 53 bd ad b3 a1 3c eb 5b d0 bc 52 2f 13 3d
       -0.05151442 0.019738996 -0.025434455 0.0359338
000200 8c a0 b0 3c f9 f2 06 bd a5 fc 1f be 6a b3 1d 3d
       0.02156093 -0.03294656 -0.1562372 0.03850118
000210 4d 6e a8 bd db 1c 47 be 88 af ba 3e 89 e0 16 bd
       -0.08224163 -0.19444601 0.36462045 -0.036835227
000220 1e 46 c9 3d 8c 42 98 3e 9d 69 c9 bd ed 2a 10 be
       0.09827827 0.2973827 -0.09834597 -0.14078875
000230 70 ae 7d 3e dd 17 80 3e b2 e8 e2 bd 19 75 18 be
       0.24773574 0.25018206 -0.11079539 -0.14888419
000240 6c 8c 4b 3d 9a d4 77 be 80 b1 79 3e ce 9c e0 bd
       0.049694464 -0.24202195 0.24384117 -0.10967408
000250 46 c2 65 be 24 56 30 3e 5b 75 d0 bd 79 a6 a4 bd
       -0.2243739 0.1722036 -0.10178634 -0.08039565
000260 62 c5 ce 3d 1d 37 a3 3e 38 7e 0f bd ae 45 80 3e
       0.100962415 0.31877986 -0.03503248 0.2505316
000270 91 39 ac 3d d4 6b 21 3e 7a 23 96 be 1c c7 cf bd
       0.084094174 0.1576379 -0.2932394 -0.10145399
000280 e3 24 eb bd 64 79 9d bd 81 c9 40 bc d2 6e 9c bd
       -0.11481645 -0.07689169 -0.011766792 -0.07638325
000290 8e 3a 9a be 3f 0f 78 3e 95 17 0f be 2e 2c ef 3b
       -0.301228 0.24224566 -0.1397384 0.007298968
0002a0 7d bc 50 be d1 34 7f bd 2a 5b 94 3c 70 f1 90 bc
       -0.20384403 -0.06230623 0.018109877 -0.017693251
0002b0 af e3 99 be 41 2c 45 be f7 62 83 be df 40 e4 3d
       -0.3005652 -0.19255163 -0.25661442 0.11145186
0002c0 ad a4 59 be 78 e2 cb 3d 60 af b2 3d 7a 74 d1 3d
       -0.21254225 0.09955305 0.087248564 0.10227294
0002d0 46 be 5b be a0 00 8a be 63 c2 ed bd ac 08 e5 3d
       -0.21459302 -0.26953602 -0.11609342 0.11183295
0002e0 eb 1b 88 be 2c 1d 9e 3d 9a ea 78 be 25 1d 03 3e
       -0.265838 0.07720408 -0.24308243 0.12804087
0002f0 38 93 82 be 5d 9a 50 3e 2b 82 bc 3d a9 05 b7 3d
       -0.25502944 0.20371385 0.09204515 0.089366265
000300 19 1e 65 3e b8 bd a1 be ed 04 f8 3d 41 e7 03 3e
       0.22374763 -0.31590056 0.121103145 0.12881185
000310 a3 34 9e 3c 72 84 63 3e f8 50 79 3e eb 4f 8a 3e
       0.019312209 0.22218493 0.24347293 0.27014098
000320 a2 fc 8a 3e f8 9a 17 be a7 b9 f9 3c 13 99 83 be
       0.2714587 -0.1480521 0.030484034 -0.25702724
000330 b0 78 28 bd f7 6a 8b be ef 3c ac 3d ce 70 08 be
       -0.04113072 -0.27230045 0.0841006 -0.13324282
000340 f2 e4 50 be ec fe 3a be 61 9b f0 3d aa bc 15 bd
       -0.20399836 -0.18261307 0.11748386 -0.036556877
000350 e0 16 44 be 0e 30 8b be 99 b4 9a 3e 03 7b 27 be
       -0.19149351 -0.271851 0.3021591 -0.16355519
000360 04 03 81 bd c4 64 86 3e f5 c2 74 3e 2b 30 4a bc
       -0.06299403 0.26248753 0.23902495 -0.012340586
000370 c7 5e f6 3d a4 5c 60 3e 23 62 71 be d5 2e 5b bd
       0.12029796 0.2191034 -0.23572592 -0.05351146
000380 32 61 c8 bd e2 64 7d 3e f0 3d 62 3b 37 11 98 bd
       -0.097841635 0.24745515 0.003452178 -0.074251585
000390 ca 42 81 be 4f bd 65 be ed b2 31 3e b8 37 7f 3e
       -0.2524627 -0.22435497 0.17353411 0.24923599
0003a0 42 fa 2e 3e d1 23 25 be 78 be 98 3e 9a 5b 8d 3e
       0.17087653 -0.16126944 0.29832816 0.2760895
0003b0 41 4f 6f be b1 a3 46 3d a8 25 eb 3d f9 3b 5a 3d
       -0.23370077 0.048495952 0.11481792 0.05327985
0003c0 e5 01 51 3e 34 de c6 bd 20 d5 60 3e 17 ae 92 3d
       0.20410879 -0.09710351 0.219563 0.07162111
0003d0 68 46 75 bd 58 68 e4 bd f6 bc 19 be 3f 30 55 be
       -0.059881598 -0.111527145 -0.15013489 -0.20819186
0003e0 15 0d 88 be 9b e9 94 3c 2a 5a a4 bd a6 17 18 bd
       -0.2657248 0.018177798 -0.0802501 -0.037131928
0003f0 25 77 5d be c7 68 81 3e e9 f1 24 be 2e 34 aa 3d
       -0.21627481 0.2527525 -0.16107906 0.08310734

net.1.layer.bias f4 [40]
000000 6c 91 76 bd 9e b8 dc 3c 35 d7 0a 3c 5f 06 cd bc
       -0.06019728 0.026943501 0.008474161 -0.025027452
000010 ab 84 c1 3d fb 87 9a bd 6b 8f 8c bc fa 37 17 3d
       0.094491325 -0.075454675 -0.01715823 0.036918618
000020 70 c9 09 bd eb 4a 25 bd 11 7e 98 3d 88 06 79 bd
       -0.03363937 -0.04035465 0.0744592 -0.060797244
000030 8e 74 8f 3d 0f 50 39 3c 61 4d 48 bd ab d3 2e bd
       0.07004653 0.011310591 -0.04890192 -0.04268233
000040 99 19 3c bd 71 90 f3 bc 7e c4 f1 bb 37 f1 33 bd
       -0.04592285 -0.029731961 -0.00737816 -0.043931212
000050 bc e0 0d bd 40 ee 81 bd 07 79 ba bc 92 fe 00 bd
       -0.03463815 -0.06344271 -0.022762788 -0.031492777
000060 6c 42 01 3d 09 ac 78 bd a7 88 23 bd c6 2f 8a 3d
       0.031557485 -0.06071094 -0.039925244 0.06747393
000070 97 5a b8 bd 33 9b 3b bd a1 db c7 3d 61 1c 94 3c
       -0.09001654 -0.045802306 0.09758688 0.018079938
000080 a8 f7 87 3d c6 80 12 bd 78 11 7d 3b be 38 d6 3c
       0.066390336 -0.03576734 0.0038615149 0.026150104
000090 3e db 92 3d df 5e 02 bd b2 43 54 bd 98 0a 67 3d
       0.071707234 -0.031828757 -0.05182237 0.056406587

net.2.layer.weight f4 [40, 40]
000000 b0 99 37 bd 28 db 19 be 0f 71 5e 3e c3 5b f1 3d
       -0.044824302 -0.15025008 0.21722816 0.1178508
000010 c5 04 6b 3e db 1b 41 be a9 39 37 3e d5 af 67 3e
       0.22951038 -0.18858282 0.1789309 0.22625668
000020 c3 b2 77 be c2 7a e2 3d ba 61 69 bc c0 03 20 bc
       -0.24189286 0.110585704 -0.014244491 -0.009766519
000030 9a 15 12 3d 44 23 f8 bc 21 f8 18 bd df 47 eb 3c
       0.035665132 -0.030290253 -0.03734601 0.028720794
000040 cd 37 4b 3c 37 9f 82 be 6f 61 9b ba d3 ef 45 3e
       0.012403441 -0.25512096 -0.0011854599 0.19329767
000050 fe 89 8d bd 79 c9 60 3e d8 73 4b 3e a3 80 02 3e
       -0.069110855 0.21951856 0.1986841 0.12744384
000060 f6 58 16 3d b1 f1 96 3d a5 3b 5c be 30 58 12 3e
       0.036705934 0.07370318 -0.21507128 0.14291453
000070 41 ee 5a 3d 77 6a 83 be 1c 15 aa 3d cf ec 3c 3d
       0.053449873 -0.25667164 0.083048075 0.046124276
000080 5b e2 86 3a 43 85 3c be 86 f0 8e bb 8e e4 79 be
       0.0010290848 -0.1841021 -0.0043621687 -0.24403593
000090 52 56 cf 3d 5e f7 2e be 8f 85 af 3d 35 f6 ce bd
       0.10123886 -0.1708655 0.08570396 -0.10105554
0000a0 eb 02 89 bd 00 8b 80 3e 04 67 80 be fb 52 3b 3e
       -0.0669001 0.2510605 -0.25078595 0.18293373
0000b0 4a 18 8a 3c 16 b9 7b bc fb 59 d2 bd 38 aa 11 3e
       0.016857285 -0.015363952 -0.10271069 0.1422509
0000c0 77 01 03 be 63 96 74 be ed f8 28 be 21 00 04 be
       -0.12793528 -0.23885493 -0.16501208 -0.12890674
0000d0 c4 a6 01 3e ea 70 82 be f7 37 e4 3d ea 2d 03 be
       0.12661272 -0.25476772 0.11143487 -0.12810484
0000e0 a8 ae 2f be 19 7d 59 3d 97 05 f8 bd b4 a0 1f 3e
       -0.1715647 0.053097818 -0.12110441 0.15588647
0000f0 46 db 01 be de 13 7d bd 40 af 3e bd 23 fc 6c 3e
       -0.12681302 -0.061786525 -0.04655385 0.23143058
000100 ac 05 75 be 2e 9b 04 bd e3 14 30 3e 63 f2 09 3e
       -0.23927945 -0.032374553 0.17195468 0.1347137
000110 72 7a 45 3e d1 23 af 3d ae 6e 27 be 3a 64 8f 3e
       0.1928499 0.08551753 -0.16350815 0.28006154
000120 1d 7b 84 be e3 c9 8d 3e 08 fe df 3d 67 32 ec bc
       -0.25875178 0.2769309 0.109371245 -0.028832627
000130 62 1c 95 3d b8 50 e5 bd 23 82 d2 bc 35 01 14 be
       0.07280804 -0.111970365 -0.02569682 -0.14453585
000140 ec 8b 3e be 57 2b 42 be c1 6a 65 3d c4 5c 86 3e
       -0.18608063 -0.18961845 0.05601001 0.2624265
000150 14 1d c8 bd 9e 95 19 bc ac c7 65 3e b4 a7 1a 3e
       -0.09771171 -0.00937405 0.2243945 0.15103036
000160 9e 98 33 3d a1 5e b4 bd 3f a2 5d 3e 24 09 84 3d
       0.04384672 -0.088071115 0.21643923 0.06447056
000170 64 33 92 be 84 f9 19 3e d1 87 9e 3d 0f 11 5c 3e
       -0.28554833 0.15036589 0.07740749 0.21490882
000180 59 88 e0 bd f4 63 87 3c 8a 8d 54 3e 5e e1 55 be
       -0.10963506 0.016527154 0.20757118 -0.20886752
000190 85 92 f5 bd bd 93 33 bd 83 58 8b bd 36 6d f8 bd
       -0.11990837 -0.043842066 -0.06803992 -0.12130205
0001a0 f3 85 a6 3e c8 9b 8d be 40 c1 6a be 73 1c ae 3e
       0.3252407 -0.27657914 -0.22925282 0.3400608
0001b0 db be 78 3e 1f b0 aa 3e b8 2e 45 3e cd 49 ae 3d
       0.24291556 0.33337495 0.19256103 0.0851017
0001c0 b8 31 9d 3d 2a f1 69 be 9d a1 0d bc 14 01 1e 3e
       0.07675499 -0.22845903 -0.008644489 0.15430099
0001d0 38 66 5e 3e 7a 36 d5 3d d6 43 d1 3b 41 e6 a6 3e
       0.21718681 0.10410781 0.0063862605 0.32597545
0001e0 03 b3 82 be fc 11 f1 3d c9 37 c3 3c aa c1 e9 3d
       -0.255272 0.11771008 0.023830311 0.114138916
0001f0 12 0b 30 3e a0 86 80 3e 36 79 38 3e 25 8c 66 3e
       0.17191723 0.2510271 0.18014988 0.22514398
000200 0f 79 c2 bd 3a e1 6f bd 6a 38 bb 3d 1f 9f 39 3e
       -0.09495746 -0.058564402 0.091416195 0.18127106
000210 26 40 66 be 71 e0 66 3e 95 a2 48 3d 82 c9 24 3e
       -0.22485408 0.22546555 0.048983175 0.16092494
000220 68 61 57 be 71 b3 b1 3d ff df 64 3e dd 93 bf bc
       -0.21033251 0.08676804 0.22351073 -0.023385936
000230 b1 9c 4f be f1 dd 37 bc 2d 3e 09 3e 94 43 41 be
       -0.20274617 -0.011222349 0.13402624 -0.18873435
000240 c9 7a 18 3d a2 d6 04 3e 26 df 05 3e 76 89 2c 3e
       0.037226472 0.12972501 0.13073406 0.16849312
000250 f4 99 6d be 89 17 a7 bc 6a 63 a9 bd 78 78 ed 3c
       -0.2320326 -0.020396965 -0.08270915 0.028988108
000260 81 9c 19 be 88 d4 1b 3e f8 41 ed 3c f9 bf 17 be
       -0.15001108 0.15217793 0.02896212 -0.14819326
000270 fa e6 33 3e 31 25 d8 bd c1 5f 85 be 43 15 98 bd
       0.1756858 -0.10553969 -0.26049617 -0.0742593
000280 d4 c1 71 3e 8e 98 7d bd 1e 40 7e bd ae bf 01 be
       0.23609096 -0.061913066 -0.062072866 -0.12670776
000290 bf 39 62 be 71 83 9c 3d 68 06 0c 3d 07 8b 22 be
       -0.22092341 0.07642258 0.034185797 -0.15873347
0002a0 47 dd 64 be 09 ff 61 3e 8a b1 af 3d ea 14 b3 bd
       -0.22350036 0.22069944 0.08578785 -0.087442234
0002b0 dd 08 9d 3d 6e 55 74 be 21 2e 01 be b8 b1 12 be
       0.07667706 -0.23860714 -0.12615253 -0.14325607
0002c0 4a 0a 43 bc 86 be ce 3c b5 8f 10 3e 0a 10 41 3e
       -0.011904309 0.025237333 0.1411732 0.18853775
0002d0 a5 df ac 3d 89 81 20 be 48 1b bf bd 7d 1c 91 3d
       0.08441094 -0.15674414 -0.09331375 0.07085512
0002e0 b3 29 4e 3e a8 b5 35 3d ee cc 3d be ef 0e a4 bd
       0.20133094 0.044362694 -0.18535206 -0.08010661
0002f0 5a c3 85 bb b6 60 6e be 4e a6 fe 3c 1e b6 73 be
       -0.0040821256 -0.2327908 0.03108516 -0.23799941
000300 e7 13 26 bd 8c 0c 17 be d9 6e f1 3d 32 58 48 3e
       -0.040546324 -0.1475088 0.11788721 0.19564894
000310 ae 11 42 be ce bb 68 be ea 34 40 be 86 37 ec bd
       -0.18952057 -0.22727892 -0.18770185 -0.11534028
000320 07 35 89 3e e6 0d b0 bd bc 04 50 3e e3 0a fa bd
       0.2679827 -0.08596401 0.20314306 -0.12209108
000330 b3 5c 92 3d a6 99 63 3e d6 0c a7 3c ce 52 ef bd
       0.07146587 0.22226581 0.020391863 -0.116857156
000340 04 e5 03 3e 40 70 3c be 02 f5 53 3e 16 d9 ae 3d
       0.12880331 -0.18402195 0.20698932 0.085374996
000350 62 6f 66 be 37 3c 32 be 7b a3 e4 bd f2 05 b3 bc
       -0.22503427 -0.17405783 -0.11163994 -0.02185342
000360 1d 7d 90 3e fa cd 59 be a9 3d 54 3e b4 d8 85 3e
       0.28220454 -0.2126998 0.20726646 0.26141894
000370 e7 ea 5a 3e bb 04 68 be a1 4c fa bc 9e 5d b0 bd
       0.2137867 -0.22658055 -0.030554118 -0.08611606
000380 a4 56 3a 3e ae 2a ff bd 06 a1 1c be 35 c7 90 3c
       0.18197113 -0.124593124 -0.152958 0.017673114
000390 ac fa 9f 3d 93 b6 2a 3e e7 e0 ec 3d 22 69 16 3e
       0.07811484 0.16671209 0.11566334 0.14688542
0003a0 35 e9 0e 3e 51 85 7a 3e 19 b2 6b bc c6 50 60 3d
       0.13956149 0.24464919 -0.0143857235 0.05476453
0003b0 1f 75 d8 ba c0 03 b2 3c 1b 2e 92 3d ba 9f 01 3d
       -0.0016514397 0.021730304 0.071377 0.031646468
0003c0 29 ca 42 3e 86 5c 37 be 4f e4 24 3e d0 f5 41 3e
       0.1902243 -0.17906389 0.16102718 0.18941426
0003d0 63 b3 2b 3e 91 59 58 3e f7 33 07 bd c2 53 d3 bd
       0.1676765 0.21127917 -0.033008542 -0.1031871
0003e0 2a c2 02 3d fd 09 9a 3e 2b ee 6f be 14 40 13 3e
       0.03192345 0.30085745 -0.23430698 0.14379913
0003f0 d9 f8 9d be 22 91 5c 3e d9 d2 a3 3d 7f f7 da 3d
       -0.30853918 0.21539739 0.079992004 0.106917374

net.2.layer.bias f4 [40]
000000 61 b9 90 3d a7 02 35 3b 92 a8 13 3d fa 0f 00 3d
       0.07066608 0.002761999 0.036049433 0.031265236
000010 2b 13 b0 bc ab 6a 8e bc 79 69 a4 bd 97 82 88 3d
       -0.021493515 -0.017384848 -0.0802793 0.06665533
000020 b5 a7 2d bd d2 d0 20 bd 5e bf 05 3d 75 9d 0a 3d
       -0.042396266 -0.039261647 0.032653205 0.03384157
000030 44 50 7a bd f4 79 c7 bc 9d c2 51 3d 32 d4 bf 3d
       -0.061111704 -0.024350144 0.05121099 0.09366645
000040 54 08 04 3d 3d 99 86 bb 3a ba 12 bd 08 52 b2 bd
       0.032234505 -0.004107623 -0.03582213 -0.087070525
000050 8f 87 64 3c ba e7 3f 3d 7b 47 71 3d 0c 21 22 3e
       0.013948335 0.04685185 0.05890606 0.15832919
000060 31 17 ef bc f6 54 96 3d b7 d1 a4 bd 70 4d 45 3c
       -0.029185863 0.07340424 -0.080478124 0.012042388
000070 a6 72 48 bd 47 11 cb 3c 38 25 07 3c 07 5c fd bc
       -0.048937462 0.024788512 0.00824862 -0.030927671
000080 74 a1 e7 3d 62 b0 8b 3d bc e7 ef bc e1 1b 80 3d
       0.113100916 0.06820752 -0.029285304 0.062553175
000090 3e 28 04 3a c7 96 17 3d b0 24 a4 bc bb 41 1d bd
       0.0005041397 0.037009027 -0.020037025 -0.038392764

net.3.layer.weight f4 [40, 40]
000000 66 9c 39 be 16 71 27 be 2d 31 ce bd 0e 8d 48 be
       -0.18126068 -0.16351733 -0.10067973 -0.19585058
000010 88 46 41 3e 69 ad db 3d 90 07 b9 bd 0f 06 db bd
       0.18874562 0.10726435 -0.090346456 -0.10694515
000020 b8 9f 58 3e 3d 02 02 3e a0 29 ff bd aa 03 70 bd
       0.21154678 0.12696166 -0.12459111 -0.058597244
000030 95 0c 7b 3e 9e 00 e9 bd 42 e5 27 3e 3d 05 17 be
       0.24516518 -0.11377071 0.16396049 -0.14748092
000040 0d e7 ae 3d d6 5f 7d be 66 87 5e be 24 b3 02 be
       0.08540163 -0.2474359 -0.21731338 -0.12763649
000050 9c 33 6e be 87 f7 1b bd e8 b0 16 3c 1f fe 93 3c
       -0.23261875 -0.038077857 0.009197451 0.01806551
000060 9e df e2 bd c1 b1 95 be b7 f0 a1 3d 1c 40 4e bd
       -0.11077808 -0.29237178 0.07907241 -0.05035411
000070 c6 f6 66 bd 59 85 d6 3c 8c ae 6a be 71 b0 95 bd
       -0.056387685 0.026186632 -0.22918147 -0.07309044
000080 b2 e8 1d be c9 33 93 bc 90 3e b5 bd f3 65 fd 3a
       -0.15420797 -0.017969029 -0.088498235 0.0019332751
000090 39 53 57 bc 98 a8 89 be 56 45 7b bd db 1e d8 3b
       -0.0131424 -0.2688644 -0.06134542 0.006595475
0000a0 ca 72 81 3d 09 9f 8b be 20 87 61 3d 8f 37 d4 bc
       0.063207224 -0.27269772 0.055060506 -0.025905399
0000b0 f1 0e 4b 3c 52 f6 37 be b5 c5 40 3e aa 52 da bd
       0.012393699 -0.17965057 0.18825419 -0.10660298
0000c0 cd 4f 39 be 66 34 93 3b 34 dc 82 be ed de 77 3e
       -0.18096848 0.0044923304 -0.25558627 0.24206133
0000d0 b0 a6 23 3e 3b 6f 66 be c6 67 c5 3c 67 19 aa 3e
       0.15981555 -0.22503369 0.024097335 0.33222505
0000e0 9b 0d 0d 3d b0 63 e3 bd ce df 3b be 19 be d3 bc
       0.034436803 -0.11102998 -0.18347093 -0.025847482
0000f0 43 e6 a7 bd a4 ec d3 3c 91 2c 74 3e 25 c1 22 be
       -0.08198216 0.025869675 0.23845126 -0.15893991
000100 e3 cf 84 3e 2a e9 54 3e 53 45 fd 3b f8 7d 73 bd
       0.25939855 0.2079207 0.0077292114 -0.059446305
000110 20 41 7e be 38 61 7e 3e 1b 72 81 be 7a 72 3f be
       -0.2482953 0.24841774 -0.25282368 -0.18696013
000120 d1 f5 d7 bc 11 a4 20 be 49 3f 95 be c6 4d 9f 3e
       -0.026362332 -0.15687586 -0.29149845 0.31114024
000130 62 43 76 be 75 dd 0a 3e 2f bb cb 3c 76 f5 4e be
       -0.24049142 0.13561042 0.02486953 -0.20210823
000140 30 1e 8b 3d df 71 ae bb 49 b1 37 be 37 8e e2 bd
       0.06792867 -0.005323633 -0.17938723 -0.110622816
000150 2b 7d 5c 3d 19 f2 22 3d ae 88 7f 3e 6c 62 0c bd
       0.053830307 0.039781664 0.24954483 -0.03427355
000160 85 85 9c be f4 42 77 3e 4a cf 57 be d2 3a 16 bd
       -0.30570617 0.24146634 -0.21075168 -0.03667719
000170 73 3b 78 3d 15 ea 06 be ad cb 45 bd bb a4 87 3e
       0.06060357 -0.13175233 -0.048289943 0.26492867
000180 f6 3a 9e bd e4 e3 98 3e 33 97 2c bd 23 46 81 be
       -0.0772609 0.29861367 -0.042136382 -0.25248823
000190 02 67 30 3e a7 85 14 bb d7 7c 21 be 95 c6 b5 be
       0.17226794 -0.002266267 -0.15770279 -0.3550307
0001a0 55 7b 55 3e 74 59 16 3e 64 89 21 be df fc ee bd
       0.20847829 0.14682561 -0.15775067 -0.11669325
0001b0 4a a6 62 be 95 1b 95 be f4 97 53 3b a3 f8 e9 bc
       -0.22133747 -0.29122606 0.0032286616 -0.028560942
0001c0 97 5f 15 be 70 e4 02 3e 6c c9 92 be 32 c4 26 3e
       -0.14587246 0.12782454 -0.28669298 0.1628578
0001d0 76 d6 4b 3e 01 ff 2f 3e f9 74 f7 bd 60 4e 47 3e
       0.19906029 0.1718712 -0.12082858 0.19463491
0001e0 5b ff 8c bd e7 79 6c be ac 57 52 bc 2e fe f9 3d
       -0.06884643 -0.23093377 -0.012838285 0.12206684
0001f0 46 83 6d 3e a3 cf 71 3e fb b2 92 3d 0c ab 2d 3d
       0.23194608 0.23614363 0.07163044 0.04239945
000200 f9 5c 4c 3d a0 49 2e 3c 55 ea a8 3d 37 04 1e 3e
       0.049893353 0.010637671 0.0824782 0.15431295
000210 5c 24 8f 3e bd a5 39 be fd 96 63 be 64 13 15 3e
       0.27957428 -0.1812963 -0.22225566 0.14558178
000220 c5 6f 4e be 0b 7e 46 3e d7 7e dc 3c d8 56 71 3d
       -0.20159824 0.19384019 0.02691595 0.05892071
000230 a3 6d be bd bd 8c 7c be f6 a5 14 be 3c 0d 8a be
       -0.09298255 -0.24663062 -0.14516434 -0.26963222
000240 dd 80 43 be 93 24 9a be fb f4 17 be 6d f2 ff 3d
       -0.19092126 -0.3010603 -0.14839546 0.12497411
000250 32 e0 10 3e d1 80 1c 3e 7e 95 74 be 18 e0 0a 3c
       0.14148024 0.15283515 -0.23885152 0.00847628
000260 3d e3 42 be b3 1d 78 be 71 19 5b 3e ec 9a 84 bd
       -0.19031997 -0.2423008 0.21396424 -0.064748615
000270 a6 81 59 3e c8 2c 78 be 45 19 3a bc 72 4b 59 3e
       0.21240863 -0.24235833 -0.011358564 0.21220186
000280 5a 21 c6 3e f5 c4 7a 3c bb ee 57 be 03 b0 ea 3b
       0.3869732 0.015305747 -0.21087162 0.0071620955
000290 24 b9 a7 bc d3 3d 5e 3e 8a d6 11 3e 81 1d c7 3e
       -0.020474024 0.21703272 0.14241996 0.38889697
0002a0 03 e3 d5 3d 0a fb 4f be e0 77 dd bd 5b 0f cd 3d
       0.1044369 -0.20310608 -0.1081388 0.100126944
0002b0 2e b7 d9 3c 49 a1 f5 bd 0d 30 4e bd 8d 01 55 be
       0.026576605 -0.11993653 -0.050338794 -0.20801373
0002c0 87 9e 35 3e 98 64 11 3e f8 90 32 3e d0 82 ae bc
       0.17736255 0.1419853 0.17438114 -0.02130261
0002d0 70 2e 2c be b9 e3 a1 3e 47 29 8e 3e fd 75 87 3d
       -0.1681459 0.3161905 0.27765867 0.06614301
0002e0 ea 91 80 3e 2b 5c 57 3d 44 c0 71 be 37 ee 59 bc
       0.25111324 0.052578133 -0.236085 -0.013301424
0002f0 ef 80 91 bd ef 04 2f 3e 69 e0 b0 bd 65 f2 01 be
       -0.0710467 0.17091726 -0.08636553 -0.12690122
000300 b4 b5 0a bd 9e ed 77 3e fd 75 8d be 82 cb 95 3e
       -0.03386469 0.24211738 -0.2762908 0.29256827
000310 30 6e f6 bd 6c dd 6e 3e e7 30 fc 3d d6 8e 54 bd
       -0.12032735 0.23326653 0.12314015 -0.05189403
000320 4a 61 05 3d 02 10 75 be d5 3c a0 3e 98 2f 8b 3e
       0.032563485 -0.23931888 0.3129641 0.2718475
000330 4c 05 4e be c8 ee e4 3b 03 15 86 3e 0e 95 55 be
       -0.20119208 0.0069864728 0.26187906 -0.20857641
000340 a8 82 8a bd 4b 8a 49 be 0f 39 dc 3c 6d 0d 90 bd
       -0.06763202 -0.19681661 0.026882676 -0.07033811
000350 f9 af 78 3e 82 8a cf 3d 4d 9a be 3e 05 6c 08 be
       0.24285878 0.1013384 0.37227097 -0.13322456
000360 af cc a4 3e c8 ae 6a 3e 93 9a 09 3d 46 97 76 3d
       0.3218741 0.22918236 0.03359468 0.06020286
000370 91 0e 09 be 6b 63 99 be d3 b8 ab 3d b5 08 8f be
       -0.13384463 -0.29958662 0.08384862 -0.2793633
000380 10 aa ab be 3d 60 94 3e 6d 21 30 be f8 4a 03 be
       -0.33528185 0.28979674 -0.17200251 -0.12821567
000390 23 13 8d be 0c 21 96 be 57 cf 94 3e 50 e7 8f bd
       -0.27553663 -0.29322088 0.29064438 -0.07026541
0003a0 7d db 81 3e 59 29 1f 3e 63 58 48 be 17 70 1a 3e
       0.2536277 0.15543117 -0.19564967 0.15081821
0003b0 ca f9 92 be da 71 be be eb c4 a6 3c 1d 2f e9 bd
       -0.287062 -0.37196237 0.02035757 -0.11385939
0003c0 5c 13 88 3e 2f 0c 13 3e af 77 86 3e 62 c5 0c be
       0.2657727 0.14360116 0.26263186 -0.1374717
0003d0 bd 6f 67 be 0a 77 9a 3d 2e 29 32 be c1 c6 0f 3e
       -0.22601219 0.07542236 -0.17398521 0.14040662
0003e0 f8 c4 8e be ae 14 7a 3e d7 44 d6 ba c3 15 50 be
       -0.2788465 0.24421951 -0.001634742 -0.20320801
0003f0 42 0e 93 be 24 60 7b 3e c7 02 e3 bd c5 eb 51 bd
       -0.28721815 0.24548393 -0.11084514 -0.051250238

net.3.layer.bias f4 [40]
000000 33 81 1c bd 17 b6 9e bb a2 9d 66 bd 6c 29 5b bd
       -0.03820915 -0.004843484 -0.056302674 -0.0535063
000010 8a 74 68 3d 9c b3 b3 3c c7 15 f6 3a de c3 0b bc
       0.056751765 0.02193623 0.0018774801 -0.008530585
000020 db f8 3b 3d 0c af 39 3b bb 05 6f bc b9 16 bb bc
       0.045891624 0.0028333096 -0.014588769 -0.022837983
000030 8f b4 aa 3c d0 a7 58 bc 1f 48 0a bd cb f9 6d bd
       0.02083805 -0.013223603 -0.033760186 -0.05809955
000040 0d 79 c4 3c 0a 3b fb ba 32 be 60 3d 67 19 39 3d
       0.023983503 -0.0019167375 0.054868884 0.04519024
000050 6e 5f 6f bc dd 7d da 3c 0e c2 7a 3b bb b4 54 3d
       -0.014610155 0.026671344 0.0038262638 0.05193017
000060 39 d8 9c 3c 45 3a 1c 3d fe c0 70 3c 85 af ef 3c
       0.019146072 0.038141508 0.01469445 0.029258499
000070 8a 27 05 bc 9b b6 b6 bc a4 bd cf 3b 78 cf 6f bd
       -0.008127103 -0.02230387 0.0063397456 -0.058547467
000080 19 13 a1 bd e1 83 e6 bc ee ce 4b 3d 34 c0 ca bb
       -0.07864971 -0.028139057 0.04975789 -0.006187463
000090 c8 3e 43 bd 9f 01 45 3c c6 b2 3b 3d 86 d7 d9 3d
       -0.047667295 0.012024312 0.04582479 0.10636811

net.4.layer.weight f4 [40, 40]
000000 62 6e 2a be a8 67 72 3e 3f 57 64 be 5e 69 da bd
       -0.1664367 0.23672354 -0.22298907 -0.106646284
000010 14 bf 9d 3d f9 18 88 3d f1 26 3a be f5 08 80 be
       0.07702461 0.06645388 -0.18178917 -0.25006834
000020 31 97 47 be 0e fd 34 3d da 97 18 bd 08 90 2f be
       -0.19491269 0.044186644 -0.037254192 -0.17144787
000030 62 f5 ff bd 7e 09 13 3e 11 ae 61 3e ba 00 8e be
       -0.12497975 0.1435909 0.22039057 -0.2773493
000040 7f fb 74 3e c7 c3 94 3e 64 32 46 3e 2b aa 86 3e
       0.23924063 0.29055616 0.1935516 0.26301703
000050 ec 3f 38 be 33 7a 18 3e 2e 8b 76 3d 75 90 1b bb
       -0.17993134 0.14890365 0.060191326 -0.0023737226
000060 a9 e4 1b be e2 6f 49 3e b1 16 87 3e 88 54 86 3d
       -0.15223946 0.19671586 0.263845 0.06559092
000070 85 a4 77 be 30 36 00 be 86 d5 b4 3d c5 ca 50 be
       -0.24183853 -0.12520671 0.08829789 -0.2038985
000080 78 c2 9e bd 7e 4a 51 be 17 e3 df 3d 6f e6 1e be
       -0.07751936 -0.20438573 0.10931986 -0.15517591
000090 a5 41 37 3e f1 68 89 be 10 54 74 3e 86 da c2 3d
       0.17896135 -0.26837876 0.23860192 0.09514336
0000a0 d4 93 b8 bc 59 3e 3b 3e 75 1c 93 be 47 d6 38 be
       -0.022531427 0.18285502 -0.28732648 -0.1805049
0000b0 0a e9 a6 bd ae 54 18 3e 83 26 ec 3c da 72 51 3e
       -0.081499174 0.14876053 0.028826958 0.20453969
0000c0 f5 6d 9f 3d d4 ad 87 3c 81 df 7c be 07 48 b5 3d
       0.077846445 0.01656238 -0.24694635 0.08851629
0000d0 a9 66 87 bd 97 71 cf bd 7b 14 c8 bd b5 e3 44 3c
       -0.06611378 -0.101290874 -0.09769531 0.01201718
0000e0 f0 25 b1 3d cb 39 76 3e d6 8b 83 3e 33 20 96 3e
       0.08649814 0.24045484 0.25692624 0.2932144
0000f0 1b 46 9d be 77 96 9a 3e 8f 92 f0 bd 38 e6 69 3e
       -0.3071755 0.3019292 -0.11746704 0.22841728
000100 f4 46 a5 3e a1 08 55 3e 4f 1c 65 3e ab fc bd 3c
       0.32280695 0.20804073 0.2237408 0.02319177
000110 7c d5 1f be 72 c8 be bc 1b d4 56 be db 74 42 3c
       -0.15608782 -0.02328894 -0.2097935 0.011868681
000120 8e e0 63 be 0b 5c 93 3e 86 f8 79 3e 13 96 6d be
       -0.2225363 0.2878116 0.2441121 -0.2320178
000130 74 41 8e bd 20 ba 58 3e a7 52 3e be d6 87 ca bd
       -0.06946078 0.21164751 -0.18586217 -0.0988919
000140 84 42 8b be 11 78 2f be 5a 78 2d be f2 21 2a be
       -0.27199185 -0.17135645 -0.16940442 -0.16614512
000150 8f 0c 99 3e 5f bf 11 be e6 ed ec 3a 16 56 9f be
       0.29892394 -0.14233159 0.001807627 -0.31120366
000160 6e 76 71 3e e2 ab 3c be 90 50 11 3e cf 72 91 be
       0.23580334 -0.18424943 0.14190888 -0.28407905
000170 31 73 b8 3d 40 d8 47 3d 7c ee 38 3e 92 0d 41 be
       0.09006346 0.048790216 0.18059725 -0.18852833
000180 95 2f b2 3e de 26 95 3e 0a 88 8a 3e e1 4d 6a be
       0.34801927 0.29131216 0.27056915 -0.22881271
000190 21 7f b2 3d 5d 69 5f be 4e 93 8f 3e 68 a2 bb 3d
       0.08715654 -0.21817537 0.28042072 0.09161836
0001a0 46 5e 30 3e 0b c5 a1 3e c0 aa 1c 3e f6 5a 30 3e
       0.17223462 0.31595644 0.15299511 0.17222199
0001b0 34 16 38 bd 2f 85 ae be 5e b6 06 be e2 9c 7b be
       -0.04494305 -0.34085986 -0.13155505 -0.24571565
0001c0 de a2 30 be 54 d6 5f be 59 22 04 3d 0d 11 cf 3d
       -0.17249629 -0.21859103 0.03225932 0.10110674
0001d0 84 17 00 3e d3 61 ef 3d ae cf 12 3e 6b 81 4b bd
       0.1250897 0.1168858 0.14337036 -0.04968397
0001e0 2a 5a 0f be e2 da 56 3e b6 15 39 be 40 04 c5 bc
       -0.13999239 0.20981935 -0.18074688 -0.024049878
0001f0 a1 b4 4a be 41 fc d4 3c 52 8b df 3d c6 27 3a be
       -0.19795467 0.02599919 0.10915245 -0.18179235
000200 96 76 81 bd 81 74 bc 3d fa 46 82 be f7 11 07 3e
       -0.063214466 0.09201909 -0.25444776 0.13190447
000210 c6 a4 4b be 02 4b af 3d 15 ce 38 be 01 8f 4f be
       -0.19887075 0.085592285 -0.18047364 -0.20269395
000220 df 8c 4e bd b3 9b 7e be 57 f0 43 3d 18 77 9c bd
       -0.050427314 -0.24864082 0.047836628 -0.07639903
000230 bc 33 7c 3d ac 40 84 3e 5b a1 88 3e 44 1a 94 bc
       0.061572775 0.2583059 0.26685604 -0.01807893
000240 93 f0 29 3e 08 66 4e be a9 59 81 be 5d c1 8a 3e
       0.16595678 -0.2015611 -0.25263718 0.2710065
000250 52 0f 1a be 89 50 1b 3e 5e 76 17 3c ef a0 8f be
       -0.15044907 0.1516744 0.0092445295 -0.2805247
000260 b2 05 84 bc 82 6a 0c 3e 78 9d c0 3d 48 ff 67 3e
       -0.016115997 0.13712505 0.09405035 0.22655976
000270 6f 16 01 be 18 76 11 3e 9a bf 9e 3b db 55 8d 3e
       -0.12606214 0.14205205 0.004844618 0.27604565
000280 90 33 81 3e ea f8 32 3e 23 0d 4b 3d e1 74 41 be
       0.25234652 0.17477766 0.049573075 -0.18892242
000290 67 33 bf bd 2f 79 a0 3e 6a c9 bb 3d bf 63 12 be
       -0.09335976 0.31342456 0.09169276 -0.14295863
0002a0 e9 6e 3c be 0c 3d 8c 3e a0 64 96 3d 2a f0 48 bd
       -0.18401684 0.27390325 0.073434114 -0.049057163
0002b0 b0 b7 c2 3c 04 e2 f1 bd c5 c8 c9 3d 07 09 ff 3d
       0.02376923 -0.11810687 0.09852747 0.12452894
0002c0 d9 e4 55 bd 46 0f 1c bd ab 14 99 3e 37 95 f2 3d
       -0.0522202 -0.038100503 0.2989858 0.11844867
0002d0 e8 1e f4 bd 36 43 b9 3c b2 f0 6c be 31 2f 17 3d
       -0.119199574 0.022615056 -0.23138693 0.03691024
0002e0 36 0c 32 3e 60 49 df bd 5f 16 50 be 8e 0b 5b 3e
       0.1738747 -0.10902667 -0.20321034 0.21391127
0002f0 a4 3a 9e bd 5f da 78 3c 02 9a e9 3d fb 39 88 be
       -0.077260286 0.0151887825 0.11406328 -0.26606736
000300 1f 46 92 3d d6 9d 1b 3d ac c7 91 3e 81 c1 11 3e
       0.07142281 0.03799232 0.2847265 0.14233972
000310 be 33 9c be 26 7c 0e bc 6d 34 46 be db 83 10 3e
       -0.30508226 -0.0086965915 -0.19355936 0.14112799
000320 e2 36 00 3e 79 33 5e 3e 3c 29 0b be 24 1b 66 3d
       0.12520936 0.21699323 -0.13589948 0.056178227
000330 ce 65 00 be 9d c7 16 3e fe 90 fc bc 5b ca 6c 3e
       -0.12538835 0.14724584 -0.030830856 0.23124067
000340 91 b9 91 be c4 c8 aa 3d 7c f4 dd bd fb 3e cb bd
       -0.28461888 0.08339074 -0.10837647 -0.09924122
000350 3b 19 e5 bd 26 70 94 3e 2c 15 06 be 3c fc df 3c
       -0.11186453 0.28991812 -0.13094014 0.027341954
000360 e2 60 ba bd b8 f9 91 bd b3 94 e7 bc dc b6 48 3d
       -0.0910051 -0.07127708 -0.028269148 0.049002513
000370 5f f7 a4 3d 99 67 42 be f9 8f eb bc 67 ef 5e bc
       0.08054995 -0.18984832 -0.028755175 -0.013606883
000380 23 5d d1 3d 73 74 99 be 89 92 54 3e 88 89 69 3e
       0.102228425 -0.29971656 0.20759024 0.2280637
000390 87 6f 16 bd 07 32 b1 3d 5c cb 15 be ee 35 45 3e
       -0.036727455 0.0865212 -0.14628357 0.19258854
0003a0 03 82 21 be 9c 25 30 be 50 b3 95 be c7 03 bf 3d
       -0.15772252 -0.17201847 -0.29238367 0.09326892
0003b0 18 81 50 bd be 00 12 be e2 8d 13 3e 72 2b 13 bd
       -0.050904363 -0.14258096 0.14409593 -0.035930105
0003c0 dc f0 27 3e 86 85 66 be 7e 1f 5c be 6a 1b 58 be
       0.16400474 -0.22511873 -0.21496388 -0.21104208
0003d0 52 94 b1 bc 75 9a c7 3d 1b 31 3f be aa d9 91 bd
       -0.02167717 0.09746257 -0.18671076 -0.07121594
0003e0 35 33 0e be bc d8 f9 3d ad 9c 32 3e d4 4b 3d be
       -0.13886721 0.12199542 0.1744258 -0.18485957
0003f0 ca ee 74 be dc 29 1f be a9 f6 56 3e 62 6b 34 3e
       -0.23919216 -0.15543312 0.20992531 0.17619088

net.4.layer.bias f4 [40]
000000 96 23 f0 3c 14 02 b0 3d 17 d8 ea 3c f4 bc b6 3c
       0.029313844 0.08594146 0.028667493 0.022306897
000010 bd eb 47 3d f8 7b 21 bd 5d e8 b1 bc 3b 27 b6 ba
       0.048808802 -0.039424866 -0.021717245 -0.001389719
000020 f1 a1 30 bd 0a 03 9b bc f5 c2 5f 3b c4 b7 49 bd
       -0.04312319 -0.018922348 0.0034143303 -0.04924752
000030 2e 37 1f bd bc c7 ed 3c cf 9e a2 bc 6e c0 3a bd
       -0.038870983 0.029025905 -0.019851116 -0.04559367
000040 77 9c a7 3d 99 e7 9c bc 11 50 df bc 24 d3 52 bd
       0.0818414 -0.019153403 -0.027259858 -0.05147089
000050 37 72 99 3c f6 db 05 bd e0 66 2d 3b a2 e1 a6 bb
       0.01873122 -0.032680474 0.0026459023 -0.0050928155
000060 b0 f8 18 bc 0f 98 68 bc 29 8e 96 bd ab f5 3c 3d
       -0.0093366355 -0.01419641 -0.07351334 0.046132725
000070 39 f2 28 3d d6 b0 8b 3d 1a c9 84 bd 9a fd b6 3c
       0.041246627 0.06820838 -0.064836696 0.022337724
000080 f3 df ed bc cf 61 3d 3c 5f 70 93 3d ec 22 aa 3b
       -0.029037451 0.011558964 0.071991675 0.0051921513
000090 21 46 27 3d ab a0 83 3d 7a 14 8e bc d7 fa 90 3d
       0.040838365 0.06427129 -0.017343748 0.07079094

net.5.layer.weight f4 [40, 40]
000000 7a a3 8a bd 54 2c d6 3d 20 c8 d0 bd be ad 35 3d
       -0.06769462 0.10457674 -0.10194421 0.044355147
000010 dc ca 37 be 29 61 83 3e 7c 43 a1 3d 1b 5d 41 be
       -0.17948478 0.25660065 0.078742 -0.18883173
000020 17 3d b5 3d f0 94 0b be 49 87 29 3e 37 58 a3 be
       0.088495426 -0.13631034 0.16555513 -0.3190324
000030 a5 b5 78 3e 8a bc 4d 3e 2b 07 52 bd 42 42 f1 3d
       0.24288042 0.20091453 -0.051276367 0.11780216
000040 c9 41 97 bd 67 a1 52 be 8e 3e be bc 22 e6 83 be
       -0.073855944 -0.20569383 -0.023223188 -0.25761515
000050 92 2d 9f bd 48 02 22 3e d2 a5 43 3e af 69 29 3e
       -0.07772364 0.15821183 0.19106224 0.16544221
000060 7d 49 3a be 4b 4e df 3d 8c 3a 4f 3e ba 8c 82 3d
       -0.18192096 0.10903605 0.20237178 0.06374498
000070 93 d6 af bd f5 c2 d4 bd ad 86 6f be 4b b6 f6 bd
       -0.08585849 -0.103887476 -0.23391218 -0.120464884
000080 3d 2e b5 3d a3 b0 2b bd 1d e7 44 be 7e 36 1a 3e
       0.0884671 -0.0419165 -0.19228788 0.1505985
000090 97 d2 24 be 71 63 70 3e c8 f4 5b be 2f 7a 35 bd
       -0.16095959 0.23475434 -0.21480095 -0.044305976
0000a0 03 40 0a 3e 3d 86 24 3e d0 2a 55 3e 0e bc 0d 3e
       0.13500981 0.16066833 0.20817113 0.13841268
0000b0 2d 6a 92 3d 0c db c2 bc 14 e1 4f be 14 8d a0 3d
       0.07149158 -0.02378609 -0.20300704 0.078394085
0000c0 2f c3 52 3e 05 03 20 be 5c 36 1c 3e fe c3 87 be
       0.20582269 -0.15626152 0.15255111 -0.26516718
0000d0 94 e3 a8 bd ca 10 31 3e 67 4f 8b be 45 97 0e 3d
       -0.08246532 0.17291561 -0.27209017 0.03481223
0000e0 12 23 81 bd 73 1d df 3d 5c b2 5f be 29 ac 67 be
       -0.06305517 0.10894289 -0.21845382 -0.22624268
0000f0 cf 8f 8d 3d 11 29 80 be 83 ed d5 3d 97 26 04 be
       0.06912195 -0.2503133 0.104456924 -0.12905346
000100 05 54 5d bc 4d f3 f2 3c a0 5a 94 be dd 2f 08 3e
       -0.013508801 0.02965703 -0.2897539 0.13299508
000110 43 73 40 3e 01 a9 88 bd bd 4f 65 be 4d 99 74 3d
       0.18793969 -0.0667286 -0.22393699 0.05971651
000120 a4 49 79 be 2b 19 53 3e 15 9d 7d bc ad cf 2f be
       -0.24344498 0.2061507 -0.015479346 -0.17169066
000130 62 15 63 3e c1 7b 2a 3e 17 02 fa 3b 30 2a bd bd
       0.22176126 0.16648771 0.0076296437 -0.09236562
000140 27 79 96 bd bd 5a 66 3e 47 7a db 3d b7 41 a5 be
       -0.07347327 0.22495551 0.10716682 -0.322767
000150 91 a0 69 bd b3 06 c7 3d 09 a5 6a 3e 57 39 e4 bd
       -0.057037894 0.09718075 0.22914518 -0.11143749
000160 40 57 a5 3d 98 71 48 3d 49 c2 e0 3d 2d 02 47 3c
       0.08073282 0.048936456 0.10974557 0.012146515
000170 72 5d 0f 3d 3d ed 87 be 3f e6 6f bd eb d8 0a 3e
       0.035001226 -0.26548186 -0.05856919 0.1355931
000180 d0 01 a3 be 0c 93 f9 3c 90 3e 7f 3e cc 86 a7 3e
       -0.3183732 0.030465625 0.2492621 0.3272003
000190 c2 df 99 be ed 83 a9 3d 83 1d 90 bd b8 8f 16 be
       -0.30053526 0.08277116 -0.07036879 -0.14703262
0001a0 a5 c0 2a bc b5 bf 2b be 11 6f 88 3e fd 7a 7f 3d
       -0.010421907 -0.16772349 0.26647237 0.06237315
0001b0 ce e0 51 be af 3a 98 be 0d a5 01 bd e6 db 22 3d
       -0.20495912 -0.29732272 -0.031651545 0.039760493
0001c0 a0 ea 76 be 3b b1 69 3d 5e ad 2f 3e 4e 98 b1 bd
       -0.2411294 0.057053786 0.17155978 -0.08671628
0001d0 b9 fa b9 be f2 dd 52 be e7 7e 89 bd 56 0e 1e be
       -0.363241 -0.20592478 -0.06713658 -0.15435156
0001e0 cf de 2f 3d ba 31 4d 3d f4 48 a4 bc 95 59 56 3e
       0.042937096 0.05009625 -0.020054318 0.2093261
0001f0 bf 0a 7f 3e 48 9e ed bd 42 9a 48 be d3 f8 a9 bc
       0.24906443 -0.116024554 -0.19590095 -0.020748531
000200 67 b6 28 be e0 b5 52 3e c3 c3 7a be 99 c2 21 be
       -0.16475831 0.20577192 -0.2448874 -0.1579689
000210 dc de 4c be b5 35 e9 bd 2c d8 90 be 64 33 8e be
       -0.20006889 -0.11387197 -0.28289926 -0.27773583
000220 1c 2a 1a be 7b aa 4d bd 14 bf 6b be 1d 4f 41 3e
       -0.15055126 -0.05021141 -0.2302211 0.18877836
000230 40 3f 34 3e c1 ff 1d bd c2 cd 17 3a ea 4a 28 3e
       0.17602253 -0.038573984 0.0005790853 0.16434827
000240 bc dd 14 3e 4d 11 1b bd 81 d8 54 3e 9d a2 6f be
       0.1453771 -0.037858296 0.20785715 -0.23401876
000250 26 ab 19 be 82 84 d2 bc 97 ab ad 3d ce b6 11 be
       -0.15006694 -0.02569795 0.08479994 -0.1422989
000260 7d 85 80 bd 15 0b d8 bd fa 51 03 be 3e da 06 3e
       -0.06275461 -0.10548989 -0.1282424 0.1316919
000270 10 bf 34 3e 8f 00 4c 3e 86 3d 47 be f5 3a dc bd
       0.1765101 0.19922088 -0.19457063 -0.10753433
000280 4a 56 89 3d b7 49 7f 3e ea be 7f 3e cd 8e 2b bd
       0.067059115 0.24930464 0.24975172 -0.041884232
000290 a8 7a 33 bd 28 5b 4f 3d ee 58 44 3e ca df 00 3e
       -0.043818146 0.050624043 0.19174549 0.12585369
0002a0 61 6f 72 be 21 0f 28 bd d2 f1 ce bd b2 e0 73 bd
       -0.236753 -0.041030053 -0.10104717 -0.059540458
0002b0 37 0d 45 be 3e 85 01 3e 8b 2e 8d 3d a8 b4 8b be
       -0.19243322 0.12648484 0.06893643 -0.27286267
0002c0 b3 28 2c 3e a8 d2 94 3d ec 14 3f 3e 46 00 1f be
       0.168124 0.07266742 0.18660325 -0.15527448
0002d0 95 4a 92 3d 70 4c 84 bd 8d e2 01 be 7a 73 a2 3d
       0.07143132 -0.06459892 -0.12684079 0.07932182
0002e0 7c df 16 be 00 26 52 be 63 b6 4c be 17 a7 27 be
       -0.1473369 -0.20522308 -0.1999145 -0.16372333
0002f0 93 1c 76 be d0 6d 67 bd 33 5b 57 3e 15 73 42 be
       -0.24034338 -0.05650121 0.21030883 -0.18989213
000300 c0 2f 3f be 9a 75 f9 bd 4c 30 37 3c 6e 1e 46 3e
       -0.18670559 -0.12180634 0.0111809485 0.19347546
000310 77 ac 2f 3e bd 31 1e 3d 57 17 2e 3e fc 87 11 bd
       0.17155634 0.038621653 0.17001091 -0.035530075
000320 fe 63 af 3e aa 53 db bc 18 35 93 3e 70 af a0 3c
       0.34255975 -0.026773293 0.28751445 0.019614905
000330 b1 cb a7 bc dc f9 93 3e bc 96 89 3e 9d c7 32 be
       -0.02048287 0.28901565 0.26872814 -0.17458959
000340 94 50 17 be 5a cc dc bc a4 37 00 be 7e 6d ce 3c
       -0.14776832 -0.026952911 -0.12521225 0.025198694
000350 89 17 13 be 26 02 a4 3d a9 ad 81 bd dd 51 41 bd
       -0.14364447 0.08008222 -0.06331951 -0.04719721
000360 a5 20 d5 3d 4e d2 be 3c d7 1b 4b be 28 be 6c 3e
       0.10406617 0.02329364 -0.19834839 0.23119414
000370 40 81 09 3e 32 bb 15 be 91 23 ac 3d ea f3 53 3e
       0.13428211 -0.1462219 0.08405221 0.20698515
000380 69 3f 4d be ef 2e 24 be f4 52 48 3e e9 51 91 3e
       -0.2004372 -0.16033529 0.19562894 0.28382805
000390 9d 06 33 be 79 f4 c9 3d 33 91 35 be 72 e8 0a be
       -0.17482992 0.098610826 -0.1773117 -0.13565233
0003a0 bc 32 3d 3c 38 cb 34 3c b7 cf 1f be 27 fe 32 3e
       0.011547741 0.011034779 -0.1560658 0.17479764
0003b0 2c d4 83 3c f1 d8 05 3e 76 b6 55 3d 5c e6 d1 3d
       0.016092382 0.13071038 0.05217596 0.10249016
0003c0 be d1 27 bd af 4c d1 3d c6 79 53 be 56 9f 83 3e
       -0.04097151 0.10219704 -0.20651922 0.257075
0003d0 7e 54 4a 3c 3b 53 1d bc ae 81 8c be 4b ed 84 be
       0.012349246 -0.009602363 -0.27442688 -0.2596229
0003e0 0b b5 2f be ae 9e 94 be 20 0b 40 be 0c 75 92 be
       -0.17158906 -0.29027313 -0.18754244 -0.28604925
0003f0 fc d0 4a be bc dd 85 bd b8 97 5f 3e 92 70 88 be
       -0.19806284 -0.06536433 0.2183522 -0.26648384

net.5.layer.bias f4 [40]
000000 44 42 bd bb c0 41 b8 3c 38 21 4d bd 9e 71 f9 ba
       -0.0057757217 0.02249229 -0.050080508 -0.0019031053
000010 50 eb 60 3d ad 3e 33 bb 59 8f ad 3b 91 c6 97 3c
       0.05491191 -0.002735059 0.0052966294 0.018527301
000020 7f 66 c0 bc 48 fb 4d 3c 12 5b 1c 3d cb a0 00 3d
       -0.023486374 0.012572117 0.03817279 0.031403344
000030 70 2d be bb f4 a8 03 bd 42 a7 31 bc 7d 1b 6a bc
       -0.0058037564 -0.032143548 -0.0108431 -0.01428878
000040 58 16 ec bc 55 8e 73 3c a3 f6 b0 bc 27 f3 2c 3e
       -0.028819248 0.014865478 -0.02160198 0.1688963
000050 75 00 22 3c be 9a 75 3c 83 2a 48 3c 1d 74 f9 3c
       0.009887804 0.014990507 0.012217167 0.030450875
000060 30 40 6e b9 18 5c da 3c 2e 7d b6 3c 2f 18 b3 bc
       -0.0002272136 0.026655242 0.022276487 -0.021862118
000070 d3 10 f6 bc b2 e9 d5 bb 98 58 97 bc 2c 42 1e bd
       -0.03003732 -0.006528103 -0.018474862 -0.038637325
000080 89 2f af 3a 47 df ec bc 39 46 0e bc ff 1e 5c bd
       0.0013365607 -0.02891506 -0.008683735 -0.053740498
000090 2a 5c 40 3d af 1a 23 3c 87 5a 3b 3b 8d 3b 92 bb
       0.046962894 0.009955092 0.0028587894 -0.0044626654
