Archive/Burgers/Identification/weight_noisy1.pt (torch, 19242 bytes, 17 tensors)

net.0.layer.weight f4 [20, 2]
00000000: 4d2e 043f e6cd 00be e259 083e 7a3b 81bf
00000010: 1aad 3bbe fb3a 0f3f 7542 dfbe bfe6 7abe
00000020: 9612 dc3e f5e0 30be a4dc c7be 8023 c6bd
00000030: ef2c 433c ecce 7dbf d55e b43e 8bbe c3be
00000040: 3a58 f6be 219d cfbe 9163 823e 73f5 84be
00000050: cce6 993c 31a4 39bf d476 293f 9b5d e83e
00000060: f5bb 67bf 3b98 21bd 9351 c63e 741d c9be
00000070: 51cd 1b3f bf06 903e ba46 933f b0fb 103f
00000080: 7960 87bf a907 e43e d37c fd3e fb1a 0cbf
00000090: 5766 8b3f 4f88 a7bd 3bd2 c43e 01f4 3b3f
0.5163315 -0.12578544 0.13315538 -1.0096276 -0.18327752 0.5594937 -0.4360539 -0.24502085
0.4298293 -0.17273314 -0.39035523 -0.0967474 0.0119125685 -0.9914386 0.352286 -0.3823131
-0.48114187 -0.40549567 0.25466588 -0.25968513 0.01878681 -0.7251616 0.6619694 0.45383915
-0.90521175 -0.03945182 0.3873411 -0.39280283 0.6086016 0.28130147 1.1505959 0.56634045
-1.0576316 0.44537094 0.49509296 -0.5472867 1.0890607 -0.08180296 0.38441643 0.73419195

net.0.layer.bias f4 [20]
00000000: b485 4cbe fe36 0bbd 2bdf 113e 2b58 a53e
00000010: 7189 37be 7b95 aa3e 9619 f6be 4d46 66bf
00000020: 1f65 b3bd 1a7b d4bd 7871 d13c e6f1 2f3d
00000030: 47ec 09be bd11 cebc 2661 3fbe 2c7a 9bbf
00000040: 9910 263e ada9 79be ccc7 a2be 744d 573e
-0.19972879 -0.03398799 0.14245288 0.3229383 -0.17923523 0.3331717 -0.48066396 -0.8995102
-0.08759522 -0.10375042 0.025566801 0.0429553 -0.13469039 -0.025154943 -0.18689403 -1.2146659
0.16217269 -0.24381132 -0.31793058 0.2102564

net.1.layer.weight f4 [20, 20]
00000000: 6dba cc3d 79d3 613e 3a8c 153e 3267 543d
00000010: a2d0 c93e 8341 efbe a85e 0d3f 4e37 8c3e
00000020: aa74 623e cd9b ce3e 070e 963d f004 f63e
00000030: 8c15 26be 3a6f 563e 68bc d13e eb62 e73e
00000040: 2138 54bd ea92 6a3e 1afe af3e df80 a7bd
00000050: 3100 96be 5d81 a2be baf5 de3e b963 a33e
00000060: 8223 b03d f2fd d03e 9fe2 64be 2228 223e
00000070: 2cea a63d 0d22 32bc 0bed b8be 36ed 88bc
00000080: 94df 123f dc8c 9bbd 8b51 afbe 0fa2 a93c
00000090: 9121 893e 0454 87be bf17 bfbe c2ae eb3e
000000a0: a5d0 fa3e 9993 283f 4eaf 8cbe 2b21 6c3d
000000b0: af38 c63e b9ad 10bd 39aa 43bd af3e 263e
000000c0: 4b53 0ebe 2a51 8ebd 4f9e f83e 80af 503e
000000d0: c6e7 04bf 2749 883e f35b 513e 8a7d 913e
000000e0: 1b13 1abf fc61 9c3e 942d 1f3f b3d3 04be
000000f0: ff12 cebe adff d53d db2e b53e a57a 6e3e
00000100: 5a70 803e 0dc2 f13e 7931 5abe 2742 493e
00000110: c655 933e 9f78 85bd 8e2d 463e 03ab c2bd
00000120: 8d67 e33d f5d5 28be bd3e b4bd 4c13 59be
00000130: ecdc 5a3e 95c3 84be b37c 913e c594 fbbd
00000140: 7b97 033f bfb7 933e a00c c1be 60e3 b33e
00000150: 39a5 a83e 71a7 5e3d 8235 413f c469 88bd
00000160: e02f c23e 1a68 4bbe c653 c13e a47f 2abd
00000170: faf1 983e a7a1 003e 1350 24be 7264 bcbe
00000180: f823 4cbe 1a48 4c3e ccd7 8e3d d719 1fbe
00000190: b0ca 913d 3b15 22be 1cf9 a2be aa91 02be
000001a0: ccd2 95be f2db b8be 4cb2 633e f291 703e
000001b0: 3a8a 423d b916 06be affb 993e d548 41be
000001c0: 835b 4d3e f2b8 873e 3581 913e a530 8bbe
000001d0: 519a bf3e 677e 9bbe 7143 953e ed20 f4be
000001e0: f719 083e 0165 8fbe eba6 e2bc 7f7c b8be
000001f0: cf10 01bd 4bf2 933e f36e ba3d 2282 c93d
00000200: fd4f 823e 3368 c5be db16 943d 8a79 f7be
00000210: 8f98 943e 5259 053e 71e8 ddbe 9bba a93e
00000220: 09ef 8fbe a713 7cbd c6b4 c3bd 007c 2bbd
00000230: f2ce 853e ee7d b6be ff88 66bd ad49 cfbe
00000240: dab2 533e 78aa 28be b3ab 6cbc 6b05 a63d
00000250: b7ab a93c a75e 94be 703a 5dba bec7 de3e
00000260: 654b bd3d 0433 103e 53c9 923e 591d e73e
00000270: 7d98 adbe 1908 9b3e 835a 9b3e 76c1 853c
00000280: 88b7 453e 7325 a6bc 04d5 5a3d 7ebc adbe
00000290: d4df 843e 487b 283e 1c92 2f3e 889b 693d
000002a0: 3705 7abc 9b96 573e 7746 643e 51b3 d13e
000002b0: 96c2 0bbf d3d6 f63e 8460 d33e b999 483e
000002c0: 161e 0dbf 05b5 163f 7ff2 813c 9a79 243e
000002d0: f50b ac3d 0772 88bd daf7 8b3e 73ea 6ebe
000002e0: 803d c83e 505d a43d 650c e23d 861c b1be
000002f0: 6958 69be 43a8 d73e 8afd 243e ff88 533e
00000300: 5cbf 94be 5a2a a0be 56ab 41be 4a20 84bd
00000310: e71e 34be 8ab3 283c 350f 013f 1963 033d
00000320: ad59 13be 7352 883e 5446 29be 63e1 87be
00000330: bb12 c13d ed51 7ebe 666e a4bd 21b2 a43e
00000340: 5bdd 283e 8e26 aebe 2581 85be ed95 763e
00000350: 07f8 87bd 0538 ce3e e8ca 8e3d fbef e93d
00000360: 1453 7ebe fb62 9abd 64e7 94be 2700 cb3e
00000370: d867 8d3d c9b3 a13b 074c 85be 06b0 7e3e
00000380: 711c 25be b1e8 a4be c6c6 8b3e 7185 9b3e
00000390: 269c ddbd 4fc1 1d3e 16f1 cdbd c0b8 8c3c
000003a0: 0215 dabe 09ad a1be 6d69 9e3d 9792 82be
000003b0: fd7d ccbe 0491 d13e 3748 1d3e 0276 1cbe
000003c0: 80ad 00be 3978 98be 78bb 59be 4899 ba3c
000003d0: f32a bb3e 6bb1 d03e 466a c03d 3ece 20be
000003e0: 28ec 96bd b42b ea3e ca0d ef3d 32ce 66be
000003f0: 87e7 fc3c a091 a4bd fd20 0abe 8cdf a13e
0.099964954 0.22053327 0.14604273 0.051856227 0.39416987 -0.4672967 0.5522256 0.27385944
0.22114816 0.40353242 0.07326894 0.48050642 -0.16219157 0.20940867 0.40964055 0.45192656
-0.05181134 0.22907606 0.34373552 -0.08178877 -0.2929702 -0.3173932 0.4354685 0.3191202
0.086005226 0.40818745 -0.22352074 0.15835622 0.081501335 -0.010872376 -0.3611835 -0.016714673
0.57372403 -0.07595226 -0.342419 0.020707158 0.26783422 -0.26431286 -0.37322804 0.46031767
0.48987308 0.65850216 -0.27477497 0.05764882 0.3871512 -0.035321925 -0.04776976 0.1623485
-0.13898961 -0.069490746 0.4855828 0.20379448 -0.5191616 0.2661831 0.20445232 0.2841609
-0.601854 0.30543506 0.6217892 -0.12971382 -0.40248868 0.10449157 0.3538731 0.23288973
0.25085717 0.47218361 -0.21307935 0.19654141 0.28776377 -0.06517147 0.19353315 -0.09505274
0.11103735 -0.16487868 -0.08801029 -0.21198767 0.21373338 -0.25930467 0.2841545 -0.12284235
0.51403016 0.28851125 -0.37704945 0.3513441 0.32938555 0.054358903 0.7547227 -0.06660798
0.3792715 -0.1986393 0.37759227 -0.041625634 0.29872113 0.12561665 -0.16046171 -0.36795384
-0.19935596 0.1994938 0.06974754 -0.15537201 0.07118738 -0.15828411 -0.3183068 -0.12750879
-0.29262388 -0.36105305 0.22235984 0.23493174 0.047495104 -0.13094606 0.30074832 -0.1887544
0.2005444 0.2650829 0.2841889 -0.2718555 0.37422422 -0.30369875 0.29153016 -0.4768137
0.13291155 -0.28006747 -0.027667483 -0.36032483 -0.03151017 0.28895792 0.09103193 0.09839274
0.2545165 -0.3855606 0.07230922 -0.48334914 0.29022643 0.13022354 -0.433414 0.3315018
-0.28112057 -0.06154218 -0.09555964 -0.041866302 0.2613445 -0.35642952 -0.056282993 -0.40485898
0.20673695 -0.16471279 -0.014445233 0.08106502 0.020711763 -0.28978464 -0.0008439189 0.43511766
0.09242896 0.14081961 0.28669223 0.45139578 -0.33905402 0.30279616 0.30342492 0.0163276
0.19308293 -0.020281529 0.053425804 -0.3393287 0.25952017 0.16453278 0.1714558 0.05703309
-0.015260032 0.21053545 0.22292505 0.4095712 -0.5459379 0.48210773 0.41284573 0.1958989
-0.5512403 0.58869964 0.015862701 0.16062012 0.08400718 -0.06662374 0.27337533 -0.23331623
0.3910942 0.080256104 0.1103752 -0.34592074 -0.22787632 0.4212056 0.16112342 0.20657729
-0.29052246 -0.31282312 -0.18913016 -0.06451471 -0.17589913 0.010296712 0.5041383 0.03207693
-0.14389677 0.26625404 -0.16530734 -0.26539144 0.09427401 -0.2483594 -0.08028869 0.32167152
0.1649069 -0.3401379 -0.26075092 0.2408063 -0.06639104 0.40277115 0.06972295 0.11422726
-0.2483638 -0.0753841 -0.29082787 0.39648554 0.06904572 0.004934762 -0.26034567 0.24871835
-0.16124131 -0.3220878 0.2730009 0.30375245 -0.108207986 0.15405773 -0.10055749 0.01717794
-0.42594153 -0.31577328 0.07734952 -0.25502464 -0.3993987 0.4093095 0.15359579 -0.15279391
-0.12566185 -0.29779223 -0.2126292 0.022778168 0.36556205 0.4076036 0.0939527 -0.15703675
-0.07369262 0.45736468 0.11672552 -0.22539595 0.03087212 -0.08035588 -0.13489147 0.31615865

net.1.layer.bias f4 [20]
00000000: 4149 68bf 8457 96bd 13af 243e e89b 0f3e
00000010: d871 40be ea33 88be 1f41 65bd d659 21be
00000020: 9ad3 843e 3881 973e e508 273b 07cc a8bc
00000030: 4a02 16bd 54b4 21be fdbb ab3e 1c89 d53e
00000040: 539d 33be a5d9 913e 1e2e 2c3f fd44 64bb
-0.90736777 -0.07340911 0.1608241 0.14024317 -0.18793428 -0.26602107 -0.055970307 -0.15756926
0.2594269 0.29590774 0.002548748 -0.0206051 -0.036623277 -0.15791446 0.3354186 0.4170617
-0.17540483 0.28486362 0.6725787 -0.003483116

net.2.layer.weight f4 [20, 20]
00000000: 3338 883d 79ff fc3e a270 d2be 4521 203e
00000010: 914e 23bd b60f e5bd 97a1 4f3e 7aed b4be
00000020: 02f8 15be 86d1 86be 0a27 cb3e 2892 183d
00000030: 6626 2bbe c0c5 e2bd 01d3 0f3d c083 1cbf
00000040: 5a99 973e ba7e 853c 0002 b03d 0b43 c13e
00000050: 625b 88be 8a74 e63c 2390 37bc 6126 3abe
00000060: ce73 b73e 018e 3c3e 1010 763e 005a a93e
00000070: de0b f5be 2e1a 003d 9345 50be 0f3e 49be
00000080: b73a afbe 4289 d7bd f5ae 3dbe e49d b5be
00000090: 6c5a a0be 69c8 adbe 8cd0 38be 0c80 893e
000000a0: 029e 13bf 5cb5 c03d af85 603e 365a e13d
000000b0: 4654 a63c e6e6 e33d 44d5 0d3e 12c0 73bd
000000c0: 4f94 0cbe 70fd 963e bb3c bb3e d3f2 38be
000000d0: 8190 53be 1b66 48bd ec0d c33e 4b92 97bd
000000e0: 45ea cabe e753 9d3b 6ae4 c93e b2e0 253e
000000f0: 0caa fdbe 915d 213d ab8b fe3d 2c39 ff3e
00000100: 5d6a 02bf 4a7e 6fbe ddfa b53e d9f0 c3be
00000110: e629 903d 5143 22bd d47f 8e3a 0135 1d3d
00000120: 38e9 0abe 8af7 90be fb45 723e 7595 11be
00000130: 2539 92be a118 cd3e d1e5 d73e e349 a2bc
00000140: a98e 7c3e ded6 1bbf fa9c ad3e a234 7dbe
00000150: 15e3 ef3d 19e9 a7be 9c66 d0bd 8c27 c13d
00000160: 6ad9 ff3e 9b7b e53e fd15 d63d c567 e13e
00000170: 0057 973e 43ec 653e 6bcc bbbe da7b 8c3e
00000180: 27a6 8cbd 2fe9 8e3d b0e9 acbe b666 bdbe
00000190: d41f 123f 250e 233e 651c 813e cb78 633d
000001a0: 7659 973d d6a3 143e 6c28 10be 916c 813e
000001b0: 6a2d d43a b2ca 833d c63b 9b3e ff9d 113e
000001c0: 39f2 c93d 0d7f b7bc 7f9d 24bf d2f4 85be
000001d0: 7be3 43be b13c 573e 9149 0abf bc3b 13be
000001e0: c114 cd3e 9548 8c3e 0729 3e3e bcf8 7abe
000001f0: cc2b 24be 9eb1 063e 9383 133e 04d8 273e
00000200: 19f1 923e 91db 5fbe 2ad8 113e bb45 b8be
00000210: 3c31 8d3e 9d08 81be 3458 ddbd 997a be3d
00000220: 1bb3 81be af77 103e ee83 09be e24f bfbe
00000230: 1312 6dbe 23e3 573c eaf8 073d fd54 b63e
00000240: 9ec3 debd 72b0 563e 458d aa3e b55f cfbe
00000250: 5456 103e 0057 a5be e28c b43e 2364 69be
00000260: 1b85 e93e 80fe 1ebe 5e2b 1e3d e277 51be
00000270: 49de d13c bc7f fabe 636f a3be 69f2 33bd
00000280: 6879 483f 546a dabe 2895 553e f6ea a7be
00000290: 6033 4dbd 2872 053e 8d7e 96be f5df 983e
000002a0: 87f1 823e a040 093f 188e be3c 14f7 64be
000002b0: 44c6 a2be 1080 613d 0499 dabe a727 f1ba
000002c0: a77b dc3d 4102 1dbe eb91 c0be 3146 fbbe
000002d0: c96f 12be 9e29 d2bd c38f 8d3e 3a17 823e
000002e0: af2e 02bf 5d2b 9ebe 0e1d 723e beb5 d9bd
000002f0: 7f76 fdbd b89b bb3e 0a23 9fbe 8a2b 98be
00000300: 7422 e43c 77a2 17bd 85ab a3be bbba 65be
00000310: d8c5 91be f19b bebd 64cf 49be 6b2c da3d
00000320: 5037 f43e a6be bf3e c4d4 35be 8743 d83d
00000330: 0379 dd3e 0e76 54be f333 6c3e ec00 b73e
00000340: 9ba9 d43d 1869 83be 0369 503e 486b ad3e
00000350: bad5 453e a118 143e ebf8 153d c436 b63e
00000360: 42cf 863e 0f51 8dbe 0d80 4a3e 2b78 57bb
00000370: 46cb 42bf 6faa 903d 6d13 36bf db54 06bd
00000380: d0ff ddbd b25e 02bc e230 83be f5ff 97be
00000390: 5524 27bf cd21 e3bd d40c be3d 7974 b13c
000003a0: c3ca 98bb 61dc b23d 3ddc d13e 5243 9cbe
000003b0: 849b 7f3e 5585 35be d635 073e 06b0 063f
000003c0: c52c a7bd 2d0f 7fbd 087f 46be 3c39 91be
000003d0: 48be 0ebe 4003 c5be cb19 4dbe 6c2f d1bc
000003e0: 7bf8 283d 246c 3c3e 1cc7 fa3d 2518 38bd
000003f0: c859 2d3c 189b c9be 498a 75be 6d72 d33e
0.06651344 0.4941366 -0.41101557 0.15637691 -0.03986985 -0.11184637 0.20276485 -0.3533743
-0.14645389 -0.2633173 0.39678222 0.03724876 -0.16713867 -0.11072874 0.03511334 -0.61138535
0.29609185 0.01629578 0.085941315 0.37746462 -0.2663222 0.028131742 -0.011203798 -0.18178703
0.3583054 0.18413545 0.24029565 0.33076477 -0.47860616 0.031274967 -0.2033904 -0.1965258
-0.34224483 -0.10524227 -0.18523772 -0.35472023 -0.31318986 -0.33941963 -0.18048304 0.26855505
-0.57662976 0.094095916 0.21925996 0.110035345 0.020303857 0.11128025 0.13850886 -0.059509344
-0.1372845 0.29490232 0.3656977 -0.1806138 -0.20660593 -0.0489255 0.3809656 -0.0740095
-0.39631858 0.0048012617 0.3943208 0.16198996 -0.49543798 0.039395873 0.12428983 0.49848306
-0.5094355 -0.23388019 0.35542956 -0.3826969 0.070392415 -0.03961498 0.0010871836 0.038380627
-0.13565528 -0.28313857 0.23659508 -0.1421717 -0.28559223 0.40057853 0.42167524 -0.019810623
0.24663796 -0.60874736 0.33908826 -0.24727109 0.11713234 -0.32795027 -0.10175821 0.09431371
0.4997056 0.44820866 0.10453413 0.44024482 0.29558563 0.22453408 -0.36679396 0.2743824
-0.068676285 0.0697807 -0.3377204 -0.36992425 0.57079816 0.15923364 0.25216976 0.05553512
0.0739011 0.14515623 -0.1407792 0.25278142 0.0016187851 0.064351454 0.3031904 0.14220427
0.098606534 -0.02239945 -0.6430282 -0.26163346 -0.19129746 0.21019246 -0.54018503 -0.14378256
0.40054896 0.27399126 0.18570338 -0.24508947 -0.16032332 0.13153693 0.1440566 0.16390997
0.28699568 -0.21861102 0.14242616 -0.359907 0.27576625 -0.25201884 -0.10807839 0.093007274
-0.2533196 0.14108156 -0.13429233 -0.37365633 -0.23151426 0.013176712 0.033196367 0.35611716
-0.10877155 0.20965746 0.33310905 -0.40502706 0.14095432 -0.32292938 0.35263735 -0.22792105
0.45609364 -0.15526772 0.038615577 -0.20455888 0.02561869 -0.4892558 -0.3192092 -0.043932352
0.7831025 -0.42659247 0.2085768 -0.32796448 -0.050097823 0.13031828 -0.29393426 0.29858366
0.25574896 0.53614235 0.023261115 -0.22359878 -0.3179189 0.05505377 -0.42694867 -0.0018398658
0.10765772 -0.15332891 -0.37611327 -0.4907699 -0.14300455 -0.10261844 0.27648744 0.25408345
-0.50852484 -0.3089246 0.23643896 -0.10630368 -0.12376117 0.3664224 -0.3108142 -0.29720718
0.02784846 -0.037020173 -0.31966797 -0.22434513 -0.28471255 -0.09307087 -0.1970802 0.10653003
0.4769845 0.3745014 -0.17756945 0.10559755 0.43256387 -0.2074816 0.23066692 0.3574289
0.10383912 -0.25666118 0.20352559 0.33870912 0.19319811 0.1446252 0.03661434 0.35588658
0.2633 -0.27600905 0.1977541 -0.0032878022 -0.7609142 0.07063758 -0.7112339 -0.03279577
-0.10839808 -0.007957147 -0.25623232 -0.29687467 -0.65289813 -0.11090431 0.092797905 0.021661984
-0.004662843 0.0873344 0.4098834 -0.3052011 0.24961668 -0.17726643 0.1320413 0.5261234
-0.08162836 -0.062270332 -0.19384396 -0.2836398 -0.13939774 -0.38479042 -0.2002937 -0.025535308
0.041252594 0.18400627 0.12245008 -0.0449449 0.010580488 -0.3937614 -0.23978533 0.41298237

net.2.layer.bias f4 [20]
00000000: 85f1 e83c 5f56 78be d534 2c3e aea4 db3e
00000010: 618c 0c3d c6ef bcbe 46cb 22be e012 afbd
00000020: f02b f5bd e1f1 d23a 06ef 04be e09c 00be
00000030: d89d 093e a754 1ebd 8b42 3d3e 3b8f 8f3c
00000040: 99de 0d3e c599 c4be 5c2a ebbe 171e 3f3d
0.028435478 -0.24251698 0.16817029 0.42899078 0.034313563 -0.36901683 -0.15897855 -0.08548522
-0.11971271 0.0016093814 -0.12981805 -0.12559843 0.13439119 -0.03865495 0.18482415 0.017524352
0.13854446 -0.38398567 -0.45930755 0.046659555

net.3.layer.weight f4 [20, 20]
00000000: b9f4 b93e 43d6 bebd d3c5 5dbd d19d 38be
00000010: 5e4c 42bd 8f45 06be b643 05be 04eb 6b3e
00000020: 0585 e23e 4a48 6ebc 25b0 fbbd d3fd ae3e
00000030: 7109 a9be c986 ec3d e870 dcbe cf89 69bd
00000040: 279d c1be 6e99 fc3d 8fa3 0dbe 1099 88bd
00000050: bdd7 d6be 7efa 71be 702d b5be d497 38be
00000060: 3e72 3a3f 8c5d 973e 30d8 f2be 9eff 133d
00000070: 72c6 66bd 02c8 2fbe 4933 0dbe 3016 8c3e
00000080: b2c0 ea3e ba63 863c 9284 a33e bf9d 89be
00000090: b097 053f 0577 97be 154d 8a3e 813d a83e
000000a0: b40e d4bd 405d 91be 62eb 8c3e c1cd eabd
000000b0: 92c8 263b 23c8 8f3c df77 45be 77b3 243e
000000c0: c3e5 263e c96e 62be ea6d ed3d 3901 c1be
000000d0: 9b07 063e bf79 e0bc c9c9 803e a574 983e
000000e0: 52ae 86be f980 f7be 51f6 aa3e 627b f93d
000000f0: 113a 453e 649f 823e 7959 883d de0e bf3e
00000100: 0dc7 99bd ad9f 19be 8faa 673e bcaf 543b
00000110: 2ddd 4f3e d4d7 b43e 9f48 97be 7be3 cfbe
00000120: ad7a 5b3d fb47 ed3d 784a 26be 335f 84be
00000130: 02a4 aa3d 36d9 d4bd d783 073e 8c25 9cbe
00000140: d594 eabe 01d9 3abe d9dd 4ebe 754f 823e
00000150: 5697 b13d 22cc f63e 1ea2 883e 7109 0c3e
00000160: 50bb 40be f6cc 983e 952e 9fbd 42cf 2fbe
00000170: 694b 1f3e a8b1 71be 2191 583e 6adf a03e
00000180: a5ce 0f3d 9d5b 353d 284e b23e e91e 593e
00000190: eb9e bbbd 7ddd b73d c2b1 813e 1c64 063f
000001a0: 77d3 29be 879c 133d 7a1c 13bc f9a9 e6bd
000001b0: 671e e3bc 67f8 40be a401 a4bc 6a21 003f
000001c0: 3d59 643e 32c4 f3be bf8a b9bd 9788 edbd
000001d0: 9c93 81be 8848 623e 149a 9fbe ecf7 47be
000001e0: 3d7d 73be cc86 083d 108e 873e 3188 0d3f
000001f0: c1ae 393e fd48 433e 4555 45be a31a bb3e
00000200: ce0b b73e e1f7 4d3e ebde a8bd c0c8 f5be
00000210: c1e5 563e ff6d 9dbd c02b be3e 3ce0 b9be
00000220: 7218 afbe b06c 363e 4930 a4be 36bc a13c
00000230: 7f14 81be e51c e3bd 2865 4d3e 7a3c 873e
00000240: fa3f 9fbd fe32 a73e 4b5a 20be 5587 9b3e
00000250: df19 0dbe e333 b63e 87fe acbd e126 54be
00000260: 8548 993e d09f a3be 8692 34be e349 e9bd
00000270: 6593 20be 7c80 9cbe 4043 ae3e b278 853e
00000280: 9177 923e 5ea9 7d3e cfc5 de3e 5621 5c3d
00000290: a9c1 dfbe b3fa a2be 60b8 3dbf f700 e0be
000002a0: d3b5 09be bb3e 68be 3353 d3bd d1ad 223f
000002b0: 9af0 a33c 3d34 573e 9a96 653f 2ca6 91be
000002c0: d339 bbbd 865a 50be 5a26 59bf cd68 b5be
000002d0: 19b6 143f 7986 ff3c 974d f83e b300 9fbd
000002e0: 77db c5be 5924 a6be 1a60 603e b1d0 a03e
000002f0: c821 1b3d da8b 203e 65a8 853e a7c0 c8bc
00000300: b751 d93b c38e adbe dbf8 d1be dfe3 973e
00000310: 43d6 87be 4e6d 47bd b487 ac3e 9d6a 223e
00000320: 7b47 ab3e f567 0c3e 8504 ad3e e831 d3bd
00000330: 9e95 d0be 5476 f2bd 0b52 c8be b6ec 1c3f
00000340: eb4a 29bf 70bd a2be 88c1 eebd 33b8 393f
00000350: 9960 b9be 93fb 44bf 6f27 1fbf 4f4a a83e
00000360: a655 68bd 5e43 cf3e a55d f5be 3375 f43e
00000370: f06a a2be f789 633e a586 85bd 3a9c cdbe
00000380: 5bae 393e ae95 953e 9047 f13d c302 b3be
00000390: f98a 043f eee5 553e 743a c4be 91bc 44bf
000003a0: d6be 183e bdb7 5f3e 6d0f 88be 7d2d f5bd
000003b0: 9709 4d3e 180e e0be b725 133f f82f 7fbe
000003c0: 53aa ebbe 22bb da3e 05fc 9abe f459 8fbe
000003d0: 13ef c8be 5a9f f43c ff13 82bd ef7c 733e
000003e0: e1ab 433e a4e5 923b c3ec a63e b096 c53e
000003f0: dfe9 8a3e 2a58 0ebd ae5a 26be f94e f1bd
0.3631952 -0.09318211 -0.054143738 -0.18028952 -0.04743611 -0.13112472 -0.13014111 0.2303887
0.4424211 -0.014543602 -0.12289456 0.34178028 -0.33015016 0.11549146 -0.4305489 -0.05701619
-0.3781521 0.12333952 -0.13831924 -0.06669819 -0.4196147 -0.23630711 -0.3538623 -0.18026668
0.7283057 0.29563558 -0.47430563 0.036132447 -0.056341596 -0.1716614 -0.13789095 0.27360678
0.4585014 0.016404975 0.3193708 -0.26878163 0.5218458 -0.29582992 0.27011934 0.32859424
-0.10354367 -0.28391457 0.27523333 -0.11465026 0.002544914 0.017551487 -0.19284008 0.16084085
0.16298585 -0.22112574 0.1159323 -0.37696245 0.13088839 -0.027401803 0.2515395 0.29776493
-0.2630487 -0.48340586 0.3339105 0.121817365 0.19260432 0.2551223 0.066576906 0.3731603
-0.07508669 -0.15002318 0.22623657 0.0032453379 0.20299216 0.35320914 -0.29547593 -0.4060324
0.05358379 0.11585995 -0.16239345 -0.2585388 0.08332063 -0.10392992 0.13233887 -0.30497396
-0.45816675 -0.18246843 -0.20201816 0.25451246 0.08671443 0.48202616 0.26686186 0.13675477
-0.18821454 0.29843873 -0.07772557 -0.17168906 0.1555611 -0.23602927 0.21149112 0.3142045
0.03510918 0.044276822 0.34825253 0.21203198 -0.091611706 0.089777924 0.2533093 0.52496505
-0.16584574 0.036037948 -0.008978957 -0.112628885 -0.027724458 -0.18844758 -0.020020314 0.50050986
0.22299667 -0.47610623 -0.09059667 -0.11598318 -0.2530793 0.22097981 -0.3117224 -0.19528168
-0.23778243 0.033331677 0.26475573 0.55285937 0.1813307 0.19070812 -0.19270809 0.3654376
0.35751194 0.2011409 -0.08245643 -0.48004723 0.20986082 -0.07686996 0.37142754 -0.3630389
-0.34198338 0.17814898 -0.3206809 0.019743066 -0.2521095 -0.110894956 0.2005812 0.26413327
-0.077758744 0.3265609 -0.15659444 0.30376688 -0.137794 0.3558646 -0.08446985 -0.20717956
0.2993814 -0.31957865 -0.1763402 -0.11391046 -0.15681227 -0.30566776 0.34035683 0.26068646
0.28606847 0.2477164 0.4351029 0.05374273 -0.43702438 -0.31831893 -0.7410946 -0.43750736
-0.13448267 -0.2268018 -0.10318603 0.6354647 0.020012189 0.21016021 0.89682925 -0.28447092
-0.091418885 -0.20347032 -0.84824145 -0.3543152 0.5809036 0.031192051 0.48496696 -0.07763805
-0.38644 -0.32449606 0.2191166 0.3140922 0.037874013 0.15678349 0.26105037 -0.024505926
0.0066320556 -0.3389798 -0.41010174 0.2966604 -0.26530656 -0.048688225 0.33697283 0.15860982
0.33452973 0.13711531 0.3379251 -0.10312253 -0.4073915 -0.118389755 -0.39125094 0.6129869
-0.6612994 -0.31785154 -0.11658007 0.7254669 -0.3620651 -0.7694637 -0.62169546 0.32869193
-0.056722306 0.40481085 -0.47923008 0.47745666 -0.31722212 0.22220598 -0.06519822 -0.40158254
0.18132918 0.2921576 0.117812276 -0.34963045 0.51774555 0.20888492 -0.38325846 -0.7685023
0.14916548 0.21847434 -0.2657427 -0.11971567 0.2002319 -0.43760753 0.57479423 -0.24920642
-0.46028385 0.42720896 -0.302704 -0.27998316 -0.392449 0.029861141 -0.0635147 0.23778127
0.19108535 0.0044829417 0.3260251 0.38591528 0.27131554 -0.03475205 -0.16245529 -0.11782641

net.3.layer.bias f4 [20]
00000000: 0cd6 0dbe 6555 393e 65b4 103e 6531 453e
00000010: 5a73 c43d aa1c c53c d578 bc3c af88 c8bd
00000020: 436a aa3e 22ef ed3d 0d75 c4be 114b 8c3c
00000030: ecaa 8cbe f84b 393d 675b e8bd 96ae 57bd
00000040: 6cf2 503e c282 0a3e 2cde 3bbe dcf3 8e3e
-0.13851184 0.18098982 0.14131315 0.19257124 0.09592314 0.02406152 0.023006836 -0.09791695
0.33284196 0.116178766 -0.38370553 0.017125638 -0.27474153 0.045238465 -0.113455586 -0.052656732
0.20404977 0.13526443 -0.1834647 0.27920425

net.4.layer.weight f4 [20, 20]
00000000: d40e 9a3e cca5 c1bc 70da c3be acba afbe
00000010: 8e7d 83be c3e6 e13e 200b 97bd fa60 e03c
00000020: 6bb8 b63e 1736 8cbe 73e7 8bbd 380a 44be
00000030: 1c28 363d 6b48 e5bd 7d81 e63d d3ee 7abe
00000040: 0690 323e 3d1f 47be 3c09 bcbe 5ca6 e03d
00000050: 30cb 96bd db81 9a3e e450 163e d0c9 03bf
00000060: 53aa d93c 9149 79bd e3ed babe 2298 06bf
00000070: 8fd1 d6be 8991 9bbe ab42 7e3e 50f1 97be
00000080: b58d da3e 2989 abbe ad62 0cbe 6d9a 943d
00000090: 60e0 a53e 8a1a 6dbe b441 813e 6cb3 b6be
000000a0: 9fcb a13e 38b2 af3d 5ae1 46be 810e a83e
000000b0: 9f3b 9c3e ec48 313d 5758 84be ab05 a63e
000000c0: cdd5 aa3e afdb b7bd 0cfc babd 9085 3b3e
000000d0: 5d09 833d ab08 5ebd d523 5bbe 57b3 37bc
000000e0: 71eb b5bc 8050 263e 9e13 71be 0f2c d2bd
000000f0: fb0b 653e 2699 743e 553e 05be 6323 cdbd
00000100: 4140 a0be 56e0 00bf 46d0 2d3d 8cc7 5cbe
00000110: 297a 3ebe e193 4cbd 32fd bf3d e1b1 9aba
00000120: 2ddf a43e 084a 78be c87e 6e3d 4b53 27be
00000130: bfb0 69be 8b40 a9be 94ac 0fbe 88ee 05bf
00000140: c357 9a3e 1b8f 0a3d 1e21 ed3d 7a62 1bbe
00000150: 9c3e 4d3d ebcd 62be 7a76 503e 431f b73e
00000160: bb2a 533d 353e 89be f9b0 d8be 87a9 043f
00000170: 951d 63be f818 6ebe 8487 dbbc b317 82be
00000180: 27ae 333e 0b0c 473e 27cd b63d 740f 56be
00000190: fc7e 9ebe 8eb8 85be 889d c3bd ba4a 92bd
000001a0: 7119 52be 3a19 92be 924a 09bd 9b5b 0b3e
000001b0: c3db e5be aab3 193d 4883 cfbe 79c7 123f
000001c0: f9d0 6ebd 082f 03be 5a8e 4b3e d95f ccbd
000001d0: 4032 71be 7ae8 6cbe 80d8 013f 470d ffbe
000001e0: 7dc3 46be 9c6e b4be 48d6 3bbe 9be6 313e
000001f0: a960 e83d 3f75 4fbd fcbf 113d 41ac db3d
00000200: 98db 4b3d 1e0f 0e3e 5a55 d73d 6cf0 94bd
00000210: f9ab 99be 6b06 3a3e 9628 fd3e 940f 5ebc
00000220: c2c1 fe3e aac9 6b3e 0247 9bbe b69c be3e
00000230: 7b8f 863e 18da febd 0dba 8abe b714 87be
00000240: e35a 9d3e bbd5 7dbe c4c1 6abe 80b6 b5be
00000250: e16e 9c3e 96cd 49be 9aaa 483f 4e38 18bf
00000260: 6bab 1f3e 5669 82be b442 bfbe dfb8 1fbe
00000270: 6d6f 9dbe 7e3f e3bc 9ac5 cfbe df0a 5a3e
00000280: 3a75 a2be 3822 8a3e 2427 643e ef0d 4b3e
00000290: ed13 483e 5faa f63b 2160 9c3e 1774 9abc
000002a0: d1c9 20be bf1a 16be 359d 063e a21c 81be
000002b0: a246 c1be 6c79 c7be 4a04 813e ccbb 0bbe
000002c0: 3eeb b9bd bf73 ce3e d1b8 a1bd 292c 22bd
000002d0: ed89 143e 1ae6 04bf faad d23e 5da6 b33e
000002e0: f0bc 45be 656e c6be 29f9 a53e 978c 9bbe
000002f0: 19ed 213e 2cc1 b03e e319 043e e973 f8bd
00000300: d42f ec3d d4a9 6e3e e2a9 c53e fc03 083e
00000310: 8349 093f 6163 093f 2d6c 85be e324 933e
00000320: 0a96 5d3e f799 1ebf 97cc b7be 2389 fb3d
00000330: c9f6 82be 3d0d 73be 787d 91be 61f1 3e3e
00000340: 0f32 d0bd 1244 9e3e 3364 2c3e d409 76be
00000350: 5fdb 94bd 6ed6 953e 5b2a 88be ca6b 123e
00000360: e20c 533e a649 c03d 7161 f9be ff38 213b
00000370: fd41 fabe 3ad3 ba3e ab86 93bd 2de9 983e
00000380: c880 983e 6e12 7dbe f882 bfbe 1f05 b3bd
00000390: 7563 8d3e 9bc2 e4be 6ce4 dabd dc32 b33e
000003a0: b503 c4bc aa1e 2ebe e6d1 14be dcb3 8cbe
000003b0: 8fbc 2b3e f08c 033d 608f f53c 15b5 db3c
000003c0: 183f 283d e2a6 973e b190 19bd e7ec 04bf
000003d0: 69a5 04bd a4cb 0d3e 76c9 15be 8895 a93e
000003e0: 508a 88be 1739 0f3d f36e 97bd 006c 81be
000003f0: cd27 bd3e f560 a0be fbb2 ab3d 1a42 983e
0.30089438 -0.023638628 -0.38252592 -0.34322107 -0.25681728 0.4412137 -0.07375169 0.027389992
0.35687575 -0.27385017 -0.06831255 -0.19144523 0.044471845 -0.11195453 0.11255167 -0.24505167
0.17437753 -0.1944551 -0.36725795 0.109692305 -0.07362974 0.30177197 0.14679295 -0.51479816
0.026570475 -0.060861174 -0.36509618 -0.52575886 -0.41956756 -0.30384472 0.2483012 -0.29676294
0.4268624 -0.33503082 -0.13709517 0.07256017 0.32397747 -0.23154655 0.2524544 -0.35683763
0.31600663 0.085789144 -0.19421902 0.32823566 0.30514237 0.043282434 -0.25848648 0.324262
0.33366242 -0.08977448 -0.091301054 0.18312669 0.0639827 -0.054207485 -0.21400388 -0.011212192
-0.022206994 0.16241646 -0.2354264 -0.1026231 0.22367851 0.23886546 -0.13012059 -0.10016515
-0.31299022 -0.5034231 0.042434953 -0.21560496 -0.18601288 -0.049945716 0.09374465 -0.001180228
0.3220152 -0.2424699 0.058226377 -0.16340367 -0.2282133 -0.33057055 -0.14030677 -0.52317095
0.30145082 0.033827882 0.11578582 -0.15174285 0.050108537 -0.22148864 0.20357695 0.35766038
0.051554423 -0.26805273 -0.4232252 0.5182118 -0.22179253 -0.23251712 -0.026798017 -0.25408706
0.17546903 0.19438188 0.089258485 -0.20904332 -0.30956256 -0.26117367 -0.09551531 -0.07143159
-0.20517518 -0.2853487 -0.03351838 0.13609163 -0.44894227 0.037524857 -0.40529847 0.5733562
-0.05830476 -0.1281091 0.19878522 -0.09979219 -0.23554325 -0.23135558 0.5072098 -0.49814817
-0.1941051 -0.35240638 -0.1834346 0.17373125 0.113465615 -0.050648924 0.03558348 0.10726214
0.049769968 0.13872954 0.105143264 -0.07272419 -0.30014017 0.18166511 0.49445027 -0.013553519
0.497572 0.23026147 -0.30327612 0.37228936 0.26281342 -0.12443942 -0.2709507 -0.26382992
0.30733404 -0.24788563 -0.22925478 -0.354908 0.30553344 -0.19707331 0.7838532 -0.59460914
0.15592735 -0.2547099 -0.37355578 -0.15597866 -0.30749074 -0.027740236 -0.40580446 0.2129321
-0.31730062 0.26979232 0.22280556 0.19829534 0.19538851 0.007527634 0.3054209 -0.018854184
-0.15701987 -0.1465864 0.13145907 -0.25217158 -0.377492 -0.38959825 0.25198585 -0.13645858
-0.09078072 0.40322682 -0.07896579 -0.039592896 0.1450574 -0.5191361 0.4114836 0.35087863
-0.19310355 -0.387561 0.32416657 -0.303807 0.15813102 0.34522378 0.129005 -0.12131483
0.1153256 0.23306972 0.38606173 0.1328277 0.53627795 0.53667265 -0.26059094 0.2873908
0.21639267 -0.6195368 -0.35898277 0.12282016 -0.25578907 -0.23735519 -0.28416038 0.18646766
-0.10165798 0.3091131 0.16835098 -0.24027187 -0.07268404 0.2926516 -0.26594815 0.14298931
0.20610383 0.09389047 -0.48707154 0.0024600623 -0.4887847 0.36489278 -0.0720342 0.298654
0.29785752 -0.24714062 -0.3740461 -0.08741211 0.27614942 -0.44679722 -0.10688099 0.3499974
-0.023927549 -0.17003885 -0.14533195 -0.27480972 0.16771148 0.03211683 0.029975593 0.026819745
0.041075796 0.2961951 -0.037491504 -0.51923984 -0.03238431 0.13847214 -0.14627632 0.33121896
-0.26668024 0.034966554 -0.07394209 -0.2527771 0.36944428 -0.31323972 0.08383747 0.2973793

net.4.layer.bias f4 [20]
00000000: bd8a 3ebe d683 aabe cbf4 24be 45fe 74be
00000010: 4f01 2d3e e5ee a2bd a0a8 763c 19fe e53d
00000020: ea5e c3bc 3d86 6f3d 3bad d7bc fd2c 783e
00000030: fba4 37be 325e 13bd 26d7 603e 5795 bfbd
00000040: 039f 723e 05f8 433e 65cd 4f3c ce46 823d
-0.18607612 -0.33303708 -0.16109006 -0.23925121 0.1689503 -0.07955722 0.015054852 0.11230106
-0.02384897 0.05847763 -0.02632772 0.24235912 -0.17934029 -0.035978504 0.21957073 -0.09354656
0.2369347 0.1913758 0.012683247 0.06361161

net.5.layer.weight f4 [20, 20]
00000000: 44b1 3bbe e2c9 ef3d af6b acbe 03e2 2abe
00000010: ebca adbe 9427 e2bd 269e 85bd e36d a83e
00000020: 8a78 31be 0794 223e 1e47 b1be a7e0 0fbe
00000030: bd91 573e 180d 3f3e 28c7 62bd c9ea 47be
00000040: fe8b 72be 5a9a c73d 4093 9bbd 297b 3fbd
00000050: dbcf 1fbf 74cc ed3d 7955 853e 70f7 b13d
00000060: 04d7 31be 4c6e 023f 4ed2 99be 9a5b fdbe
00000070: 8bd3 bbbd d054 4b3e d471 bbbe 0d4e ee3b
00000080: b69f ab3e 6490 e0be c813 d2bb 217e 2c3d
00000090: 03a4 38be b477 613e 8b8e 4b3e 9d05 193e
000000a0: 42ea 6fbe 5f4e 63bd 9b06 d43c 72a5 a93e
000000b0: 6295 4fbd 518f df3d be65 da3e 8d62 df3e
000000c0: 2b4c d7bd 5991 c73e 1aea 793e 7b74 a8be
000000d0: 065e 54be 0e18 983e e96f a9bb 29df 64be
000000e0: b95c c2bd f8ed 3ebd 730b bbbd 8624 6fbe
000000f0: aa17 0abe a93e 57be 8be4 73be a1fb 19be
00000100: 887a 9cbe a2e3 9fbe d6c3 c1bc 6e13 25be
00000110: cc9b 65be a4bc 0d3f 0057 893e 057c aebe
00000120: 6174 7dbe fa53 b1be e50e b8be a6a6 b4be
00000130: 655f 9bbe c4da 163d ecee 0c3d 5030 583e
00000140: 567c 353e 1f06 93be 2372 87be abe9 753e
00000150: 3427 553e 693b 9e3e 064e 7fbe 01b6 8e3d
00000160: 4264 aebe 9349 e1bd 7c6e 99be 6e76 9b3e
00000170: 6564 183d 8665 f0be e8e1 a8be d554 ab3d
00000180: 1052 273c f3f7 39be bd33 1f3e d0da 01be
00000190: 1934 c03c 9ede f93e 14c0 963e 7ff1 afbd
000001a0: 486a f53d 8400 363e 80ca e6bc b527 4b3e
000001b0: 9e70 653e c7d2 5ebe fd14 333e b455 fe3d
000001c0: 9cb2 893d 5de1 b73d 56fe 8abe e7d9 ac3e
000001d0: c7d6 dbbe 4f92 c4be 8e2d b4be 5a84 5bbe
000001e0: 019a 3c3e 04c9 49be 557f 38be 1983 1dbd
000001f0: 03b3 95be c0ba 443b aaba 953e 7a42 b33e
00000200: 0a8b a8be e86a a43e 3a79 0d3f f32a acbe
00000210: 1dee 923c 2240 2f3f bd4f 053f aa54 cebe
00000220: a7bd df3e d058 183f cd02 15be 9557 b1be
00000230: 4834 8f3e 2bf9 e5be 844d 443e 59bd d1be
00000240: 5e87 373e bc12 8f3e bc17 01be 782a bcbb
00000250: 52fb d8bc b585 7c3e 4b4e 1bbd 89b5 abbe
00000260: ec6e abbe 1365 f63d f480 60be b0c7 e8bd
00000270: 639c 98be 318d fcbe 73b2 353c dff0 c7be
00000280: 8d1e 0a3c 8a13 efbe c93e f3bc 00c5 96be
00000290: a8b1 c93e d4c5 74be c368 6dbe 598d 0e3d
000002a0: c8a1 f43e 0642 46be f465 283e bb83 56bc
000002b0: ee5c adbe c2f5 83be 7ec9 21be cb1b 81be
000002c0: f6a9 dc3e 578c 32bd 8f29 a33e 3289 943d
000002d0: da0a 603e ee96 e73e 1119 423d d4bb 053f
000002e0: 36be aa3d 2747 afbe b3c3 d1be 97ad 283e
000002f0: 8ccd a2be a4d1 f6be 53ba 03bf 5b87 43be
00000300: fa80 043f 7518 a63e 5e7c 0ebd ea50 533e
00000310: 0998 383d b539 8f3d a0fc a63d b809 643e
00000320: dac5 0d3d 2b74 0c3e 3674 a33e 913a 86bc
00000330: ac22 b33e fdb9 973e a38d f1bd 7318 58be
00000340: 4015 1abd 4270 80be 6cec 05be c9e5 983c
00000350: 5bbd 1a3e 9f1c 833d 48e0 793e a52c ad3d
00000360: cab5 f9bd 46e5 d7be 211b 12be 6b9a bb3d
00000370: 231b 99be 75d6 2e3e 25e2 43ba f933 3a3e
00000380: 96f5 c53e fef5 1fbd a203 673e 921c 69bc
00000390: 7c8e 2a3e 1a0f fb3e c69b bb3e eaf3 15be
000003a0: f232 79bd 779d bd3e 2e8a 83be 8055 3a3d
000003b0: 34fa 9bbe 6277 81bd 31d1 983e 8212 5d3e
000003c0: caa2 a6be 7ea8 c63e 789f d5bc 9c4a c6be
000003d0: 5239 3c3e 2884 0fbe c801 323d 3f5e a3be
000003e0: 2920 213e 2636 e4be 39ff 553e 2289 7e3e
000003f0: c46c 45be c5c4 a0be 62fc 2d3c 86d2 bdbd
-0.1832934 0.11708428 -0.33675906 -0.16687779 -0.33943877 -0.11042705 -0.06524305 0.32896337
-0.17331138 0.1587678 -0.3462457 -0.14050542 0.21051688 0.18657339 -0.05536571 -0.19523157
-0.23686215 0.09746237 -0.07596445 -0.046748314 -0.6242654 0.11611262 0.26041773 0.08689773
-0.17367178 0.5094955 -0.30043262 -0.4948395 -0.09171208 0.19856572 -0.3661028 0.007272488
0.33520287 -0.4386016 -0.0064110495 0.042112473 -0.18031316 0.2201832 0.19878595 0.14943548
-0.23429206 -0.055494662 0.025882056 0.33134037 -0.050679572 0.10916007 0.42655748 0.43629876
-0.10512575 0.3897808 0.24405709 -0.32901368 -0.20738992 0.29705852 -0.0051708114 -0.22350754
-0.09490342 -0.046613663 -0.09133043 -0.23353776 -0.1348559 -0.21019997 -0.23817651 -0.15037395
-0.30562234 -0.31228358 -0.023652952 -0.16120693 -0.22422713 0.5536597 0.26824188 -0.34078994
-0.24751426 -0.34634382 -0.35948864 -0.35283393 -0.30346218 0.036829725 0.03440754 0.2111218
0.17723212 -0.28715608 -0.26454267 0.24014919 0.20815736 0.309047 -0.24932107 0.06968308
-0.34060866 -0.11000361 -0.29967105 0.30363792 0.03720512 -0.46952456 -0.32984853 0.0836579
0.010212436 -0.18160991 0.1554708 -0.12681127 0.023462342 0.48802656 0.2944342 -0.085909836
0.11983162 0.17773634 -0.028172731 0.19839366 0.22406241 -0.21760093 0.17488475 0.1241869
0.0672352 0.089785315 -0.27147168 0.33759996 -0.429373 -0.38392875 -0.35191005 -0.21437207
0.18418123 -0.19705588 -0.18017323 -0.038455103 -0.29238138 0.0030018538 0.29243976 0.35011655
-0.32918578 0.32112813 0.552631 -0.33626518 0.017935807 0.68457234 0.52074796 -0.4029897
0.4369938 0.5951052 -0.1455185 -0.34637132 0.27969575 -0.44916663 0.19170195 -0.40964773
0.17922732 0.2794398 -0.1260671 -0.0057423674 -0.026487026 0.2466038 -0.037916463 -0.33536938
-0.33483064 0.12030997 -0.21924192 -0.11366212 -0.29806814 -0.4932647 0.011089909 -0.39050958
0.008430135 -0.46694595 -0.029693024 -0.29447174 0.39393353 -0.2390359 -0.23184495 0.03480277
0.4777968 -0.19361123 0.16445142 -0.01309293 -0.33859962 -0.25773436 -0.1579952 -0.25216517
0.4309842 -0.04359087 0.31867644 0.072527304 0.2187914 0.45232338 0.047387186 0.5223973
0.08337061 -0.34233972 -0.4096962 0.1647247 -0.31797445 -0.48206818 -0.51456183 -0.19094603
0.517593 0.32440534 -0.034786575 0.20636335 0.045066867 0.069934286 0.08153653 0.22269332
0.034612514 0.1371619 0.319246 -0.016385349 0.3498739 0.29634085 -0.11794593 -0.21103077
-0.03761792 -0.25085646 -0.13078469 0.018664258 0.15111296 0.064019434 0.24401963 0.08455781
-0.12192877 -0.4216711 -0.14268161 0.09160312 -0.29903516 0.17073996 -0.0007472358 0.18183888
0.3866393 -0.039052956 0.2255998 -0.014228003 0.16655916 0.4903496 0.36642283 -0.14643827
-0.0608396 0.370342 -0.2569136 0.045491695 -0.30464327 -0.063215986 0.298471 0.21589091
-0.32546073 0.38800424 -0.026077017 -0.38728797 0.18381241 -0.14015257 0.04345873 -0.31907842
0.15734924 -0.44572562 0.20898141 0.24857 -0.19279772 -0.31400123 0.010619255 -0.0926867

net.5.layer.bias f4 [20]
00000000: a857 5d3d 584f 66be 8648 a5bd 3e70 ddbc
00000010: 24ec 503d 144d f2bd 69cb 09be 7fa4 62be
00000020: 04dd e0bd 8f01 2d3d 0343 24bb 3799 9e3c
00000030: f871 a3bd 2554 81be 3d52 203e d74a 513c
00000040: 81cb abbc 2871 7ebe b27c 55bd 6416 32bc
0.054038674 -0.22491205 -0.080704734 -0.02703106 0.05100645 -0.11831108 -0.13456501 -0.22133063
-0.109796554 0.042237815 -0.0025064356 0.019360168 -0.07980722 -0.2525951 0.15656371 0.012774191
-0.020971062 -0.24847853 -0.05212087 -0.010869596

net.6.layer.weight f4 [20, 20]
00000000: 8732 36bd aa2c a2bd b628 bdbd 2840 713d
00000010: aa1c c63e dcae 0abe 4dcc 03bf bbda c43e
00000020: 0e50 ccbc 301d 2fbe 7d93 713e d5e5 893e
00000030: fc3f c13d 2d48 f53e 7006 913e 972e bcbd
00000040: 5eeb c43c 9d7c e4bc 6bc0 7c3e 83a1 80be
00000050: 612d d03c b527 793e 790b 4e3e 8b4a cd3d
00000060: 0a28 c8be 2711 afbe a20e 303e 9a8f 943e
00000070: 0597 14be 1080 01bf a9cc 113e b02b 7e3e
00000080: f0d2 473d c290 ac3c c9fe 913c 4b80 c8be
00000090: a032 503d 5357 57be f97e f93c ed43 953e
000000a0: 42bf 26bd e46f d73c 5dff a23e b00d 94bd
000000b0: c3ca 29be 946e 663d 4738 9d3d 18d6 24be
000000c0: 749d c1be 30d7 8ebd c47c 97be b290 94be
000000d0: d58c afbe 97be 7dbe 8434 2b3e 2ed7 ecbd
000000e0: 016c cd3d 7ae4 623c 1d54 293e c3a5 a3be
000000f0: dcba 373e ed65 39bd f6e7 1bbc 5ef0 783e
00000100: 9740 10bd 0a41 af3e 187a 243e f364 78bd
00000110: e6af 313d df5b bebd aeac e33d b8e6 ad3d
00000120: f2fe b5bc 4953 3abe 1924 9a3e bd86 82be
00000130: 35b7 a0be b67c b7be 2583 463e d75c 123e
00000140: a4dc 963e a1b7 a8be cc6f 24bd 7f2c d8be
00000150: 8962 a1be 8efd 493e 032d 943e ee61 dcbe
00000160: e288 7fbd 18dd 40be 058f 88bd 254e b23e
00000170: 1c4a 21be b53d e2bd 5955 0cbe 9acd 473d
00000180: ba84 19bd 8e18 a9bc 558f a8be f097 eabe
00000190: c884 5bbe e92d c43e 2777 8cbd 002b b63e
000001a0: ffb6 97be d7d7 2e3e 868a 923c 502d b6bd
000001b0: d0b6 97be 083b aebe 9c25 8abe 72a9 c23e
000001c0: c089 bf3e 11b0 2f3e d39b 4cbe 62d4 c13e
000001d0: dbac 55be 75a6 dc3e 0ccf 9abe 8d55 e03d
000001e0: 7559 933d f178 cc3e d2ce 8b3e 29db 813e
000001f0: 65b2 9f3d e2a9 bebe 9c6d c9be e142 993e
00000200: 0c0a f8bd ba96 a3be d54e 2abe 00e9 923d
00000210: 64f2 d73c 9cfe f5bd bab3 69b9 ea8d 0d3e
00000220: 0326 a23d 9090 39bd 20a5 d73e dcdc 1c3d
00000230: 10a8 6d3d 4247 9abe 90bf 873e dd78 c6be
00000240: 9ee8 a83d 50a1 b03e 4acf 7bbe 1b79 163e
00000250: bcda 7abe 8c72 bd3e 07ed 53be 0e1b 86bd
00000260: 614c c1bd 0d82 1f3e bd18 a83e cd91 18bd
00000270: dd7a e2be eac9 c23e 848e 8c3e 0a6c 8c3e
00000280: ee8e 93be e8cc 523e 6464 533e 2f02 d93d
00000290: 16bd b4be e82f 833e 6a51 72be c185 46be
000002a0: ba4f 0abe 2182 ddbe 46de 7fbe e41e 4bbe
000002b0: a477 00bd 3cee 8dbd e831 efbe 8dd0 d63d
000002c0: 1122 f13b d421 89be a0d8 413d 6774 46be
000002d0: cedb 1bbe 6155 0c3e 49fa b4bb ca78 6b3e
000002e0: 88f2 673e 3f30 aabe a3dc 5cbe 5f16 51be
000002f0: 4164 343c f8b5 ba3e aa35 91be 097c 10be
00000300: 68f0 cc3d 312d e63d 2a37 32be 3e10 3d3e
00000310: bc88 033e fc83 983e 8b3b 5e3e 8879 833e
00000320: 1e03 f8bd cfa1 a53e 893a a3be ba33 693e
00000330: 7e23 7dbd 608a f2bc fce2 a7bc 9b2a 4e3e
00000340: 21c5 c8be 197b 233e 5154 df3d 69a9 05be
00000350: 7a40 24be cbf9 c23e 026c df3d 5107 613e
00000360: 510d 593e 2a70 d6bc f51d 2d3e 6ae1 ae3e
00000370: 171e 833e a028 6e3e 8b32 31be b641 b33e
00000380: cfe0 1cbe 78ca 603e dbfc 24bd da16 dcbd
00000390: 39fa bf3e fefd 58be 2f2f 023e 1c3d d93e
000003a0: 1967 e5bc 1064 db3e 7e56 ce3c 3e82 34bd
000003b0: 0a9a 67be 3e11 2c3d a5ba cb3d 7136 393e
000003c0: df3f 933e 0c50 b23b 031d 3cbe c174 ae3d
000003d0: db31 423d 88fe 4e3e 4b46 303e 135b 06be
000003e0: cafb 7abb 440d e83e 545c e83d 3f2d 953e
000003f0: 6829 913e 481e adbe 4e08 453e c71f 293f
-0.04448178 -0.07918675 -0.092362806 0.058899075 0.38693744 -0.13543266 -0.51483613 0.38448128
-0.024940517 -0.17100978 0.23591419 0.2693316 0.09436032 0.47906628 0.28325224 -0.09188574
0.024038013 -0.027891451 0.24682777 -0.25123224 0.025412263 0.24331553 0.20121564 0.100239836
-0.39093047 -0.34192774 0.17193082 0.2901581 -0.14510734 -0.5058603 0.14238228 0.24821353
0.04878515 0.02106512 0.017821686 -0.3916038 0.05082953 -0.21029405 0.030456053 0.29153386
-0.04070974 0.02629847 0.31835452 -0.07229173 -0.16581254 0.0562578 0.0767675 -0.16097295
-0.3781544 -0.069746375 -0.29587376 -0.29016644 -0.34287134 -0.24779736 0.16719252 -0.1156448
0.10030366 0.013848418 0.16535993 -0.31962404 0.17942375 -0.04526322 -0.009515753 0.24310443
-0.035217848 0.34229308 0.160622 -0.060643148 0.04338064 -0.09294867 0.111169204 0.08491272
-0.022216294 -0.18195833 0.30105665 -0.25493422 -0.31389776 -0.35837334 0.19385965 0.14293228
0.2946521 -0.32952598 -0.04014568 -0.42221448 -0.3152049 0.1972563 0.2894059 -0.43043464
-0.0623864 -0.1883434 -0.06667904 0.34825245 -0.15750927 -0.11046926 -0.13704433 0.04878006
-0.037480094 -0.020641591 -0.32921854 -0.45819044 -0.21437371 0.38316277 -0.06858664 0.3557968
-0.29631802 0.17074524 0.017888319 -0.088953614 -0.29631662 -0.34029412 -0.2698182 0.38019902
0.37409782 0.17157008 -0.19981317 0.37857348 -0.2086672 0.43095747 -0.3023609 0.109538175
0.07194797 0.3993602 0.2730623 0.25362518 0.07797698 -0.37238985 -0.39341438 0.29933837
-0.12111291 -0.31950933 -0.16631635 0.071733475 0.026360698 -0.120114535 -0.00022287565 0.13823667
0.079174064 -0.04530388 0.42118168 0.038296565 0.058021605 -0.3013249 0.26513338 -0.38764086
0.08247493 0.34498072 -0.24590793 0.14694636 -0.24497503 0.37001455 -0.20695888 -0.06548129
-0.09438396 0.15576954 0.32831374 -0.03724842 -0.44234362 0.38044673 0.2745248 0.27426177
-0.28819984 0.20585978 0.20643765 0.105961196 -0.3530051 0.25622487 -0.2366387 -0.1938696
-0.13506976 -0.43263343 -0.24987134 -0.19836003 -0.0313641 -0.06930205 -0.46717763 0.10488997
0.0073587974 -0.2678362 0.04732573 -0.19380341 -0.15220568 0.13704444 -0.0055230004 0.22995296
0.22651112 -0.33239934 -0.21568541 -0.2041869 0.0110102305 0.36466956 -0.28361255 -0.14109816
0.10006791 0.11239088 -0.17403856 0.18463227 0.12845129 0.29788196 0.21702401 0.25678658
-0.121099696 0.32350013 -0.31880596 0.22773638 -0.061801426 -0.029606998 -0.020493977 0.2013344
-0.39212897 0.15964927 0.10904754 -0.13052906 -0.16040221 0.38081202 0.10909273 0.21975447
0.21196486 -0.02617653 0.16905959 0.34156352 0.25608894 0.23257685 -0.17304437 0.3501107
-0.15320133 0.21952236 -0.040280204 -0.10746546 0.37495592 -0.2119064 0.12713312 0.42429435
-0.028003262 0.4284978 0.025187727 -0.04406952 -0.22617355 0.04200863 0.09947709 0.18087174
0.28759667 0.0054416712 -0.18370442 0.08518363 0.047410827 0.20214283 0.17214315 -0.1312068
-0.003829705 0.4532262 0.11345735 0.29136083 0.28351903 -0.33812165 0.19241449 0.66064113

net.6.layer.bias f4 [20]
00000000: 008d 1ebe 196e b2bd 7042 763d 4f3b fcbb
00000010: 5e00 1d3e 1d73 743d 25a7 a63d 4808 2fbe
00000020: 703a 30bd 892e fd3d d35b ba3d 1c45 46be
00000030: a31b 543e dcea 663a e6b1 57be 2544 b63e
00000040: 414c abbd a744 883e 4ba8 c83d 570d bbbd
-0.15483475 -0.08712406 0.060121953 -0.0076975 0.15332171 0.059680093 0.08137349 -0.17093003
-0.04302448 0.123623915 0.09099545 -0.193623 0.20713668 0.00088088005 -0.21063957 0.35598865
-0.08364154 0.26614878 0.09797724 -0.09133404

net.7.layer.weight f4 [20, 20]
00000000: e320 2c3e 0a7e e83c ccc8 113e 95dd 0dbe
00000010: 3eda c43e 4ef8 34bd c9f7 b5be 2a55 313d
00000020: dc44 c0bd 9a1c d4be a697 b0be faa6 a2bd
00000030: c624 113e 7e41 c6bd b9db 8f3e 20a6 933d
00000040: 7d85 a93d 6787 b23e a8b1 e8bd d350 71be
00000050: 54ff 00be e704 18bc f287 a4be cafb 3b3e
00000060: 97af aa3d e9c7 b63e b014 e03e 2b12 62bd
00000070: b1ae e63d cae7 373e 440a 483c 2de5 e93d
00000080: 1233 8abe 72c3 82be 3a4a a03d 4129 743c
00000090: e7ad 80be 2b30 a9be 4a9a a5be f2ad 2ebd
000000a0: b85b c33e 8e6f abbe 6ed2 2c3e d2e7 ec3d
000000b0: 1743 ecbc e68e d83d 4329 893e b508 ccbd
000000c0: 221f b43e c303 bfbe 32cf d13c 2be8 493e
000000d0: f70c 7ebc 7015 bdbe c0ef 023e 16d3 113e
000000e0: 8302 39be 7736 b93e 42b6 b63e 8645 b03d
000000f0: 2f38 21be 9c92 c5be 9ffb 50be c725 9c3e
00000100: 3b49 dc3e ce93 8cbe 5bb2 483e 28d9 2cbe
00000110: 01fc 9e3b ee3d 49be 5bc7 f63d c8ac 3dbe
00000120: 5d30 463d 3861 63be 93e4 c73e 5496 983d
00000130: a1de a03e 2be8 953d 1847 a0be 0043 103e
00000140: 9593 8b3c f739 863e 2e6a a3be 77eb b83e
00000150: 34d4 f9bd e303 d43d 07fb 86be 8c7a 973d
00000160: 8ebf 9abe a789 7dbe bc16 38be 4232 143e
00000170: 0846 c23e 17a1 acbd 8282 9f3e fc15 fd3d
00000180: d020 803e 0cf9 403e 9777 053d 0ca3 46bd
00000190: 6490 6a3e 0c53 bd3e bbf4 e03e c3ed a43d
000001a0: 642b 133e 333e 293d 2616 59be 59ca 1b3e
000001b0: 3e08 383e 87da a63d 9424 cabe b3bf b33e
000001c0: 7061 e83d 155d 483e 3dcf 343e bf5c 81be
000001d0: bf8d 253e 0843 a8be 09c8 ff3d f7b2 2cbe
000001e0: 0bc7 3cbe 245e 10bc 5435 89be 56f2 04be
000001f0: 5ea3 803c 9f6a 33be 9739 e6bc 3ec7 bbbe
00000200: 75b3 47be c601 87be b6c4 abbe 19f3 49be
00000210: ccb8 d0bc ba50 95be 390e 8abd 900b b63e
00000220: 3e98 a8be 26e1 133d 0fa3 9c3e c9fb c73e
00000230: 14ba f3bd 6510 03be a181 1b3d c683 893e
00000240: 9dea 96bd 53e0 8a3e 4528 2d3e f560 28be
00000250: c64a 68bd e74f 16be 6917 a8be a4f4 4e3b
00000260: d176 8b3e f62d 85be 4a16 43bd ef14 083f
00000270: f489 7d3e 1ca7 b43e 4dba ae3e 6653 3dbe
00000280: a305 443e af34 38be 0c70 2d3e 335b c1be
00000290: 00f8 32bd a274 75bc 5a38 b73e a1a6 a73e
000002a0: e7cb d1bd bb1d 973e 352e aebd 08b8 88bd
000002b0: 8ac6 383e 1b1f 983e 015a 84bd cb27 1a3d
000002c0: ddec e1be e551 99be e3cc c03c 3b34 16be
000002d0: 6191 71be c1ba 4ebe 4312 813e 50b8 9dbe
000002e0: d502 92bd 6025 6a3c 83bb 9c3e 02ae b9be
000002f0: b074 743d 2834 1cbd 6006 933e 9409 ea3d
00000300: 06e5 bc3d ebe6 823e 3c26 21be bc53 bebe
00000310: 208e ecbd 994b 8c3e 27d3 b3be 92a5 a63e
00000320: 3618 1e3e a6ea 4e3e 932e 36be df2b 943e
00000330: 9c27 5dbe f43b 86be 1b01 243d 1931 8b3e
00000340: b5cd 61be 4e75 9cbe 91ad 9c3e ed88 903d
00000350: 677a a63d 9033 24be cf0e 793e bf65 babd
00000360: 7675 853d 9efd b8be bb0f 91bd 3e22 2a3e
00000370: 5a03 1d3e b637 1dbf dae4 83be d5f7 f53d
00000380: 6fc7 153e 7c6d a9be 8e8d 86be c4fe b83e
00000390: 487d dcbe 20df 8f3e 6c74 a83e 8c63 483d
000003a0: 4f4a 9f3e 9212 11be b1e6 fcbe e2ce e63e
000003b0: 2cc6 683d 4d1a a53e 6fd4 923d 482e 75bd
000003c0: 3f40 653d 7ac0 38bd e557 b5be 6e4d 8cbe
000003d0: da3b bb3d 7bfd c8be d8a2 49bd a500 9f3e
000003e0: 7778 b1be 501b 0b3e cc0f aa3e cb62 90be
000003f0: db85 8dbe 34e6 69bd 031f 97be 1ffd 813e
0.1680942 0.028380413 0.14236754 -0.13854058 0.38447756 -0.044182114 -0.35540608 0.04329411
-0.09388134 -0.4142807 -0.344907 -0.079420045 0.14174184 -0.096804604 0.28097323 0.0720942
0.08277414 0.3486893 -0.1136201 -0.23565988 -0.125974 -0.009278513 -0.32134968 0.18357769
0.08334272 0.35699394 0.43765783 -0.055193108 0.112637885 0.17959514 0.012209479 0.11420665
-0.2699209 -0.25539738 0.078266576 0.014902414 -0.25132677 -0.33044562 -0.32344276 -0.042646356
0.38155913 -0.33483547 0.16877148 0.11567654 -0.028840585 0.10574131 0.26789293 -0.09962598
0.35180002 -0.37307557 0.025611494 0.19717471 -0.015506021 -0.36930418 0.1278677 0.14240679
-0.18067364 0.36174366 0.35685927 0.086070105 -0.15744089 -0.38588417 -0.20408486 0.30497572
0.4302462 -0.27456516 0.19599287 -0.16879714 0.0048518186 -0.1965253 0.12049743 -0.18522942
0.048385967 -0.22205055 0.39041576 0.07450548 0.31419852 0.07319673 -0.3130424 0.14088058
0.017038146 0.262161 -0.31916946 0.36117145 -0.12198678 0.10352304 -0.26363394 0.07396421
-0.3022427 -0.24759541 -0.17977422 0.14472297 0.37944055 -0.08429163 0.31154257 0.12357709
0.25025034 0.18845004 0.032584753 -0.048495337 0.22906643 0.36977422 0.43936715 0.08053162
0.14372021 0.041319083 -0.21199855 0.15213908 0.17971894 0.081471495 -0.39481032 0.35107192
0.1134671 0.19566758 0.1765718 -0.25266072 0.16167353 -0.3286364 0.124893256 -0.16865145
-0.18435304 -0.008811507 -0.267985 -0.12983069 0.0157029 -0.17521141 -0.028103633 -0.36675447
-0.19502051 -0.2636854 -0.33548516 -0.1972164 -0.025478743 -0.29163152 -0.06740994 0.35555696
-0.32928652 0.03610339 0.30593154 0.39059284 -0.11900726 -0.12799223 0.03796542 0.26858348
-0.07368968 0.2712427 0.16909893 -0.16443236 -0.056711935 -0.14678918 -0.3283036 0.0031578923
0.27239087 -0.26011628 -0.04762868 0.5315694 0.24759656 0.35283744 0.3412651 -0.18488845
0.19142775 -0.17988847 0.16937274 -0.37764892 -0.043693542 -0.014981421 0.3578518 0.32744315
-0.102439694 0.2951487 -0.08504907 -0.06675726 0.18044487 0.29711232 -0.064624794 0.037635606
-0.44126025 -0.29945293 0.023535198 -0.14668362 -0.23590614 -0.20188428 0.25209245 -0.30804682
-0.071294464 0.014291137 0.3061181 -0.3626557 0.059681594 -0.038135678 0.287158 0.11427608
0.0922337 0.255668 -0.15737242 -0.3717326 -0.11550546 0.27401426 -0.35122034 0.32548195
0.15438923 0.20206699 -0.17791204 0.2893972 -0.21597141 -0.26217616 0.040040117 0.27185896
-0.22051127 -0.30558246 0.3060117 0.070573665 0.08128815 -0.16035295 0.24322055 -0.09101438
0.065165445 -0.36130995 -0.070830785 0.16614625 0.1533331 -0.61413133 -0.25760537 0.12010161
0.14626859 -0.33091342 -0.26279873 0.3613187 -0.43064332 0.28099918 0.32901323 0.04892306
0.3111138 -0.1416724 -0.49394754 0.45079714 0.056829616 0.32246628 0.07169425 -0.05985859
0.055969473 -0.045105435 -0.3541862 -0.27402824 0.09142275 -0.3925589 -0.049227566 0.3105518
-0.3466222 0.13584638 0.33215177 -0.28200373 -0.27641186 -0.057104304 -0.29515848 0.2538843

net.7.layer.bias f4 [20]
00000000: 9ae9 a9bc 02a6 12be 99cd ef3c 725f 3bbc
00000010: cf23 0abd 721e 0bbe 8205 e33c 6d7e 953d
00000020: 98c6 013d ca57 7f3d 1195 36be f2a0 693e
00000030: ecd2 0c3e 8312 153d c985 8ebc a778 463d
00000040: 748d 50bd d3ac 353e eed3 53bd e917 5d3e
-0.020741273 -0.1432114 0.029272841 -0.01143633 -0.033725556 -0.13585833 0.027712587 0.072995044
0.031683534 0.06233958 -0.17830302 0.22815302 0.13752335 0.036394607 -0.017397778 0.048454907
-0.05091615 0.17741708 -0.051715784 0.21591152

net.8.layer.weight f4 [1, 20]
00000000: d943 abbe 01e1 77be 370c 1ebd 4da3 42be
00000010: e177 55bc df04 0dbe 0fa6 bebe 2413 953e
00000020: be1a 35be 6d8f b23e 0820 db3b e4f3 003f
00000030: 24a7 763e 6ad4 acbe 8887 633e 8439 0e3f
00000040: 8a6c e1be 3e4f dcbe 0488 c9be 8555 a5be
-0.334502 -0.24206926 -0.038585868 -0.19007607 -0.01302907 -0.1377139 -0.37236068 0.29116166
-0.17685983 0.3487505 0.006687168 0.5037215 0.24087197 -0.3375581 0.2221967 0.5555651
-0.4402812 -0.43029207 -0.39361584 -0.3229181
