Archive/Burgers/Identification/weight_clean.pt (torch, 19154 bytes, 17 tensors)

net.0.layer.weight f4 [20, 2]
-0.7094798 -0.116184235 -0.5897371 0.5332502 -0.22110541 1.2027018 0.15247732 -0.21717994
-0.2857326 0.642842 -0.7911776 -0.32104468 -0.1363741 0.5565641 -1.0296818 0.020244306
-0.26642132 -0.171311 -0.102422975 0.76156867 -0.07880649 -0.43496075 -0.44363984 -0.042651698
0.33194265 -0.32879052 -0.0241048 -0.1667692 -0.14990203 -0.9022735 -0.66849583 -0.20874324
0.964414 0.49855354 -0.47279018 -0.009523149 0.52608883 -0.36595467 0.8909106 0.0057173506
00000000: 78a0 35bf 00f2 edbd 03f9 16bf 1683 083f
00000010: 7569 62be 22f2 993f 0423 1c3e 6b64 5ebe
00000020: 8b4b 92be 4b91 243f 9d8a 4abf f85f a4be
00000030: a7a5 0bbe fc7a 0e3f 9dcc 83bf 63d7 a53c
00000040: 6068 88be 276c 2fbe 23c3 d1bd 2af6 423f
00000050: 4c65 a1bd 2db3 debe c324 e3be 8cb3 2ebd
00000060: 63f4 a93e 3b57 a8be 6e77 c5bc 8cc5 2abe
00000070: eb7f 19be 65fb 66bf 8b22 2bbf cac0 55be
00000080: d6e3 763f 6942 ff3e 8e11 f2be fb06 1cbc
00000090: c2ad 063f 695e bbbe b812 643f 9d58 bb3b

net.0.layer.bias f4 [20]
0.44944113 0.37620634 0.37566528 0.035342515 -0.05417699 -0.38338518 0.13660777 -0.13925901
-0.06733614 -0.06168674 -0.10066683 0.27048254 -0.6368041 0.08132225 -0.23797196 0.4872787
0.3673002 0.08557348 -0.19807668 -0.5892263
00000000: 261d e63e 1e9e c03e 3357 c03e 50c3 103d
00000010: b1e8 5dbd 104b c4be e8e2 0b3e ea99 0ebe
00000020: 88e7 89bd 3cab 7cbd 692a cebd b07c 8a3e
00000030: 9805 23bf 488c a63d ecae 73be 987c f93e
00000040: c60e bc3e 2641 af3d 9dd4 4abe 89d7 16bf

net.1.layer.weight f4 [20, 20]
0.27520975 0.35249767 0.3385821 -0.0557492 -0.31530994 0.023585886 -0.05734203 -0.31025818
-0.12784903 0.101798475 0.114971764 0.27060294 -0.44519445 -0.008353014 -0.32390797 0.12477884
0.15102692 0.21724884 0.14227328 -0.4295787 0.15650924 -0.14498726 0.35037014 -0.24285394
-0.24376322 -0.22029518 -0.10941351 -0.23460473 -0.02664592 -0.08501098 -0.2963266 0.36540505
-0.46240535 0.3901939 0.35316536 0.18589942 0.15507908 -0.040558577 -0.48426035 -0.53068733
0.14606175 0.10797205 0.051702574 0.08922716 -0.3693496 0.34073067 0.05906787 0.049578287
0.2946213 -0.15969804 0.09636694 0.36857623 0.26967332 -0.10107585 -0.23147833 -0.010319871
-0.18661988 -0.15350503 0.062189378 0.15720636 -0.07650855 0.3092812 0.32192302 -0.052750982
-0.1593617 0.072104394 -0.13758709 0.45413738 0.11901066 -0.4391389 -0.012342276 -0.03819143
-0.2899111 -0.029611468 -0.06342949 0.31887084 -0.24604978 -0.17302766 0.12468997 -0.26570958
0.1521126 -0.017942348 0.38151217 0.04608576 0.23170026 -0.253436 0.086631246 0.29867643
-0.47655258 0.38154724 -0.06430896 -0.44216743 0.31132418 0.12457736 -0.5474149 -0.47575566
0.11466804 -0.5552509 -0.2137607 -0.1372819 0.08774463 0.14422934 -0.19931121 0.020873722
0.30193207 0.26006153 -0.35399964 0.30580518 0.1873859 0.17097478 0.29608706 -0.3012775
0.13360827 0.10526482 -0.018246425 0.19878842 -0.39835593 0.15829714 0.010048023 -0.33040237
0.02684653 -0.22112249 0.16583213 0.34606704 0.055925008 0.33155465 -0.34792298 0.21114315
0.30186737 -0.10848206 0.37054887 -0.2999053 -0.041056257 0.29680505 0.0730792 0.06828628
0.014495634 0.03465566 0.34805146 -0.2876074 0.21612315 0.21483064 -0.29530293 -0.44462577
-0.09792916 0.18467589 -0.22396952 -0.13681415 -0.06765148 0.1768075 0.09661085 -0.1103414
0.17601855 0.19983625 -0.1344518 0.2794145 -0.28199962 -0.051530976 -0.35095426 -0.41083667
0.22934692 0.14047901 0.38484302 0.18830512 0.041424494 -0.16060084 0.0034080897 0.26325423
-0.40676472 0.28344658 -0.021168638 0.21770284 0.33948225 -0.039727084 0.013883848 -0.39190748
-0.049806613 -0.322654 -0.29411694 -0.08551426 -0.11333183 -0.18426515 -0.12832707 0.21930516
0.19439453 -0.035960924 -0.09082311 -0.511504 -0.060193088 0.22278483 -0.05470621 -0.26253492
0.3097688 0.12038099 -0.08001352 -0.093191765 0.46195912 -0.27926123 0.32613537 0.2140783
-0.4559653 -0.3514806 -0.5095164 -0.2573296 -0.42595863 -0.47163516 -0.38717204 -0.22901437
-0.21647473 0.0130544035 -0.13276625 -0.1048162 0.010279361 -0.046647925 0.26375479 -0.38331226
0.3704595 -0.26098228 0.30295852 -0.030473618 0.58005214 0.25637165 0.19665125 -0.4147455
0.34539056 0.36258146 -0.25106606 0.2244238 0.3548545 0.20689191 0.12025929 0.15993774
0.14541736 -0.0113666635 -0.10569707 0.3553057 -0.10781887 0.09916402 -0.4318362 -0.49136388
-0.5492412 -0.36277083 0.102678336 0.0487023 0.021069821 0.057226617 0.025128659 0.20277843
-0.087427795 0.20016213 -0.23279516 -0.059695948 0.13946411 -0.4167256 -0.45558318 -0.6308214
00000000: 4be8 8c3e 937a b43e a25a ad3e 4659 64bd
00000010: 4e70 a1be 3037 c13c 7adf 6abd 29da 9ebe
00000020: dbea 02be b87b d03d 5176 eb3d 788c 8a3e
00000030: 87f0 e3be 14db 08bc 44d7 a5be 0c8c ff3d
00000040: cda6 1a3e 7b76 5e3e 16b0 113e bdf1 dbbe
00000050: f543 203e 8a77 14be b763 b33e b4ae 78be
00000060: 119d 79be 0f95 61be 3114 e0bd 393c 70be
00000070: 8b48 dabc 3d1a aebd 1fb8 97be 5f16 bb3e
00000080: 65c0 ecbe 7fc7 c73e 17d2 b43e 6b5c 3e3e
00000090: 0dcd 1e3e c020 26bd f9f0 f7be 20db 07bf
000000a0: 3691 153e 7320 dd3d 14c6 533d bbbc b63d
000000b0: 641b bdbe 4074 ae3e 27f1 713d 9a12 4b3d
000000c0: 9ad8 963e e287 23be 085c c53d 06b6 bc3e
000000d0: 9f12 8a3e db00 cfbd a808 6dbe ad14 29bc
000000e0: 4819 3fbe 6c30 1dbe 4aba 7e3d b4fa 203e
000000f0: 84b0 9cbd 1b5a 9e3e 18d3 a43e 6a11 58bd
00000100: b72f 23be 78ab 933d a1e3 0cbe b284 e83e
00000110: dcbb f33d d0d6 e0be 4237 4abc 9e6e 1cbd
00000120: 3a6f 94be c093 f2bc 52e7 81bd 0a43 a33e
00000130: 79f4 7bbe 2a2e 31be 745d ff3d 160b 88be
00000140: 68c3 1b3e d5fb 92bc 9055 c33e 6cc4 3c3d
00000150: d542 6d3e 5dc2 81be b96b b13d 1eec 983e
00000160: b3fe f3be 295a c33e 6bb4 83bd c563 e2be
00000170: e265 9f3e 6a22 ff3d 6223 0cbf 3f96 f3be
00000180: 14d7 ea3d ec24 0ebf 16e4 5abe a093 0cbe
00000190: 75b3 b33d dbb0 133e 3d18 4cbe 5eff aa3c
000001a0: d796 9a3e c926 853e 713f b5be 7f92 9c3e
000001b0: 17e2 3f3e 0314 2f3e b998 973e 0b41 9abe
000001c0: 9bd0 083e 1595 d73d 8779 95bc 318f 4b3e
000001d0: 4ff5 cbbe a518 223e 77a0 243c 802a a9be
000001e0: 41ed db3c ef6d 62be e6cf 293e b32f b13e
000001f0: 9f11 653d 88c1 a93e f622 b2be e935 583e
00000200: 5c8e 9a3e d82b debd 95b8 bd3e 308d 99be
00000210: 9b2a 28bd d5f6 973e 8caa 953d add9 8b3d
00000220: 187f 6d3c 18f3 0d3d cd33 b23e 4741 93be
00000230: 634f 5d3e 90fc 5b3e f231 97be fda5 e3be
00000240: 158f c8bd ad1b 3d3e 4458 65be 0219 0cbe
00000250: dc8c 8abd 060d 353e e9db c53d acfa e1bd
00000260: 353e 343e e0a1 4c3e bcad 09be 6b0f 8f3e
00000270: 4162 90be 2512 53bd 47b0 b3be 2f59 d2be
00000280: ebd9 6a3e bbd9 0f3e 250a c53e 0fd3 403e
00000290: bbac 293d 8c74 24be 425a 5f3b 42c9 863e
000002a0: 7743 d0be e91f 913e da69 adbc 7eed 5e3e
000002b0: 9ed0 ad3e deb8 22bd 1479 633c 19a8 c8be
000002c0: 0502 4cbd e832 a5be 7f96 96be 1a22 afbd
000002d0: 851a e8bd 01b0 3cbe 2c68 03be 8891 603e
000002e0: 5c0f 473e c34b 13bd 7701 babd edf1 02bf
000002f0: 078d 76bd b521 643e 9e13 60bd fa6a 86be
00000300: 049a 9e3e 4f8a f63d 21de a3bd 53db bebd
00000310: e885 ec3e 54fb 8ebe 37fb a63e 5837 5b3e
00000320: 4974 e9be 44f5 b3be ab6f 02bf b5c0 83be
00000330: 4017 dabe 2a7a f1be 6a3b c6be be82 6abe
00000340: 8dab 5dbe 23e2 553c e0f3 07be e0a9 d6bd
00000350: c46a 283c e511 3fbd de0a 873e 8141 c4be
00000360: deac bd3e 789f 85be 611d 9b3e cfa3 f9bc
00000370: 4c7e 143f 2543 833e f25e 493e 8659 d4be
00000380: 08d7 b03e 47a4 b93e bb8b 80be 5acf 653e
00000390: 7daf b53e 79db 533e 814a f63d b8c6 233e
000003a0: 4ae8 143e 3e3b 3abc b577 d8bd a1ea b53e
000003b0: 24d0 dcbd 8116 cb3d a219 ddbe 0c94 fbbe
000003c0: 129b 0cbf 19bd b9be 0549 d23d 107c 473d
000003d0: 9e9a ac3c 7566 6a3d 9eda cd3c 26a5 4f3e
000003e0: 580d b3bd 4df7 4c3e db61 6ebe bd83 74bd
000003f0: aecf 0e3e 0f5d d5be 3342 e9be 837d 21bf

net.1.layer.bias f4 [20]
0.32881334 0.40435976 -0.043159876 0.29757032 0.07295999 -0.41301897 -0.07629005 -0.006307926
0.20242305 -0.075611606 0.043263875 0.042553797 -0.1363498 0.08777383 0.2806757 0.26615584
0.27977678 0.296878 -0.29754886 -0.11883142
00000000: 395a a83e 3e08 cf3e 69c8 30bd 235b 983e
00000010: 0c6c 953d 3977 d3be f53d 9cbd b8b2 cebb
00000020: fd47 4f3e 42da 9abd 7635 313d e44c 2e3d
00000030: 489f 0bbe c4c2 b33d bab4 8f3e 9445 883e
00000040: e73e 8f3e 6500 983e 5358 98be e35d f3bd

net.2.layer.weight f4 [20, 20]
-0.13152862 0.47825423 -0.028972896 0.2344279 -0.30622202 0.05065988 -0.300067 0.22264874
0.03695292 -0.5888888 -0.21263616 0.5388604 -0.21876211 0.16518827 0.45053363 -0.640385
0.30703506 -0.09324481 -0.05800367 -0.08784477 -0.07635687 -0.19292362 0.4177849 0.21306516
0.51069015 0.12588388 -0.3445009 -0.25825974 0.046435144 -0.037907947 -0.2325604 0.36920178
0.46911424 0.017159358 -0.09788512 0.17867877 0.21910813 0.15547125 -0.32050765 0.18868025
-0.39911252 -0.25263098 0.043392844 0.24583179 0.5250626 0.19850501 0.044511992 0.09233333
0.35966316 -0.6810903 -0.7084968 0.74897903 -0.006673574 0.2596955 0.301157 -0.8825465
0.42235374 0.46390802 -0.25242278 0.33053386 -0.20504741 -0.39550203 -0.23566438 -0.04512243
-0.13482614 -0.056687735 0.023914818 0.06908865 0.08252592 -0.22695446 -0.03305323 0.27886912
-0.2765403 -0.36663845 0.23774548 -0.09681698 -0.2083309 -0.30945215 0.12951179 0.26475886
-0.08347024 -0.11059657 0.52340317 0.3608261 -0.23600422 0.4235223 -0.20782924 0.3687334
0.01596314 -0.12402658 -0.05860717 0.1758917 0.054238472 -0.02553152 -0.11292713 -0.43503264
0.0693862 -0.39510548 0.11617148 0.037267372 0.014205024 0.3860486 0.31436262 0.059860844
-0.3941875 -0.0429299 0.14274265 0.20244233 0.42984557 -0.01418666 -0.34751487 -0.03698881
0.08513397 -0.0037927015 0.24233279 0.1799343 -0.042691167 -0.45027485 -0.19026391 -0.084953226
0.031800766 -0.03684433 -0.3378364 0.27997354 -0.07533294 0.2959347 0.097571775 0.2441563
0.3684595 -0.36744693 0.12441262 0.079625234 -0.19251372 -0.06568721 0.17265047 0.0684657
-0.2195881 0.3859636 -0.4271531 -0.20383151 0.012109249 0.48746255 0.029945401 0.004336759
-0.08385412 0.07048364 0.14738314 -0.16582516 -0.18931562 0.23703216 -0.017021852 0.06250248
-0.25414908 0.4018806 0.20811947 -0.11885272 0.10719905 -0.34967408 0.18741247 -0.21191527
-0.52280676 -0.604658 0.05619172 -0.13175477 0.7537523 0.3146387 -0.16178486 -0.3550607
0.12024187 0.5331713 0.24911511 -0.5926877 0.8091848 -0.38688913 -0.6926238 0.14371748
-0.21305941 0.28308123 -0.0032840366 0.4905098 -0.06794407 -0.080892704 0.19356793 -0.4072321
-0.13878216 0.21709862 0.042463373 -0.2171803 0.20192204 0.31983626 -0.09360348 0.24092361
0.22861846 0.066424794 0.37001544 -0.05440412 0.21354134 0.012744885 -0.043262944 -0.32847518
-0.08711372 -0.3379543 0.39182255 -0.12270839 -0.489916 0.36730978 -0.011652893 0.05508278
-0.16188906 -0.43932047 -0.1272959 0.2184933 -0.23541325 -0.31219357 -0.027912728 -0.2410962
-0.29094326 -0.20362467 -0.1444588 0.23929383 -0.038872864 -0.22616778 -0.28924534 0.10911099
-0.24027298 0.2232877 -0.15046448 0.10055349 -0.34852833 -0.09664884 0.1489842 0.09206824
-0.1419599 0.21344769 0.044367667 0.20239583 -0.15912603 -0.3859197 0.11313469 0.3424712
0.17148794 0.21165127 -0.28608406 0.1379203 0.16333112 0.34224373 -0.093641914 -0.3820861
-0.27064314 -0.108633116 0.32173178 -0.17548536 -0.05339566 -0.2501016 0.162085 -0.040023565
00000000: 70af 06be bddd f43e 9158 edbc de0d 703e
00000010: 22c9 9cbe bc80 4f3d 62a2 99be 08fe 633e
00000020: f25b 173d 6bc1 16bf 4bbd 59be c1f2 093f
00000030: 2d03 60be 1d27 293e 58ac e63e 45f0 23bf
00000040: b333 9d3e 23f7 bebd 4295 6dbd f5e7 b3bd
00000050: fe60 9cbd c58d 45be e7e7 d53e c12d 5a3e
00000060: 97bc 023f b4e7 003e 6c62 b0be 9f3a 84be
00000070: c732 3e3d 5d45 1bbd 5024 6ebe 0408 bd3e
00000080: be2f f03e c891 8c3c fe77 c8bd 91f7 363e
00000090: e25d 603e db33 1f3e 9419 a4be 6535 413e
000000a0: 7a58 ccbe d958 81be b2bc 313d 54bb 7b3e
000000b0: 816a 063f e644 4b3e 3552 363d 4219 bd3d
000000c0: c525 b83e ef5b 2ebf 0c60 35bf 17bd 3f3f
000000d0: ffad dabb cff6 843e 4031 9a3e 91ee 61bf
000000e0: c03e d83e 5a85 ed3e 8f3d 81be bc3b a93e
000000f0: f3f7 51be 3e7f cabe 0152 71be 4cd2 38bd
00000100: dd0f 0abe 6631 68bd 02e9 c33c 5a7e 8d3d
00000110: 5903 a93d c066 68be d362 07bd efc7 8e3e
00000120: b196 8dbe 09b8 bbbe 8d73 733e fb47 c6bd
00000130: b254 55be 8370 9ebe bd9e 043e 798e 873e
00000140: 72f2 aabd 7480 e2bd c0fd 053f 33be b83e
00000150: 17ab 71be ead7 d83e 30d1 54be a0ca bc3e
00000160: 22c5 823c a601 febd 120e 70bd f41c 343e
00000170: 2929 5e3d 7a27 d1bc 5746 e7bd 99bc debe
00000180: 5a1a 8e3d 444b cabe 50eb ed3d aca5 183d
00000190: 30bc 683c 29a8 c53e 23f4 a03e a530 753d
000001a0: f2d2 c9be 43d7 2fbd 212b 123e 0b4d 4f3e
000001b0: b814 dc3e 2a6f 68bc 78ed b1be 9481 17bd
000001c0: b85a ae3d f98e 78bb 1626 783e b240 383e
000001d0: efdc 2ebd 6d8a e6be 8bd4 42be f5fb adbd
000001e0: 8541 023d 15ea 16bd e5f8 acbe b158 8f3e
000001f0: 2848 9abd c184 973e b6d3 c73d 1c04 7a3e
00000200: b9a6 bc3e 0122 bcbe 0bcc fe3d 8e12 a33d
00000210: 5122 45be 0487 86bd 49cb 303e bf37 8c3d
00000220: b4db 60be 059d c53e d0b3 dabe 35b9 50be
00000230: df65 463c b194 f93e 0f50 f53c 5f1b 8e3b
00000240: b5bb abbd ba59 903d 9beb 163e 12ce 29be
00000250: f4db 41be 8fb8 723e 6971 8bbc 4d01 803d
00000260: d41f 82be 4bc3 cd3e 451d 553e 0e69 f3bd
00000270: 2d8b db3d 7b08 b3be 0ee9 3f3e 5100 59be
00000280: aad6 05bf deca 1abf 4a29 663d b9ea 06be
00000290: e9f5 403f 5318 a13e eeaa 25be 84ca b5be
000002a0: 5f41 f63d ea7d 083f 0818 7f3e 62ba 17bf
000002b0: bc26 4f3f 5516 c6be cb4f 31bf ad2a 133e
000002c0: 3f2c 5abe 06f0 903e fe38 57bb 1a24 fb3e
000002d0: 4326 8bbd 13ab a5bd ac36 463e ba80 d0be
000002e0: e91c 0ebe 1a4f 5e3e 13ee 2d3d 8364 5ebe
000002f0: a7c4 4e3e 94c1 a33e 2eb3 bfbd aeb4 763e
00000300: f51a 6a3e b909 883d aa72 bd3e dbd6 5ebd
00000310: 95aa 5a3e eccf 503c 7c34 31bd e62d a8be
00000320: ae68 b2bd 5908 adbe f79c c83e 894e fbbd
00000330: 45d6 fabe 0710 bc3e c7eb 3ebc 7b9e 613d
00000340: 3fc6 25be 9dee e0be db59 02be b5bc 5f3e
00000350: 2c10 71be d6d7 9fbe 3ca9 e4bc ece1 76be
00000360: 84f6 94be fc82 50be 02ed 13be 7109 753e
00000370: 2739 1fbd 8798 67be f717 94be 9575 df3d
00000380: 1f0a 76be 88a5 643e 5c13 1abe fdee cd3d
00000390: 4e72 b2be d4ef c5bd 508f 183e 468e bc3d
000003a0: f05d 11be 0892 5a3e dfba 353d da40 4f3e
000003b0: eff1 22be 4497 c5be 29b3 e73d 6358 af3e
000003c0: 899a 2f3e 1cbb 583e 9c79 92be fb3a 0d3e
000003d0: 4640 273e 923a af3e 55c7 bfbd caa0 c3be
000003e0: bd91 8abe 0a7b debd 07ba a43e 6fb2 33be
000003f0: 68b5 5abd 510d 80be 9cf9 253e c0ef 23bd

net.2.layer.bias f4 [20]
0.23826066 0.1268332 -0.16405381 -0.06068647 -0.20677304 0.08964615 0.062151782 -0.12482771
-0.2400388 0.14058122 -0.123298116 -0.16971481 0.30640522 0.42510813 0.0546321 0.11875287
0.08861562 0.05556762 -0.07048501 -0.14111823
00000000: 9afa 733e 90e0 013e b9fd 27be 6092 78bd
00000010: 50bc 53be 6798 b73d de92 7e3d aca5 ffbd
00000020: bbcc 75be 86f4 0f3e b983 fcbd b8c9 2dbe
00000030: 25e1 9c3e c6a7 d93e e9c5 5f3d b434 f33d
00000040: 1b7c b53d df9a 633d 725a 90bd 4c81 10be

net.3.layer.weight f4 [20, 20]
0.16586885 0.46678895 -0.5475504 -0.5029183 -0.5209757 -0.13571833 -0.15272875 -0.12853809
-0.24021019 -0.33933854 -0.2178252 -0.42951953 0.25687277 0.13455153 -0.3712943 -0.023509447
0.13445444 -0.19355878 -0.038161438 -0.25287956 0.89416325 -0.00014781117 0.4264429 0.055440072
-0.0928711 -0.17941304 -0.173304 0.2497659 -0.8645249 -0.034584276 0.3138479 -0.13729253
0.082528666 0.621878 0.5302206 -0.5734782 -0.32289642 -0.32550713 0.21362813 -0.10020994
-0.9089383 -0.46511388 -0.693229 -0.05671533 -0.20088287 -0.31582096 0.13198957 0.008194199
0.5910016 0.14832562 0.076285675 0.1500874 0.34096128 0.050239503 0.09261571 0.15317813
0.15268297 0.37499508 0.028144184 -0.07895237 0.6076101 -0.49583834 0.6279072 -0.16734049
0.3076893 0.7297041 -0.011803944 0.5668092 -1.2120057 -0.020829212 -0.1552447 0.049250178
0.24282284 0.2529359 0.33561876 -0.45322973 -0.06481378 0.12864687 0.47834718 -0.15580067
-0.19871286 0.23488939 0.044904586 -0.13377382 -0.07277629 0.33242494 -0.03434511 0.48003367
-0.03261876 -0.15024976 0.46317345 -0.35353673 0.18399383 -0.121697426 -0.33934242 -0.15960038
-0.121369205 0.2126937 -0.0051346337 -0.33458576 -0.7167654 -0.22535138 -0.41412213 -0.31233028
-0.47166902 0.062586114 -0.09056913 -0.23168796 0.010555924 -0.2970328 0.18364975 0.31318152
0.11685695 -0.10377533 0.13631086 -0.100894816 0.112135805 -0.25975144 0.11399766 0.24113283
0.06310122 -0.051101785 0.28381282 0.25521678 -0.35264137 -0.1597604 0.09110588 0.19849782
-0.34847274 0.13256395 -0.29911768 -0.057020005 0.29536045 0.1651282 0.041185603 -0.20672967
0.11770894 -0.14997761 0.0131625375 0.18650742 0.38312137 -0.32269847 -0.27470285 0.31228083
0.2731632 -0.00608653 -0.092647515 0.3299968 0.3677314 -0.03366821 0.10446507 0.0067920564
-0.118366845 -0.6454607 -0.016749756 0.17881805 0.29619431 0.015666502 0.2267252 -0.24062693
0.6217358 0.22144835 0.32341325 0.013068183 -0.32620448 0.06846238 0.25442427 0.24576628
-0.5092088 0.13259488 0.1977116 -0.21571238 0.056924075 -0.01763082 0.25817364 -0.17604831
-0.15471934 -0.19182184 0.061183296 0.12525775 0.16986014 -0.016386319 -0.095474005 -0.18573129
-0.49220392 0.07512509 -0.11764639 -0.17041278 -0.12744287 -0.32953215 -0.20112267 0.15087296
-0.0301752 -0.11331959 -0.09682828 -0.13987535 0.16788971 0.21379584 0.049533308 0.009339991
0.16424175 0.10206178 0.3920661 -0.03689971 0.64880836 -0.25895727 0.16765267 0.07919929
0.015080891 0.07537507 0.388367 0.10394243 -0.2822789 0.11513845 -0.14765468 -0.2609676
0.032301012 -0.6085443 -0.5543147 -0.044307113 0.084956914 0.114294864 0.15527028 0.33488947
0.34994566 0.35520625 0.15827672 -0.18358405 -0.07621637 0.20060103 -0.062248904 0.04741226
0.16362388 0.2483134 0.17226775 -0.17140518 0.23745376 -0.45082465 -0.5528141 -0.04283045
-0.22384578 -0.16240913 -0.32950833 0.071223974 0.22725704 0.14806357 -0.06744288 0.11667517
-0.049002532 0.19714183 0.35947856 0.17913762 -0.018145557 -0.0028082496 -0.033774786 -0.41184834
00000000: 86d9 293e f6fe ee3e 432c 0cbf 41bf 00bf
00000010: aa5e 05bf bff9 0abe ed64 1cbe 7d9f 03be
00000020: a9f9 75be c8bd adbe 920d 5fbe fce9 dbbe
00000030: d484 833e e0c7 093e 491a bebe e296 c0bc
00000040: 6dae 093e 4634 46be 2b4f 1cbd 6e79 81be
00000050: e2e7 643f c2fd 1ab9 b956 da3e 2115 633d
00000060: 3433 bebd 0db8 37be 9b76 31be a2c2 7f3e
00000070: 8151 5dbf 3ea8 0dbd acb0 a03e 6a96 0cbe
00000080: ca04 a93d 6633 1f3f 8abc 073f 78cf 12bf
00000090: ae52 a5be dfa8 a6be 55c1 5a3e de3a cdbd
000000a0: 2eb0 68bf 6823 eebe 7577 31bf 554e 68bd
000000b0: 3db4 4dbe 49b3 a1be 4628 073e f640 063c
000000c0: e14b 173f ace2 173e aa3b 9c3d 83b0 193e
000000d0: 7a92 ae3e f0c7 4d3d 4ead bd3d bada 1c3e
000000e0: ed58 1c3e 5bff bf3e a28e e63c c8b1 a1bd
000000f0: 568c 1b3f 86de fdbe 87be 203f 4e5b 2bbe
00000100: 7489 9d3e e3cd 3a3f 5465 41bc 681a 113f
00000110: 0123 9bbf 06a2 aabc 77f8 1ebe 8eba 493d
00000120: 8da6 783e d080 813e 39d6 ab3e ba0d e8be
00000130: 16bd 84bd 01bc 033e ece9 f43e 368a 1fbe
00000140: 627b 4bbe d886 703e dfed 373d 01fc 08be
00000150: bc0b 95bd 9a33 aa3e 75ad 0cbd f9c6 f53e
00000160: 409b 05bd 13db 19be 1225 ed3e c402 b5be
00000170: e168 3c3e 803c f9bd 4abe adbe 486e 23be
00000180: 6b90 f8bd 61cc 593e 6e40 a8bb d34e abbe
00000190: f07d 37bf 83c2 66be d107 d4be c1e9 9fbe
000001a0: 9a7e f1be 262d 803d 4f7c b9bd 9c3f 6dbe
000001b0: c1f2 2c3c af14 98be ae0e 3c3e 5459 a03e
000001c0: b252 ef3d 2988 d4bd 1395 0b3e f1a1 cebd
000001d0: 75a7 e53d 24fe 84be 9b77 e93d 86eb 763e
000001e0: 363b 813d 1b50 51bd ea4f 913e c6ab 823e
000001f0: 698d b4be 3b98 23be b895 ba3d 0343 4b3e
00000200: 056b b2be d8be 073e f425 99be cf8d 69bd
00000210: 7c39 973e 5e17 293e 3cb2 283d f1b0 53be
00000220: 6211 f13d bb93 19be afa7 573c cdfb 3e3e
00000230: 7c28 c43e bc38 a5be daa5 8cbe 46e3 9f3e
00000240: 0cdc 8b3e 8471 c7bb fbbd bdbd 57f5 a83e
00000250: 4a47 bc3e ade7 09bd c8f1 d53d e68f de3b
00000260: 516a f2bd ea3c 25bf c936 89bc 141c 373e
00000270: c8a6 973e 0957 803c a72a 683e e866 76be
00000280: 142a 1f3f 5bc3 623e 6c96 a53e ef1b 563c
00000290: 4604 a7be 0136 8c3d e643 823e 28aa 7b3e
000002a0: 825b 02bf f4c6 073e e974 4a3e b5e3 5cbe
000002b0: 3829 693d 826e 90bc 562f 843e 0246 34be
000002c0: bf6e 1ebe f26c 44be 569b 7a3d 9143 003e
000002d0: d1ef 2d3e 9a3c 86bc e087 c3bd 5830 3ebe
000002e0: 2702 fcbe 2fdb 993d 97f0 f0bd b080 2ebe
000002f0: 6280 02be 70b8 a8be 1af3 4dbe 717e 1a3e
00000300: fb31 f7bc 1a14 e8bd e84d c6bd 7c3b 0fbe
00000310: 48eb 2b3e 4ced 5a3e 70e3 4a3d c306 193c
00000320: fd2e 283e c405 d13d e3bc c83e 2624 17bd
00000330: 4e18 263f 0c96 84be 24ad 2b3e 3d33 a23d
00000340: d715 773c 3f5e 9a3d 0ad8 c63e c5df d43d
00000350: dc86 90be b5cd eb3d ca32 17be 8c9d 85be
00000360: 114e 043d 8fc9 1bbf 91e7 0dbf 607b 35bd
00000370: e4fd ad3d 6d13 ea3d 2cff 1e3e a276 ab3e
00000380: 142c b33e 98dd b53e 4b13 223e 75fd 3bbe
00000390: 5417 9cbd 5b6a 4d3e b5f8 7ebd 5c33 423d
000003a0: 058d 273e de45 7e3e f566 303e d784 2fbe
000003b0: 1427 733e 7dd2 e6be 3a85 0dbf fb6e 2fbd
000003c0: d437 65be 944e 26be 51b5 a8be e0dd 913d
000003d0: 12b6 683e fa9d 173e 7e1f 8abd 64f3 ee3d
000003e0: e1b6 48bd 8cdf 493e 930d b83e da6f 373e
000003f0: fea5 94bc 9c0a 38bb 6e57 0abd c9dd d2be

net.3.layer.bias f4 [20]
0.042949535 0.05186374 0.2102206 0.21000496 0.25361398 0.0034880172 -0.010938737 -0.29587325
0.16032603 -0.118887 -0.4291167 0.27018267 0.01176426 -0.09747176 -0.1702148 0.33146378
0.108761236 0.026828457 0.19845964 0.12726733
00000000: daeb 2f3d 136f 543d 1244 573e 8a0b 573e
00000010: b1d9 813e 3897 643b 6338 33bc b37c 97be
00000020: 822c 243e 077b f3bd 2fb5 dbbe 6255 8a3e
00000030: e2be 403c 469f c7bd ca4c 2ebe 9fb5 a93e
00000040: 36be de3d 5ac7 db3c 0139 4b3e 5e52 023e

net.4.layer.weight f4 [20, 20]
-0.17476822 0.7077147 -0.16428387 0.41110128 0.11502248 0.13060917 -0.020523962 -0.22998425
0.15300865 0.04538718 -0.026018037 -0.05550239 0.2833472 -0.20071596 0.542193 -0.1897503
0.63201535 -0.25600675 -0.3601833 -0.20032586 0.27442503 0.1972858 -0.14041857 -0.06620746
-0.47777125 -0.41954803 0.10538122 0.0289462 0.023802945 0.24310812 -0.21161892 0.12116026
-0.1288497 -0.143849 -0.124608345 -0.03495583 0.24977875 0.1378219 -0.08426468 0.0920157
0.20897713 -0.1461194 0.2448485 -0.15875737 -0.16695002 0.096702024 -0.46539354 0.40571293
-0.049752597 -0.31926218 0.115800485 0.14949763 0.42242324 0.3341216 -0.07645001 -0.45079687
0.12540258 -0.11111915 0.12083596 -0.20806468 0.12580986 -0.02430281 0.41948354 -0.50600433
-0.20159356 0.103576094 0.06681622 -0.16368529 -0.44714653 0.2823198 -0.27536264 -0.40634087
0.0069989646 0.2537208 0.33075374 0.014713615 0.44599107 -0.2734983 -0.08712284 -0.4190467
0.19800042 0.45915917 -0.22044392 -0.094239 -0.34817296 -0.07764565 -0.2788395 0.22190922
0.3337727 -0.12730303 -0.3380869 -0.18067731 -0.026479641 -0.05913991 -0.09243828 -0.12606186
0.09870289 -0.17741692 0.45403934 -0.119339794 0.052868053 -0.11548987 0.15829569 0.023404155
-0.23684852 0.14139958 0.27972797 -0.35844973 0.33259344 0.120261945 0.21241796 -0.11549662
-0.022416137 -0.2824574 0.1828463 -0.13684146 0.32737213 -0.34821942 -0.060714412 0.32065317
-0.23271155 -0.48397186 0.042619858 0.05118838 0.20283762 -0.07303542 0.14638685 0.08264365
-0.06784853 -0.057133995 -0.41500682 0.27725127 0.3243203 -0.2170016 -0.021803083 0.076781265
0.025058666 0.36512038 -0.13360985 0.31935358 0.04324419 -0.3595404 0.04867546 -0.24740535
-0.28642264 -0.17910574 -0.0037651516 -0.20095342 -0.13227417 -0.34050977 0.09482122 -0.30480856
-0.23073013 -0.3509533 -0.07250021 -0.13844584 -0.039574545 -0.39722592 -0.3104347 -0.042544905
-0.2832555 -0.121966824 -0.2778026 -0.39085105 0.21229973 -0.47171497 -0.11339654 -0.22052896
-0.28106958 -0.10333006 0.69119334 0.2628094 0.4784538 0.24940117 -0.21686055 0.036563132
-0.27099442 0.07015862 -0.41381827 -0.1994673 -0.14894949 0.98554313 -0.7361885 0.37597322
-0.16110305 -0.2917158 0.07798355 0.31456023 0.83243626 -0.057013292 0.1351041 -0.010374461
-0.0013945034 -0.13758278 -0.49552667 0.28150067 -0.8566214 -0.04346691 -0.28110886 -0.29870385
0.025835315 -0.0662364 0.31846145 -0.45934975 0.06615119 0.25679237 -0.5376402 0.20403735
0.2101755 0.19510832 0.17212084 0.081178784 -0.2457472 0.25190315 -0.27555558 -0.19341391
0.05930963 0.3754675 -0.13870153 -0.10502963 0.1335369 -0.18496521 0.2717237 0.48082918
0.13129869 0.20698228 0.34322134 0.10519988 0.25381967 -0.29032838 0.30355072 -0.18588512
-0.16045101 0.040316127 -0.11715022 0.16865028 0.51289856 0.102192916 -0.04155405 -0.4164398
0.2050901 -0.4692771 -0.13462564 0.43902373 0.025839897 0.05875872 -0.065597765 -0.6759313
-0.41416952 -0.31981778 0.21619101 0.5173598 0.28479078 -0.088935174 0.039343283 0.6785334
00000000: 71f6 32be ca2c 353f 083a 28be de7b d23e
00000010: e890 eb3d 69be 053e de21 a8bc fe80 6bbe
00000020: 4dae 1c3e e8e7 393d c723 d5bc 7956 63bd
00000030: e212 913e 7c88 4dbe 29cd 0a3f e74d 42be
00000040: c2cb 213f 5113 83be f269 b8be 3922 4dbe
00000050: 7081 8c3e 4a05 4a3e e3c9 0fbe c797 87bd
00000060: 6f9e f4be 00cf d6be 1cd2 d73d 9520 ed3c
00000070: 65fe c23c 56f1 783e a1b2 58be df22 f83d
00000080: 2df1 03be 274d 13be a932 ffbd d82d 0fbd
00000090: 00c6 7f3e 2f21 0d3e f692 acbd ba72 bc3d
000000a0: 1afe 553e 53a0 15be 91b9 7a3e 4b91 22be
000000b0: f2f4 2abe b60b c63d 1048 eebe 9bb9 cf3e
000000c0: 61c9 4bbd 5576 a3be ce28 ed3d e815 193e
000000d0: dc47 d83e fd11 ab3e d391 9cbd d9ce e6be
000000e0: 8969 003e 7092 e3bd d878 f73d e80e 55be
000000f0: 4dd4 003e b016 c7bc 8cc6 d63e 8089 01bf
00000100: 8b6e 4ebe b41f d43d f1d6 883d 1e9d 27be
00000110: 64f0 e4be 398c 903e 55fc 8cbe e90b d0be
00000120: 9257 e53b b1e7 813e 8e58 a93e 6011 713c
00000130: f158 e43e f807 8cbe 766d b2bd 4a8d d6be
00000140: 9fc0 4a3e e916 eb3e 0dbc 61be 6000 c1bd
00000150: ba43 b2be af04 9fbd 0dc4 8ebe 2c3c 633e
00000160: 41e4 aa3e ba5b 02be ba19 adbe 7903 39be
00000170: d5eb d8bc b13c 72bd 4850 bdbd 5c16 01be
00000180: be24 ca3d c8ac 35be d877 e83e 6c68 f4bd
00000190: 2c8c 583d f485 ecbd 4418 223e 12ba bf3c
000001a0: 6b88 72be 0dcb 103e 8138 8f3e b986 b7be
000001b0: b049 aa3e e54b f63d 1884 593e 7e89 ecbd
000001c0: 0ca2 b7bc 429e 90be 0f3c 3b3e 2b20 0cbe
000001d0: 529d a73e d149 b2be adaf 78bd a72c a43e
000001e0: f04b 6ebe 29cb f7be 2992 2e3d e8aa 513d
000001f0: aab4 4f3e 9893 95bd 6fe6 153e 1341 a93d
00000200: 2cf4 8abd 5605 6abd c67b d4be e1f3 8d3e
00000210: 4f0d a63e ab35 5ebe 619c b2bc 7f3f 9d3d
00000220: d547 cd3c 0ff1 ba3e 05d1 08be 5082 a33e
00000230: d220 313d ae15 b8be eb5f 473d d457 7dbe
00000240: fda5 92be 7f67 37be c3c0 76bb bcc6 4dbe
00000250: e172 07be 4c57 aebe a131 c23d de0f 9cbe
00000260: 8544 6cbe 27b0 b3be fd7a 94bd bfc4 0dbe
00000270: eb18 22bd 3261 cbbe 4cf1 9ebe 9143 2ebd
00000280: dd06 91be bec9 f9bd 243c 8ebe a11d c8be
00000290: 1a65 593e a084 f1be 723c e8bd 58d2 61be
000002a0: 5ae8 8fbe b69e d3bd 0cf2 303f f48e 863e
000002b0: e5f7 f43e 0563 7f3e b110 5ebe 39c3 153d
000002c0: c8bf 8abe 53af 8f3d fddf d3be 2841 4cbe
000002d0: 3786 18be 8e4c 7c3f d976 3cbf 907f c03e
000002e0: 33f8 24be c65b 95be d7b5 9f3d 0a0e a13e
000002f0: 8b1a 553f c586 69bd bb58 0a3e a5f9 29bc
00000300: c5c7 b6ba 80e2 0cbe acb5 fdbe db20 903e
00000310: 8a4b 5bbf 5c0a 32bd 80ed 8fbe b6ef 98be
00000320: 95a4 d33c f3a6 87bd 610d a33e e42f ebbe
00000330: 467a 873d 4a7a 833e caa2 09bf 2bef 503e
00000340: 3f38 573e 7aca 473e 7240 303e 1041 a63d
00000350: 27a5 7bbe 73f9 803e 9f15 8dbe 4c0e 46be
00000360: a8ee 723d 473d c03e c607 0ebe c619 d7bd
00000370: e6bd 083e 8567 3dbe 5e1f 8b3e 3e2f f63e
00000380: 2a73 063e 2af3 533e b5ba af3e 0973 d73d
00000390: a7f4 813e eca5 94be 006b 9b3e ab58 3ebe
000003a0: 454d 24be 8622 253d 74ec efbd a9b2 2c3e
000003b0: 524d 033f 854a d13d 9434 2abd 9937 d5be
000003c0: 2403 523e 1745 f0be 4edb 09be b8c7 e03e
000003d0: 31ae d33c fcac 703d 1f58 86bd d509 2dbf
000003e0: 070e d4be 28bf a3be 2d61 5d3e b171 043f
000003f0: 19d0 913e a523 b6bd 6c26 213d 5db4 2d3f

net.4.layer.bias f4 [20]
0.1953114 -0.31039697 -0.36487576 -0.22810447 -0.19611016 -0.19893517 0.2888342 -0.026756838
0.095175676 -0.18077607 -0.14701621 -0.0810717 0.38478193 0.15492809 -0.112301305 -0.025312712
-0.20398895 0.07880601 0.15315719 0.19300798
00000000: b6ff 473e 5aec 9ebe ffd0 babe 3894 69be
00000010: 1ad1 48be a9b5 4bbe 14e2 933e 2831 dbbc
00000020: 77eb c23d 5d1d 39be 6b8b 16be eb08 a6bd
00000030: 2302 c53e 78a5 1e3e 3afe e5bd 9b5c cfbc
00000040: 7be2 50be 0c65 a13d 3dd5 1c3e e2a3 453e

net.5.layer.weight f4 [20, 20]
-0.36400375 0.100081794 0.036388908 0.33309588 -0.3850479 0.19495371 0.3823453 0.039790496
0.48044217 -0.6532943 0.108859815 -0.32173103 0.15316965 0.13319966 -0.60180205 -0.075708814
-0.012117516 -0.24564795 -0.3919973 -0.10914028 -0.017454796 -0.052262515 -0.20338331 -0.26444745
0.3241991 -0.27506617 -0.07583135 -0.29007012 -0.22185738 -0.42989314 0.43622693 -0.2776689
-0.48075777 0.01446959 -0.23669201 0.14068261 -0.06983853 -0.23495619 0.14613341 -0.17467757
0.36262617 -0.18852642 0.069674514 0.1547222 -0.330145 -0.25908273 0.14820601 0.2209998
0.45805216 -0.5303925 -0.37083426 0.09553122 0.41133377 -0.22149856 -0.612999 0.21423577
0.007738241 -0.34255835 0.16970986 -0.007453118 0.3994631 0.055052318 -0.091953106 0.25222445
-0.1747147 -0.10276115 -0.2749484 0.16683811 0.28257704 -0.33976272 0.20440555 0.14760989
-0.061430648 0.29127085 -0.2783289 -0.040815882 0.090087846 -0.09284182 0.18986809 0.3158502
-0.37364486 -0.26783347 0.2579813 0.07992459 0.18155321 0.009681109 -0.23295675 -0.03716208
0.106318966 -0.18795678 -0.082115546 -0.11893815 0.11757283 -0.3879572 -0.44659537 0.10964637
-0.046170123 0.12814416 0.21611463 -0.17998579 0.30113167 -0.2748991 -0.13457038 0.10699612
-0.15164044 0.098428234 -0.13833012 -0.009382679 0.11784213 -0.24973704 -0.027666274 0.062415935
0.4364696 -0.06314862 -0.5385977 0.09578677 0.058422316 -0.27300522 0.28985548 0.11911763
0.127179 0.21462046 -0.1494398 0.119192354 -0.069154374 0.21575361 -0.07627565 -0.25899988
0.122593366 -0.13356373 -0.383596 0.05109393 0.22754814 -0.3166711 -0.2309989 0.32453087
-0.049570523 0.09337323 0.094918735 -0.31867155 -0.21562612 0.09483342 -0.15217611 0.3658102
-0.14509775 -0.021045625 -0.11262792 0.06563657 0.020030767 -0.6344774 0.21344326 0.33493102
0.39333484 0.23647714 -0.57618356 -0.033749223 -0.11680707 0.077213705 0.36912188 -0.0018123896
-0.19804507 -0.28180218 -0.36934263 -0.07817248 -0.102342196 0.0030319626 0.06869551 0.08725592
-0.33466834 0.16823004 -0.12186601 0.063390315 0.4655372 -0.18054932 -0.02938367 0.01831318
0.24704936 0.25126582 -0.14890902 -0.074003465 -0.3800872 -0.24800543 -0.3071692 0.1001004
-0.22434439 -0.12290232 0.3344869 0.42214003 -0.4303602 0.20124336 0.46358123 -0.4807936
-0.13718298 0.17356153 -0.42864832 -0.13463703 -0.04650257 0.19205616 -0.30911988 -0.057968546
-0.37164852 -0.07865088 0.48117933 0.113833554 0.028924562 -0.13459153 0.004199878 0.49138567
0.40961275 -0.13059077 0.4466337 0.06782902 -0.667793 0.33514246 0.20427768 -0.50428647
-0.08913792 0.09621222 -0.12477057 -0.10162961 0.24472097 0.07373418 -0.09608549 0.44511947
-0.2536316 0.23848546 -0.5305085 0.22002172 -0.01261148 0.14634691 -0.0017271696 0.100964755
0.1978041 0.2879227 -0.26300573 0.32841104 -0.08305986 -0.23679478 -0.18701212 -0.31806204
0.23839578 0.14517312 0.08631632 0.12099003 0.104444355 0.2552581 0.26728344 -0.059347145
-0.10835138 0.12629026 0.22524787 -0.08701037 -0.23725346 0.1416119 -0.19569607 0.335271
00000000: b35e babe aff7 cc3d 890c 153d 8b8b aa3e
00000010: 0025 c5be f2a1 473e c3c2 c33e 5cfb 223d
00000020: 84fc f53e 4c3e 27bf e5f1 de3d eeb9 a4be
00000030: 81d8 1c3e 7e65 083e b30f 1abf 390d 9bbd
00000040: 8c88 46bc 238b 7bbe dfb3 c8be f084 dfbd
00000050: 5cfd 8ebc 3811 56bd b743 50be a865 87be
00000060: 6dfd a53e 79d5 8cbe 784d 9bbd 1284 94be
00000070: 952e 63be f41a dcbe 2359 df3e 9e2a 8ebe
00000080: e225 f6be dc11 6d3c 645f 72be 1a0f 103e
00000090: 8107 8fbd 5b98 70be ffa3 153e adde 32be
000000a0: 23aa b93e 120d 41be 83b1 8e3d 7f6f 1e3e
000000b0: c408 a9be 7ea6 84be 51c3 173e c64d 623e
000000c0: d085 ea3e cec7 07bf fddd bdbe dfa5 c33d
000000d0: 579a d23e 85d0 62be 81ed 1cbf 9f60 5b3e
000000e0: 1291 fd3b cf63 afbe 6cc8 2d3e 4939 f4bb
000000f0: 6d86 cc3e 8a7e 613d e951 bcbd 9023 813e
00000100: 69e8 32be 7074 d2bd 09c6 8cbe 9cd7 2a3e
00000110: f0ad 903e 61f5 adbe b04f 513e 0c27 173e
00000120: b49e 7bbd 7421 953e 2081 8ebe 8e2e 27bd
00000130: fa7f b83d da23 bebd c86c 423e 1eb7 a13e
00000140: 614e bfbe 7821 89be 2016 843e 81af a33d
00000150: 16e9 393e 849d 1e3c 378c 6ebe 4437 18bd
00000160: c2bd d93d be77 40be 322c a8bd d895 f3bd
00000170: 06ca f03d 53a2 c6be 26a8 e4be 478e e03d
00000180: e21c 3dbd 3938 033e 274d 5d3e 324e 38be
00000190: ee2d 9a3e 93bf 8cbe d1cc 09be c820 db3d
000001a0: a247 1bbe be94 c93d 69a6 0dbe cfb9 19bc
000001b0: 3757 f13d 11bb 7fbe 62a4 e2bc daa7 7f3d
000001c0: f278 df3e 1054 81bd 8ae1 09bf db2b c43d
000001d0: 3d4c 6f3d 57c7 8bbe f067 943e f2f3 f33d
000001e0: 363b 023e 77c5 5b3e bf06 19be 1f1b f43d
000001f0: cfa0 8dbd 84ee 5c3e 6836 9cbd a29b 84be
00000200: 3b12 fb3d eec4 08be b266 c4be de47 513d
00000210: 6102 693e b722 a2be fa8a 6cbe e928 a63e
00000220: 760a 4bbd 773a bf3d c164 c23d eb28 a3be
00000230: 18cd 5cbe 0638 c23d 0ed4 1bbe 794b bb3e
00000240: 8194 14be e067 acbc 78a9 e6bd 776c 863d
00000250: 9017 a43c 1c6d 22bf df90 5a3e 147c ab3e
00000260: 2f63 c93e 1027 723e c480 13bf a03c 0abd
00000270: 8c38 efbd 3822 9e3d 8bfd bc3e b48d edba
00000280: 54cc 4abe 6048 90be 7a1a bdbe e518 a0bd
00000290: c998 d1bd e4b3 463b 3bb0 8c3d 3bb3 b23d
000002a0: a659 abbe 7f44 2c3e e394 f9bd c8d2 813d
000002b0: e45a ee3e ece1 38be 06b6 f0bc 8605 963c
000002c0: 82fa 7c3e eaa5 803e 9b7b 18be 218f 97bd
000002d0: ca9a c2be 23f5 7dbe 4845 9dbe 7001 cd3d
000002e0: 89ba 65be 36b4 fbbd de41 ab3e bd22 d83e
000002f0: 2c58 dcbe bd12 4e3e 855a ed3e 942a f6be
00000300: b279 0cbe 1dba 313e cb77 dbbe 4ade 09be
00000310: 7b79 3ebd 5faa 443e f644 9ebe 6d70 6dbd
00000320: b748 bebe b613 a1bd 235d f63e 9121 e93d
00000330: 34f3 ec3c 5dd2 09be 219f 893b e796 fb3e
00000340: c3b8 d13e 96b9 05be 2cad e43e f1e9 8a3d
00000350: 7bf4 2abf cb97 ab3e 2b2e 513e eb18 01bf
00000360: f18d b6bd ea0a c53d b687 ffbd 2f23 d0bd
00000370: 2298 7a3e f201 973d 78c8 c4bd b3e6 e33e
00000380: 00dc 81be 8835 743e 68cf 07bf 604d 613e
00000390: 62a0 4ebc f7db 153e 3262 e2ba 9cc6 ce3d
000003a0: 288d 4a3e 9b6a 933e b0a8 86be 7e25 a83e
000003b0: 4a1b aabd 557a 72be 1b80 3fbe 07d9 a2be
000003c0: 061e 743e 43a8 143e 9cc6 b03d 9fc9 f73d
000003d0: ece6 d53d 31b1 823e 60d9 883e fe15 73bd
000003e0: 54e7 ddbd 3c52 013e 61a7 663e 7e32 b2bd
000003f0: 92f2 72be b602 113e 8d64 48be a4a8 ab3e

net.5.layer.bias f4 [20]
-0.14918727 0.06026296 0.018194698 0.14627746 -0.31391057 0.053648517 0.04386922 0.044983014
0.19372275 0.077080235 -0.290313 0.15667886 0.26553962 0.17120352 0.17482005 0.061307915
0.08606693 0.21605845 -0.00990191 -0.5575146
00000000: 8cc4 18be 4bd6 763d 0c0d 953c c2c9 153e
00000010: e3b8 a0be 8cbe 5b3d 36b0 333d 1c40 383d
00000020: 425f 463e 3edc 9d3d e8a3 94be 6c70 203e
00000030: cff4 873e fa4f 2f3e 0704 333e 021e 7b3d
00000040: dc43 b03d 6d3e 5d3e 9f3b 22bc 47b9 0ebf

net.6.layer.weight f4 [20, 20]
0.120030366 -0.3587762 0.5119981 -0.1224188 0.36403638 0.5204856 0.115267016 0.1950615
-0.07501516 -0.034572933 -0.18926343 0.07056102 -0.17011532 0.071623795 -0.04399988 0.41286564
0.023961892 -0.12898141 -0.28651503 -0.39658746 -0.22727323 -0.28381485 -0.027338365 0.13072634
-0.041429594 -0.21714443 -0.008532057 0.12916179 -0.10682977 -0.0115596345 0.33804476 -0.13162117
0.30781984 0.26229286 0.129426 0.03489802 -0.045142148 0.21661969 -0.07017625 -0.11673179
-0.100602485 -0.41398212 0.22744146 0.19209102 -0.35301968 -0.26377755 -0.22205485 0.2898966
0.22656623 -0.2523849 0.17783709 -0.042560477 0.020179467 -0.39064214 -0.19912338 -0.1815264
0.14759275 0.26223096 -0.39622283 -0.3148992 -0.7678814 -0.3961026 0.15354495 -0.33887526
-0.507043 -0.4221329 -0.09432322 -0.48394164 0.455853 -0.43551266 0.023185037 0.30761456
-0.23838781 -0.76786035 0.12602034 -0.45199707 0.2077871 0.13024971 -0.11607089 0.5507931
-0.3234434 0.07789286 0.147337 -0.35005987 0.11480885 0.042284343 0.0071948585 0.2747942
0.06951496 -0.111719705 -0.08962728 -0.031972475 -0.178816 0.32584032 0.10625214 0.251991
-0.17290105 -0.21389021 0.11411033 0.07460743 0.4237496 -0.27301785 0.12997296 0.49952883
-0.21897578 -0.046430066 0.24176395 -0.11188765 0.21928778 -0.21818486 -0.29414597 0.35820946
0.31443173 -0.022648046 0.17555514 0.29836473 -0.021946145 0.07884435 0.037393074 0.040502217
0.050877232 -0.34071115 -0.24882713 -0.43656594 0.26693058 0.065265425 -0.06681001 -0.25493422
0.43307567 0.2851754 -0.3565327 -0.06684352 -0.39200073 -0.112204775 -0.1779021 0.09692914
0.017739944 -0.33702162 -0.08240541 0.4409563 0.00027295554 -0.27737102 0.19510801 0.23335978
-0.016745387 0.34582105 0.08039917 -0.22706868 0.22517014 0.20635194 -0.46444383 0.1990653
0.09103418 0.056443777 -0.3618697 0.044789735 -0.22273538 0.082109295 -0.37039265 0.091750234
0.029688431 -0.108590804 -0.27724528 -0.087633215 -0.22308396 -0.08045486 0.018305961 -0.060138818
0.11449783 -0.3718593 0.14234531 -0.0022478343 -0.1020974 -0.092846975 0.12155422 0.13006805
-0.18283226 -0.02874175 -0.39883015 -0.16975161 -0.5056657 -0.09186554 -0.14482896 0.22274826
-0.093660384 -0.1953564 0.18154667 -0.34967193 0.14716184 -0.22177148 -0.4607856 0.15068468
-0.053277224 -0.4144579 -0.080647096 0.1518606 0.20316362 0.3668966 0.2749299 0.38393253
-0.26335543 -0.18074155 -0.34689826 -0.213265 0.24069259 0.07295689 -0.029762328 -0.11501945
-0.16190182 0.15681958 0.054059166 -0.008203844 0.12191397 -0.08014304 -0.29234174 -0.25327617
-0.33873048 0.28345552 0.43162793 0.44426304 -0.21279909 0.20314445 0.43870398 -0.06259322
-0.2769169 -0.028787605 0.23431325 0.10449765 -0.2113157 -0.02632383 0.23461209 -0.30772498
-0.47575635 0.2384557 -0.15901577 -0.03530997 -0.27732652 0.09434809 -0.2705117 0.10846378
-0.29570717 -0.13022529 -0.20189524 -0.11100561 -0.06876309 -0.2960636 0.23771468 -0.34377274
-0.27464882 0.0960109 -0.039913766 0.13476048 0.26328206 0.27143845 -0.34760967 -0.18479843
00000000: 7bd2 f53d 84b1 b7be 4f12 033f b5b6 fabd
00000010: fa62 ba3e 8b3e 053f 1d11 ec3d 34be 473e
00000020: 8ca1 99bd 599c 0dbd 46ce 41be 4c82 903d
00000030: b632 2ebe 7faf 923d 3839 34bd 2063 d33e
00000040: bb4b c43c b413 04be 19b2 92be 830d cbbe
00000050: 50ba 68be 2e50 91be b5f4 dfbc 20dd 053e
00000060: 14b2 29bd 1c5b 5ebe 0aca 0bbc fd42 043e
00000070: 91c9 dabd 9f64 3dbc 3414 ad3e b3c7 06be
00000080: 909a 9d3e 404b 863e 4088 043e 3af1 0e3d
00000090: f9e6 38bd 8dd1 5d3e 91b8 8fbd 1411 efbd
000000a0: ad08 cebd 77f5 d3be 6ae6 683e 82b3 443e
000000b0: ffbe b4be da0d 87be 5962 63be 546d 943e
000000c0: fa00 683e 9838 81be ed1a 363e e553 2ebd
000000d0: 694f a53c 3f02 c8be 00e7 4bbe 0ee2 39be
000000e0: 8e22 173e 2343 863e b8dd cabe 783a a1be
000000f0: e093 44bf f6cd cabe e33a 1d3e 0f81 adbe
00000100: 92cd 01bf ce21 d8be 882c c1bd 33c7 f7be
00000110: 9065 e93e 84fb debe 8cee bd3c a87f 9d3e
00000120: ef1b 74be 7f92 44bf 7a0b 013e 296c e7be
00000130: 24c6 543e 2e60 053e 93b6 edbd c700 0d3f
00000140: 609a a5be 4b86 9f3d 83df 163e 0c3b b3be
00000150: e720 eb3d 5932 2d3d d9c2 eb3b d3b1 8c3e
00000160: dc5d 8e3d 4dcd e4bd 828e b7bd 92f5 02bd
00000170: 8b1b 37be 8bd4 a63e b99a d93d f704 813e
00000180: f90c 31be 0906 5bbe adb2 e93d c8cb 983d
00000190: b5f5 d83e ffc8 8bbe a217 053e 3ec2 ff3e
000001a0: 303b 60be 742d 3ebd f890 773e 5a25 e5bd
000001b0: fa8c 603e da6b 5fbe 4d9a 96be 3b67 b73e
000001c0: 32fd a03e 6588 b9bc bac4 333e 43c3 983e
000001d0: 67c8 b3bc 2679 a13d 7b29 193d a7e5 253d
000001e0: a564 503d b171 aebe 8acc 7ebe 9285 dfbe
000001f0: 20ab 883e e1a9 853d b0d3 88bd bd86 82be
00000200: 18bc dd3e 8302 923e 748b b6be 41e5 88bd
00000210: 52b4 c8be 9ecb e5bd f82b 36be c982 c63d
00000220: 5c53 913c 198e acbe 2bc4 a8bd 06c5 e13e
00000230: 791b 8f39 9303 8ebe 65ca 473e def5 6e3e
00000240: 9f2d 89bc 750f b13e 52a8 a43d b184 68be
00000250: 0093 663e ec4d 533e 95cb edbe c6d7 4b3e
00000260: 2170 ba3d 9731 673d fc46 b9be 7175 373d
00000270: be14 64be eb28 a83d 1ba4 bdbe 8ce7 bb3d
00000280: 2735 f33c db64 debd 18f3 8dbe 0b79 b3bd
00000290: 1f70 64be 85c5 a4bd 62f6 953c 1f54 76bd
000002a0: d77d ea3d 5864 bebe f8c2 113e 6750 13bb
000002b0: 7118 d1bd 8e26 bebd 6bf1 f83d 8f30 053e
000002c0: 6138 3bbe d273 ebbc 7733 ccbe 5ed3 2dbe
000002d0: 4f73 01bf 0024 bcbd 0b4e 14be 1f18 643e
000002e0: 04d1 bfbd 820b 48be 5fe7 393e 3308 b3be
000002f0: 98b1 163e 1018 63be 17ec ebbe 164d 1a3e
00000300: 3839 5abd d333 d4be 4e2a a5bd 5881 1b3e
00000310: 200a 503e dfd9 bb3e 9dc3 8c3e ce92 c43e
00000320: 86d6 86be 5014 39be a69c b1be 2462 5abe
00000330: 1e78 763e 6c6a 953d 20d0 f3bc 518f ebbd
00000340: 97c9 25be 5095 203e 256d 5d3d 6a69 06bc
00000350: 08ae f93d 0922 a4bd d1ad 95be 6aad 81be
00000360: 156e adbe 1521 913e 56fe dc3e 7276 e33e
00000370: 01e8 59be 1905 503e cf9d e03e e030 80bd
00000380: 0dc8 8dbe fcd3 ebbc d0ef 6f3e dd02 d63d
00000390: 2563 58be 13a5 d7bc 273e 703e 218e 9dbe
000003a0: 5696 f3be bb2d 743e 08d5 22be 30a1 10bd
000003b0: befd 8dbe 9239 c13d 8280 8abe 4222 de3d
000003c0: ee66 97be c759 05be a0bd 4ebe e956 e3bd
000003d0: aad3 8cbd a695 97be 7a6b 733e fb02 b0be
000003e0: c59e 8cbe 5da1 c43d 9e7c 23bd a7fe 093e
000003f0: e8cc 863e fbf9 8a3e e5f9 b1be cd3b 3dbe

net.6.layer.bias f4 [20]
-0.2383851 0.114783615 -0.23458017 -0.037434887 0.019372178 0.0017162919 0.0041081714 -0.033704255
0.11027969 0.11935521 0.056028157 -0.072365396 -0.047413558 -0.025511203 0.14191197 0.045306597
-0.060727276 -0.1398795 0.11166987 -0.01997624
00000000: 391b 74be ac13 eb3d c935 70be 5355 19bd
00000010: 67b2 9e3c 33f5 e03a d79d 863b 790d 0abd
00000020: 51da e13d 8170 f43d c87d 653d 4f34 94bd
00000030: b834 42bd dffc d0bc 5f51 113e 6993 393d
00000040: 2abd 78bd 923c 0fbe 2cb3 e43d 36a5 a3bc

net.7.layer.weight f4 [20, 20]
0.15700395 -0.18901068 0.17552407 0.2900726 -0.2674954 0.29164112 0.0796267 -0.023939243
0.26332247 -0.23615453 0.22296534 0.026731486 -0.09146788 -0.060453437 -0.4696486 -0.31135297
0.21152885 -0.12078643 -0.27254683 -0.035456184 -0.25892016 0.005506243 -0.19664155 0.49764884
0.19622146 -0.064984865 0.35616356 0.174187 -0.3348797 -0.11312254 0.121554375 -0.21560082
0.07923702 -0.29799977 -0.6118163 -0.36526674 0.090755865 0.12740155 -0.10282987 0.07267778
0.13831991 0.35079408 -0.21646489 -0.26723397 -0.29663655 -0.072098024 0.3473313 -0.16239792
0.20408745 -0.2084884 0.29795706 0.34499407 -0.39321834 0.24194013 0.10413197 -0.12118513
-0.299087 -0.10515219 -0.19998942 0.08244299 -0.30124977 -0.2413004 0.13888201 0.23172098
-0.10036959 -0.043718863 -0.12231172 -0.46675423 -0.15600398 -0.2762111 -0.38089326 0.117440194
0.23007132 0.21027549 0.25647166 0.39754725 -0.43091956 0.2629323 -0.15947728 -0.06451219
0.12446994 -0.26054665 0.10777184 0.172257 0.037166484 0.3949197 -0.22280364 0.19306429
0.02189984 -0.06513025 0.1966691 0.1871121 0.31586677 -0.23601213 -0.47234097 0.1742732
-0.054654293 0.11737411 -0.37038463 -0.31816876 0.29678997 -0.022267377 0.42507502 0.36339247
0.21390978 0.33311182 0.256348 -0.056470037 -0.30963802 -0.2182102 0.2759088 -0.32775214
0.09932696 -0.35655943 0.16250435 -0.057232335 0.18290325 -0.13458528 -0.3709392 -0.28908738
0.30658096 0.090535976 0.3349846 -0.7219074 0.14623258 0.56992036 -0.25458005 -0.08310914
0.10428841 -0.027826678 -0.2195322 0.027216995 -0.33077288 0.17077422 0.08177832 -0.591286
-0.18935579 0.2495085 0.34647617 -0.20635585 -0.1593281 -0.28605205 0.043518793 -0.24617684
-0.2105135 0.07669904 -0.20778713 0.1491806 0.23801522 -0.02663587 -0.39765212 0.19757338
0.08980433 -0.2985262 -0.32407525 -0.4368343 0.22819512 0.20700023 -0.027228516 -0.23515296
0.5874912 -0.2826247 0.30510336 -0.37826857 -0.37449315 -0.18662524 0.5141857 0.5151081
0.118703015 -0.4025451 -0.41904438 0.37957662 -0.14089675 -0.48304018 -0.29177058 -0.016511431
-0.03688015 0.32488227 -0.008570872 0.42115903 -0.08864929 0.15789692 0.2788923 0.3233274
0.058734614 0.21165456 0.2808874 -0.32891312 -0.12271176 0.34949607 0.37900406 -0.14222021
-0.03840844 0.19090237 -0.2309091 -0.03100451 0.20191541 -0.0009225709 -0.12801975 0.32183507
-0.20165963 0.13973865 -0.1214356 -0.31603736 0.033008914 -0.32635736 0.20430966 -0.14478353
-0.28190425 -0.03429913 -0.28876102 0.14079171 0.24835896 0.31707677 0.34820673 -0.33684826
-0.2340333 -0.1895443 -0.20614938 -0.036972348 0.11392353 0.12366087 -0.18588693 -0.2719093
0.018961031 0.091915116 -0.18596326 -0.16534929 0.09194972 -0.47446945 0.16541505 0.055104926
-0.27412337 0.43014008 0.014869308 -0.0521961 -0.42459965 -0.27039826 -0.18048853 -0.17715096
0.42773873 0.34472737 0.3094043 0.19216862 0.26571962 0.23967123 0.23815331 0.24566907
-0.21633804 -0.17080045 -0.18736818 0.08263155 0.19207248 -0.3050646 0.25456348 0.21279201
00000000: a5c5 203e 048c 41be 95bc 333e 6584 943e
00000010: 28f5 88be fc51 953e 5313 a33d 3b1c c4bc
00000020: 34d2 863e 7ed2 71be 0751 643e fdfb da3c
00000030: 8353 bbbd 069e 77bd c875 f0be a869 9fbe
00000040: 059b 583e e05e f7bd 428b 8bbe 813a 11bd
00000050: 2f91 84be b76d b43b 675c 49be d4cb fe3e
00000060: 47ee 483e c916 85bd 125b b63e 145e 323e
00000070: 5a75 abbe caac e7bd 80f1 f83d 76c6 5cbe
00000080: 0547 a23d 6d93 98be fe9f 1cbf 3e04 bbbe
00000090: 36de b93d 8d75 023e 7898 d2bd 17d8 943d
000000a0: bca3 0d3e 489b b33e f9a8 5dbe e4d2 88be
000000b0: bfe0 97be 21a8 93bd 68d5 b13e a44b 26be
000000c0: 4dfc 503e fc7d 55be d48d 983e 10a3 b03e
000000d0: ea53 c9be 27bf 773e 2443 d53d e92f f8bd
000000e0: ee21 99be 085a d7bd 07ca 4cbe dfd7 a83d
000000f0: 693d 9abe 7417 77be 1637 0e3e 4448 6d3e
00000100: 928e cdbd 8d12 33bd 917e fabd 69fa eebe
00000110: 82bf 1fbe 8b6b 8dbe 7104 c3be 7c84 f03d
00000120: d197 6b3e 7552 573e 4150 833e 508b cb3e
00000130: 7da1 dcbe 109f 863e 034e 23be f81e 84bd
00000140: 19ea fe3d 5f66 85be 7cb7 dc3d 2464 303e
00000150: e23b 183d ea32 ca3e a326 64be a5b2 453e
00000160: 4b67 b33c 0263 85bd a063 493e 509a 3f3e
00000170: 4ab9 a13e 2aad 71be add6 f1be ac74 323e
00000180: 2edd 5fbd d661 f03d 0ea3 bdbe 04e7 a2be
00000190: dbf4 973e 136a b6bc 6fa3 d93e 940e ba3e
000001a0: 2a0b 5b3e a28d aa3e 0c40 833e 204d 67bd
000001b0: e088 9ebe 7f72 5fbe eb43 8d3e 21cf a7be
000001c0: ef6b cb3d f58e b6be 8a67 263e 746c 6abd
000001d0: fd4a 3b3e b9d0 09be beeb bdbe 4303 94be
000001e0: 2ef8 9c3e ed6a b93d 1a83 ab3e ecce 38bf
000001f0: febd 153e 4de6 113f 5158 82be 2035 aabd
00000200: 2995 d53d c6f4 e3bc 0dcd 60be 2df6 de3c
00000210: 105b a9be 70df 2e3e 647b a73d 855e 17bf
00000220: 7ce6 41be 287f 7f3e 5365 b13e f34e 53be
00000230: e826 23be 6a75 92be c340 323d c815 7cbe
00000240: da90 57be 6314 9d3d 26c6 54be cdc2 183e
00000250: 43ba 733e 7833 dabc 0f99 cbbe ad50 4a3e
00000260: 55eb b73d 6dd8 98be 31ed a5be bfa8 dfbe
00000270: fbab 693e def7 533e 560e dfbc f0cb 70be
00000280: d365 163f 2fb4 90be 8236 9c3e 6bac c1be
00000290: 91bd bfbe b01a 3fbe ada1 033f 20de 033f
000002a0: 911a f33d 641a cebe fc8c d6be de57 c23e
000002b0: 3d47 10be 0b51 f7be f462 95be fb42 87bc
000002c0: a40f 17bd f856 a63e d86c 0cbc 28a2 d73e
000002d0: c28d b5bd bbaf 213e f9ca 8e3e 2b8b a53e
000002e0: b593 703d f9bb 583e 79d0 8f3e 4d67 a8be
000002f0: 4e50 fbbd 26f1 b23e d20c c23e 2da2 11be
00000300: 2b52 1dbd e97b 433e 6f73 6cbe 2cfd fdbc
00000310: eac2 4e3e afd8 71ba 9c17 03be 91c7 a43e
00000320: dd7f 4ebe a617 0f3e 3ab3 f8bd a6cf a1be
00000330: 5b34 073d 5018 a7be 8d36 513e 2242 14be
00000340: c155 90be 3f7d 0cbd 7cd8 93be b42b 103e
00000350: d051 7e3e e357 a23e 2748 b23e 6077 acbe
00000360: 6da6 6fbe e717 42be d318 53be 5170 17bd
00000370: bd50 e93d e941 fd3d 2559 3ebe b237 8bbe
00000380: 2a54 9b3c fe3d bc3d 276d 3ebe 5351 29be
00000390: 2350 bc3d a9ed f2be 9062 293e b4b5 613d
000003a0: e659 8cbe 523b dc3e 669e 733c 94cb 55bd
000003b0: 2065 d9be a471 8abe fcd1 38be 1067 35be
000003c0: 9200 db3e 1b80 b03e 3e6a 9e3e dac7 443e
000003d0: 670c 883e 606c 753e 76de 733e ac90 7b3e
000003e0: b887 5dbe 50e6 2ebe 72dd 3fbe bb3a a93d
000003f0: a6ae 443e 6d31 9cbe 2556 823e 26e6 593e

net.7.layer.bias f4 [20]
0.07733903 -0.16548613 -0.19675851 -0.13404256 -0.1756053 -0.1136618 0.10437027 -0.1284916
-0.12710488 -0.033572156 0.09337442 0.22898822 -0.14717932 -0.091647536 -0.11809707 0.061845
0.0064281626 0.16695593 -0.11386777 -0.07578985
00000000: ed63 9e3d 3275 29be 107b 49be 7442 09be
00000010: e0d1 33be 85c7 e8bd 15c0 d53d 4d93 03be
00000020: c827 02be f582 09bd 173b bf3d e37b 6a3e
00000030: 2db6 16be b4b1 bbbd e0dc f1bd 2f51 7d3d
00000040: 56a3 d23b 7ff6 2a3e 8133 e9bd b537 9bbd

net.8.layer.weight f4 [1, 20]
-0.4708106 -0.46632436 0.06331188 0.5016304 -0.11078866 -0.18854064 -0.134105 -0.16237134
-0.7483208 -0.19543552 0.35171235 0.13751738 -0.5716235 0.5772476 -0.0645942 -0.117506854
0.13072717 0.47855085 -0.38974845 -0.149137
00000000: 160e f1be 11c2 eebe a9a9 813d da6a 003f
00000010: 2ae5 e2bd cc10 41be d252 09be ac44 26be
00000020: f491 3fbf 4020 48be a413 b43e 5bd1 0c3e
00000030: eb55 12bf 80c6 133f f749 84bd 6fa7 f0bd
00000040: 58dd 053e 9e04 f53e 1c8d c7be 5fb7 18be
