Archive/Burgers/Inference/weight.pt (torch, 18058 bytes, 17 tensors)

net.0.layer.weight f4 [20, 2]
000000 28 66 3e be a6 f9 82 bd b0 77 92 be 66 6f e4 bd
       -0.18593657 -0.06395273 -0.2860694 -0.1115406
000010 73 5a 82 3f c6 50 ca be be 17 22 3c e0 a2 71 3f
       1.0183853 -0.3951475 0.009893356 0.9438915
000020 d2 df a0 bf 7a da d8 3e 09 ae 92 bf 09 b5 75 3e
       -1.2568305 0.42354184 -1.1459361 0.2399484
000030 f6 8e 59 3b 8b 0d b8 bd fa e9 74 bf 68 e6 f3 3e
       0.0033196784 -0.08986958 -0.9566952 0.47636724
000040 16 11 97 bf 00 80 8e 3e bd bc c7 be 7e 70 3c bf
       -1.1802089 0.2783203 -0.39011183 -0.7360915
000050 38 3b d2 3d d6 0c 14 3f 2c 45 d6 3e 58 35 07 bf
       0.10265201 0.57832086 0.4184965 -0.5281577
000060 fe e3 9c 3e 5e 03 ea 3e d3 f3 05 3f 55 ca 9d be
       0.30642694 0.45705694 0.5232517 -0.3081843
000070 08 1e 95 3e e8 cf 5b bf 12 52 16 bf 83 02 f1 3d
       0.29124475 -0.85864115 -0.5871898 0.11768057
000080 a7 a9 a8 3f 7a f3 12 bf ce 2a 7a be ea 70 de bd
       1.3176774 -0.57402766 -0.24430391 -0.108613804
000090 00 87 34 3f f6 19 3c 3e 52 8b 89 3f 66 7a 40 3e
       0.70518494 0.18369278 1.0745642 0.18796691

net.0.layer.bias f4 [20]
000000 05 19 e4 3d c6 bd c7 3e 76 41 16 3f e0 db 0e bd
       0.111375846 0.39011973 0.58693635 -0.034877658
000010 8a 76 90 3e 3a ae 48 3e 6b 64 cc 3c b1 1b 7d 3f
       0.28215438 0.19597712 0.024950227 0.9887038
000020 5b 5e 7d 3e 5d 59 95 bd d3 ad aa be 8b 26 03 be
       0.24743025 -0.07292435 -0.33335742 -0.12807672
000030 4e 60 37 3e d5 8b c9 be 1a 72 3a be c3 d6 83 3e
       0.17907831 -0.39364496 -0.18207589 0.25749788
000040 45 d3 32 be 5f 37 f6 3a a9 bf 56 be c2 97 4c bf
       -0.17463405 0.0018784812 -0.2097155 -0.79919064

net.1.layer.weight f4 [20, 20]
000000 68 d5 a5 be 76 9e 4a 3e f0 fa a8 3e 2d 0c a0 3d
       -0.3238938 0.1978701 0.3300395 0.07814822
000010 64 0d fa be 80 c0 8c be 6f 51 10 39 97 fa 71 bf
       -0.4883834 -0.27490616 0.00013763247 -0.94522995
000020 78 6d 89 be 2f a9 fc bc c5 6f f7 3d ea f0 37 be
       -0.2684133 -0.030842392 0.12081865 -0.17962995
000030 0d 97 13 be 96 be ca 3d ae e4 0b bf d1 9b ca be
       -0.1441309 0.09899633 -0.5464581 -0.39572003
000040 13 fb 42 3f 86 cf de bd af b5 1f 3f 66 20 4a 3d
       0.7616436 -0.10879426 0.623866 0.049347304
000050 36 f7 21 3c d5 1f 96 be dd 1e 1b 3e f1 02 4b be
       0.0098856 -0.2932116 0.15148492 -0.19825341
000060 21 85 35 be 80 5a cf bd f0 62 14 be d4 86 58 be
       -0.17726566 -0.101246834 -0.14490867 -0.21145183
000070 ce 29 f4 bd b4 48 88 bc a4 40 82 be 92 da 86 3e
       -0.11922036 -0.01663623 -0.25439942 0.2633863
000080 12 84 be be 91 d0 9f 3e 44 53 a9 3e 89 2a c4 3b
       -0.37210137 0.3121381 0.3307134 0.005986516
000090 45 af 58 3d 6c 68 28 be 44 0a fa be f7 d6 dc be
       0.052901525 -0.16446084 -0.48835957 -0.43132755
0000a0 89 02 13 3d 5b 50 27 3e 87 72 89 3e 4b fb 1d 3e
       0.03589109 0.16339247 0.2684519 0.15427892
0000b0 87 86 b6 be 1e 22 60 3e 0c f6 1e 3e 3a f3 1a bd
       -0.3564951 0.21888015 0.15523547 -0.037829615
0000c0 b0 b7 e7 3d 06 d8 54 be a5 95 d8 3a 21 6c 9a 3e
       0.113143325 -0.20785531 0.001652409 0.3016062
0000d0 e3 c3 d4 3e f6 53 04 be 8a 6d 96 be f5 6c 31 be
       0.415557 -0.12922654 -0.29380447 -0.1732672
0000e0 ee 14 f1 3c 93 8b a9 be a3 55 1f 3e f0 c6 64 3e
       0.029428925 -0.331143 0.15560012 0.22341514
0000f0 71 2c 18 be 33 e5 b1 3e a5 1b 85 3e 80 5b f5 bd
       -0.14860703 0.34745178 0.25997654 -0.11980343
000100 6a 36 f3 bd 72 b0 91 3d 5f 70 0b be 7e 3a d6 3e
       -0.11875613 0.071137324 -0.13617085 0.418415
000110 a2 c9 2c 3e cc 94 a9 be e6 01 4f bd 76 a3 c2 bd
       0.16873792 -0.33121336 -0.05053892 -0.09503834
000120 27 1d 72 be fd 9b cd bc 3b 8a 36 bd b9 1f 55 3e
       -0.23643933 -0.025098795 -0.04456542 0.20812882
000130 00 0c 0e be a6 3f 42 be 84 82 e8 3d 6e 39 85 be
       -0.13871765 -0.18969592 0.11353019 -0.26020378
000140 46 d9 08 3e 73 71 e8 bd 49 f8 6d 3e 89 c3 83 be
       0.13364133 -0.11349764 0.23239245 -0.2573512
000150 3d 5e 3b be 31 31 fd be 3d f9 6b bd b5 28 68 be
       -0.18297668 -0.49451593 -0.05761074 -0.22671779
000160 85 a0 a9 be 4a 2e ac 3e 72 16 77 bd 12 38 bd be
       -0.3313028 0.33629066 -0.06032414 -0.3695684
000170 cf f8 f9 3d 0a 1a e3 3e 16 93 29 be 55 f5 b2 be
       0.122056596 0.44355804 -0.16560015 -0.34952798
000180 07 9e f5 3e 71 73 c8 be 92 12 5e bd 07 cd ea bd
       0.47972128 -0.39150575 -0.05421693 -0.11464887
000190 42 5c e4 3d a8 46 97 3d 05 a9 a5 be 9d e4 ec 3e
       0.11150409 0.073865235 -0.32355514 0.46268168
0001a0 1f 29 2b 3f df 67 01 3f e3 8c 89 be 37 4a 2c 3f
       0.6685962 0.5054912 -0.268653 0.6730074
0001b0 82 63 4f 3e 54 39 b8 bc a9 e5 be 3e 8e db e0 be
       0.20252803 -0.022488274 0.37284592 -0.43917507
0001c0 c0 98 d8 3e dc 28 43 be 7c 41 c5 be f8 40 bd 3d
       0.4230404 -0.19058555 -0.38526523 0.092409074
0001d0 e5 8c 3f bf 26 fb 81 bd e4 f5 de bc d8 ad a6 be
       -0.74824363 -0.06346731 -0.02721686 -0.32554507
0001e0 1e 5b d7 bc ba 5f 81 be e3 01 83 3e 28 8d 01 3f
       -0.026288565 -0.25268346 0.25587377 0.5060601
0001f0 35 b3 90 3d e5 4f 7a 3e 30 f0 ac be cc db 38 3e
       0.07065431 0.2444454 -0.33777 0.18052596
000200 e1 4b 9c 3e b7 a6 5b be 18 f8 d8 3e 1e 1e e2 be
       0.3052664 -0.21450315 0.4237678 -0.44163603
000210 a2 37 a4 3c 91 e4 8b 3e 1f 3c f6 bd 60 ec 35 3d
       0.020046059 0.2732282 -0.12023186 0.044414878
000220 30 bd 92 3d 9b 6c d0 bc 42 c9 d1 3e 85 cb 62 be
       0.07164991 -0.025442412 0.4097386 -0.22147949
000230 2d 5a e7 3e 2d f4 8e 3e f9 63 7c be 7c d2 da be
       0.45185986 0.27920666 -0.24647512 -0.42738712
000240 7f be 27 3d 4d 0b 67 3e 7a fa 78 be de e0 2e 3e
       0.040953156 0.22562905 -0.24314299 0.17077968
000250 87 15 05 be 12 e7 a1 3e be b7 39 3e 15 e2 19 bc
       -0.12996493 0.31621605 0.18136498 -0.009392281
000260 b9 95 3a 3e bc ef f1 3d 37 fd 45 be bc 45 d9 3e
       0.18221177 0.11813304 -0.19334875 0.42436016
000270 5f 3c 08 bf b1 03 50 3d e4 d7 0c bf 50 2f f7 be
       -0.5321712 0.05078477 -0.5501692 -0.48278284
000280 ad 74 db bd 25 ef 9e 3d 33 71 59 3e 9b c4 a8 bd
       -0.107156135 0.07760457 0.21234588 -0.082406245
000290 5e 1c 9e be aa b6 e8 be 75 2f 75 bd b7 4d e9 be
       -0.30881017 -0.45451862 -0.05985971 -0.45567104
0002a0 46 fa 90 be cf d6 77 3e fd fa a8 bd d9 18 86 3d
       -0.28315943 0.24203037 -0.08250997 0.06547708
0002b0 d6 5d 38 3e 55 c2 83 3e d0 a1 66 3e 7c 2c ec be
       0.18004546 0.257342 0.22522664 -0.4612769
0002c0 14 fe 03 3f 8c f8 8d be f3 ea 26 bc 40 53 56 3d
       0.5155957 -0.2772869 -0.010187852 0.052325487
0002d0 bf 2c 08 be 59 f7 40 be f6 37 f7 bd 64 ed fd 3d
       -0.1329832 -0.18844356 -0.120712206 0.12398794
0002e0 9f 74 3d 3e f3 83 6b bd d3 49 da bd 63 82 1c bf
       0.18501519 -0.057498883 -0.10658612 -0.61136454
0002f0 90 ff ae bc ab bd a0 3e 8e bc 4c bd 01 0d 73 be
       -0.021362096 0.31394705 -0.049984507 -0.2373543
000300 49 38 70 3e c3 5b 51 3e 73 97 25 bd e6 14 8e bc
       0.23458971 0.2044516 -0.040427636 -0.01734395
000310 51 ef da 3e 1b d6 4a be cd ed a3 3e d6 bc 6a 3e
       0.4276071 -0.19808237 0.32017365 0.22923598
000320 50 cb 9d be 5c c5 8a be 66 14 8b be 42 fa 5d bd
       -0.30819178 -0.27103698 -0.27164 -0.054193743
000330 77 6e 6b be d1 8f 90 be 23 fa 9b be 75 d8 20 3e
       -0.22991358 -0.28234723 -0.30464277 0.15707572
000340 47 d1 a4 be 1a 4f f1 bb 60 c7 90 bd c0 e4 97 bd
       -0.32190916 -0.007364166 -0.07069278 -0.074166775
000350 ae e7 37 3e cb e5 59 be a0 d7 03 3d 22 61 b6 be
       0.17959473 -0.21279065 0.032188058 -0.3562098
000360 76 ae 46 3d 7e 3e a4 be 89 27 58 3e c5 c9 b2 bd
       0.048506223 -0.32078928 0.21108831 -0.08729891
000370 e4 b7 2a 3f cc 85 b7 3e 9a 84 ca 3d e3 85 34 bf
       0.66686845 0.35844266 0.09888573 -0.70516795
000380 a7 bb a1 3e d0 9e f9 3e 81 b6 9e be 3e fe 4d 3e
       0.3158848 0.48753977 -0.30998614 0.20116517
000390 14 d9 03 3f 4d f3 b7 3e 59 16 92 3c f7 ec 93 3e
       0.5150311 0.3592781 0.017832922 0.28891727
0003a0 66 b8 3f bc 02 ed ae 3c 37 54 09 3e 2b 2e eb 3e
       -0.011701679 0.021353249 0.13411032 0.4593366
0003b0 a6 45 19 be fc 5e 70 3e c9 e4 20 bf 2b 00 3e bf
       -0.14967975 0.23473734 -0.628491 -0.74219006
0003c0 7c 64 a8 be 4c ec 88 be 3a ea 08 3e 7a 6e 35 be
       -0.32889163 -0.2674278 0.133706 -0.17717925
0003d0 6a 6f f4 bd d1 92 eb bb 92 59 3c bc f5 5a 17 3e
       -0.11935313 -0.0071891327 -0.011495965 0.14780791
0003e0 73 cb 2c 3c d2 31 4f 3e b5 c4 89 be 05 56 18 3e
       0.010546553 0.20233849 -0.26907888 0.14876564
0003f0 dd d6 20 bd dc 42 90 be ae ad 1f be 59 c6 b4 be
       -0.03926741 -0.2817601 -0.15593597 -0.35307577

net.1.layer.bias f4 [20]
000000 1f f2 23 be 41 09 6b bd 29 f6 57 be f4 ed d1 3e
       -0.1601033 -0.057381872 -0.21089996 0.41001856
000010 a0 ac 01 3f 12 fd 7b be 9e 87 8b bd f7 af b0 be
       0.5065403 -0.24608257 -0.06812976 -0.3450925
000020 e8 0a 45 3d ea ec 5b bf 4f 9b 72 bd 64 f9 83 3f
       0.048106104 -0.8590838 -0.059230145 1.0310483
000030 20 06 4e 3e 1b 59 15 bf 94 7a 5f 3d 65 df 4e bf
       0.20119524 -0.5833909 0.05456026 -0.80809623
000040 ef 52 82 3e 96 bc 31 3f 14 23 21 be 59 ad f9 3c
       0.25453898 0.69428384 -0.15736037 0.030478166

net.2.layer.weight f4 [20, 20]
000000 6e 1d 95 be 7b 33 15 3f 62 37 95 be 8e 15 7d 3e
       -0.29124016 0.5828168 -0.29143816 0.24715254
000010 0f a6 dc be bd a3 bb be d9 0f 22 bf fb 3c 02 3f
       -0.43095443 -0.3664836 -0.6330543 0.508743
000020 f3 a8 3b 3d ba 4f 5e bf 10 70 c5 be b4 1d 92 3f
       0.04581542 -0.86840403 -0.3856206 1.1415315
000030 39 ac 53 bd 74 ba 7e 3e 32 60 13 3f f2 81 95 bf
       -0.051677916 0.24875814 0.5756866 -1.1680281
000040 1b 7b 06 3f 35 27 30 be e8 8f 8e 3b b9 db b4 3e
       0.52531594 -0.17202456 0.004350651 0.35323885
000050 71 d5 75 be 2d 35 7a be 78 1f f1 3e b1 71 72 3e
       -0.24007203 -0.24434347 0.4709432 0.23676182
000060 2b 1f 96 3e a4 52 8d 3e c2 59 08 be a9 1b 7d be
       0.29320654 0.27602112 -0.1331549 -0.24717583
000070 1b 77 39 be 48 14 4c 3a 8e 22 e9 bd 2e 73 93 3e
       -0.18111841 0.00077850046 -0.11383544 0.28798813
000080 83 71 ba 3e d2 fb be bd ad 99 37 3e f4 03 59 3e
       0.36414728 -0.09325375 0.17929716 0.21192914
000090 bd 86 dc bc e5 36 d3 3d ee 59 9b be c6 ff b3 3d
       -0.026919717 0.10313205 -0.30342048 0.08789019
0000a0 64 fe 89 bd 51 8a 88 3a 59 62 96 be 11 37 8c 3e
       -0.06737974 0.0010417198 -0.29371908 0.27385762
0000b0 de b4 8a 3e 6a 76 5f be 81 52 30 3e 16 16 ab 3c
       0.27091116 -0.21822515 0.17218973 0.020884555
0000c0 13 41 b0 3e 8b 01 54 bf ed 1a 27 bf 4c 7d 1c 3f
       0.34424648 -0.82814854 -0.6527546 0.6112869
0000d0 dc 53 5c be 45 8f dc 3e 2b 84 10 3e 6d b3 18 bf
       -0.21516365 0.43078056 0.14112918 -0.5964878
0000e0 fe 69 a2 3e 44 4c 36 3d 78 6f 2b be df 4f 68 3d
       0.3172149 0.044506326 -0.1674174 0.056716796
0000f0 2e 14 11 be bc e2 85 be 3f f4 f9 be f7 84 de bc
       -0.14167854 -0.26149547 -0.48819157 -0.027163012
000100 5a 1f 5b bc d3 99 e2 be 63 94 ae bc 6d 90 13 be
       -0.013374174 -0.44257984 -0.02131099 -0.14410563
000110 2b 9a 5d 3c 53 e4 30 be 9c 5d 3f bd 2e dd cf 3e
       0.013525526 -0.17274599 -0.046720132 0.40598434
000120 59 35 6e be 5e 3a d1 be 4b 38 9e bd 17 e7 da bd
       -0.23262538 -0.40864843 -0.07725581 -0.10688608
000130 b1 42 95 bd 91 3e 08 be 4f 97 a0 3e 9c 17 20 3f
       -0.07288111 -0.13305117 0.3136544 0.62536025
000140 8a 6d 61 3d d6 40 fb 3d f9 06 8e 3e a6 59 c4 3e
       0.055036105 0.12268226 0.27739695 0.38349646
000150 d6 b2 c7 bd 2e 01 1a be c8 a8 bf be 6b 25 24 3e
       -0.09750907 -0.15039513 -0.37433457 0.16029899
000160 d9 ae 30 3d 4a d6 b2 bd c4 c2 88 bc c9 e5 81 3e
       0.043135498 -0.08732279 -0.016694434 0.25370625
000170 17 47 ac 3d bb d8 ce 3c 83 29 cf be 9b 07 b9 be
       0.08411997 0.02524983 -0.40461358 -0.36138615
000180 9d 8c 5d 3e 56 7a 8e be 77 de 56 3e b5 84 46 3e
       0.21635671 -0.2782771 0.20983301 0.19386561
000190 22 13 4d 3d 2e 8d 0f 3f 76 2d 8d 3d 52 70 3d 3c
       0.050067075 0.560748 0.068934366 0.011562424
0001a0 17 82 bb be fc 98 16 be 91 98 79 3d 34 45 79 3e
       -0.36622688 -0.14706796 0.060936514 0.24342805
0001b0 20 25 df 3e 6f cc be 3c 19 ef a1 be 23 13 d6 bd
       0.43583012 0.02329084 -0.3162773 -0.10452869
0001c0 b5 4b a0 3d b4 dc 30 3e 0f 76 2d 3e c0 9d 89 3e
       0.0782694 0.17271692 0.16939567 0.26878166
0001d0 ef 2b 4d bd 45 f9 06 bf 33 e7 a7 bc 6a 1f 11 bd
       -0.050090726 -0.52724105 -0.020495987 -0.03543035
0001e0 01 54 68 bd f3 5a be be 95 dc 49 3d 3d 8e 01 3e
       -0.056720737 -0.37178764 0.04928263 0.12651916
0001f0 b2 c2 99 bc 1e 64 4e 3e 29 33 0b 3f 58 af 4e bc
       -0.018769596 0.20155379 0.5437494 -0.012615047
000200 41 c5 eb 3d 83 0a e7 3c 05 fa f3 3e 3a 4e de 3d
       0.115122326 0.028203255 0.47651687 0.10854764
000210 69 fe 58 be a9 42 d9 be c8 c4 11 be 61 ac c9 3e
       -0.211908 -0.4243367 -0.14235222 0.39389327
000220 d4 11 04 bf f4 6e 82 3f f2 6f 34 bf 8e 76 68 be
       -0.51589704 1.019011 -0.70483315 -0.22701475
000230 ee a3 0c bf 89 08 1e 3d 69 50 0c 3f 78 53 8a 3c
       -0.54937637 0.03858236 0.54810196 0.016885504
000240 01 cb 01 be 89 1e 6f 3f ce 6c 6b 3e 12 f3 10 be
       -0.12675096 0.9340597 0.22990724 -0.14155224
000250 35 fe 62 be 3c 6e 4b 3e 06 6e d6 3c 9c fa 50 3e
       -0.22167285 0.1986627 0.02617551 0.204081
000260 19 bb a6 b9 4b 24 1d 3d 0b 05 29 3f f8 3c af be
       -0.00031801386 0.03836469 0.6602332 -0.34226203
000270 7c 3b 5a 3c 4a a3 62 3d 2a f6 52 be 60 5d c5 be
       0.013319846 0.055331506 -0.20601717 -0.38547802
000280 f4 f8 c4 bd 77 ab 4a be a2 81 e7 bd 99 30 82 3d
       -0.096177965 -0.19791971 -0.11304022 0.063569255
000290 91 62 e7 3e 3c 98 ff bd ed 91 b3 bd 16 8d 11 bf
       0.45192388 -0.12480208 -0.087680675 -0.56855905
0002a0 66 7f 36 3e 8f a3 dd 3e 4f ef 4e 3e f7 9a 47 bf
       0.17822036 0.43288848 0.20208476 -0.7797083
0002b0 f9 ce c7 3e aa d9 dc be 04 54 56 bf 06 bc d4 3e
       0.39025095 -0.43134815 -0.8372195 0.415497
0002c0 78 f4 01 be 13 e5 f1 bd 46 0c 1f 3e 3c b8 07 3f
       -0.12690914 -0.118112706 0.15532026 0.53015494
0002d0 73 f6 89 3e de 01 1d 3e 88 00 11 3e ee 73 d9 be
       0.26945838 0.15332744 0.14160359 -0.4247126
0002e0 6f c0 57 3e 31 67 fe be db 0a 63 3e 77 12 13 bf
       0.21069501 -0.49688104 0.2217211 -0.5745005
0002f0 f3 ec ee 3d 0b 96 49 3f 14 f6 9a 3e 37 d8 7f bc
       0.11666288 0.7874457 0.30265868 -0.0156155145
000300 62 e1 77 3e b8 a9 41 be 1b 57 94 be 00 85 ed 3e
       0.2420707 -0.18912399 -0.28972706 0.46390533
000310 32 98 cc 3d 58 d8 f2 3e 15 c8 e4 3d a3 12 80 bc
       0.099899665 0.47430682 0.11170975 -0.015633887
000320 25 4c 13 3e d9 90 05 be 27 f2 b2 3e 15 ba 91 be
       0.14384516 -0.13043536 0.34950373 -0.28462282
000330 ef 2c 26 be ff c1 5d be 0c ab 11 3d da 95 fd bd
       -0.16228078 -0.21656035 0.035563514 -0.123820975
000340 92 5e 19 be b9 e1 15 3e 51 09 67 3e 67 25 a0 be
       -0.14977482 0.14636888 0.22562148 -0.31278536
000350 ba 49 34 be cf 8c be be f0 b1 bb be c0 96 b1 3e
       -0.1760625 -0.37216803 -0.36659193 0.34685326
000360 91 0c d0 be 03 a7 51 3d d8 ee db ba c0 0a fb 3e
       -0.40634587 0.051184665 -0.0016779555 0.4903164
000370 0f e6 86 3c 59 95 11 be 01 3d eb be 15 38 a2 3d
       0.016467122 -0.14217128 -0.4594498 0.07920853
000380 88 61 b6 be dc 8f 35 3c 7a e3 8a be 1b 97 e6 3d
       -0.35621285 0.011081662 -0.27126676 0.1125929
000390 c3 8a 9a be 29 17 70 be 4b 28 a7 bc 13 a4 23 3e
       -0.30183992 -0.23446335 -0.020404955 0.15980558
0003a0 16 11 62 be 25 ed e2 3e 50 66 c9 3c e6 3a 30 3e
       -0.2207683 0.44321552 0.02458492 0.17209968
0003b0 f3 ba 03 be 11 64 2c bf 25 09 20 3e fc e8 58 3e
       -0.12864284 -0.6734019 0.15628488 0.21182626
0003c0 a2 02 9b 3d 66 b3 12 3d 2e 2a 60 be f6 bf 87 3d
       0.075688615 0.03581562 -0.2189109 0.066284105
0003d0 45 5a 50 3e 64 15 f5 3e aa b8 bd 3c 51 15 c0 be
       0.20346935 0.47867882 0.023159344 -0.37516263
0003e0 8e 37 d1 be 81 e1 54 3d 2e 8c f9 3e 1b 1a b7 be
       -0.40862697 0.05197287 0.4873976 -0.35762104
0003f0 2e ff d2 3d 46 c3 90 be 26 3c 34 3e 41 4f ca 3d
       0.10302578 -0.28273982 0.1760107 0.09878398

net.2.layer.bias f4 [20]
000000 e5 8f 46 3f 7b ad 76 3e 14 8d 12 3f 54 e3 11 3e
       0.77563316 0.24089615 0.5724652 0.14246875
000010 c8 78 1a be 7d 64 7c be 85 53 c7 3e a3 7a 8e bc
       -0.15085137 -0.24647708 0.38930908 -0.017392462
000020 f1 89 c9 3c 1f 1b 48 3e 2c cf 3d be 55 46 a0 be
       0.024601908 0.19541596 -0.18536061 -0.3130366
000030 49 26 49 3e 3d 33 2b 3d 3e 73 27 3f 27 6f ae 3e
       0.19643511 0.04179691 0.6541022 0.34069178
000040 d4 a0 83 be ad bb b2 be 11 ab 20 be 3e d2 b8 3d
       -0.2570864 -0.3490881 -0.15690257 0.090244755

net.3.layer.weight f4 [20, 20]
000000 96 11 c6 3d 59 19 e7 3e 1d df fc be 79 87 ed be
       0.09671323 0.45136526 -0.49388972 -0.4639242
000010 f4 a8 e3 be ab b5 33 be 0e 22 92 be 7b 5d 80 3f
       -0.44464839 -0.1754977 -0.28541607 1.0028528
000020 67 3f f0 bd 4d a9 cc be f7 5e 17 3e a9 34 27 be
       -0.11730843 -0.39972916 0.1478232 -0.16328682
000030 a3 2d 20 3f 67 18 c9 be 48 d3 d1 be 25 65 d5 be
       0.62569636 -0.3927643 -0.40981507 -0.4167873
000040 58 b4 99 be 41 5a df bd 73 a7 8e 3c 06 b0 70 be
       -0.30020404 -0.109058864 0.01741383 -0.23504648
000050 4e 6a b9 3f 1d 7c 3d be e7 e7 96 3f 6e 38 d6 3e
       1.4485567 -0.18504377 1.1789521 0.41839927
000060 3e 59 35 3e a3 93 bd bd bc 0b 0e bf 68 ad 6e be
       0.17709824 -0.09256675 -0.55486655 -0.23308337
000070 29 9a 84 bf 1d 0d cb be 4a 03 03 bd 9b 2c 50 3e
       -1.0359546 -0.39658442 -0.03198556 0.20329516
000080 d4 d3 cb be d6 0a 07 3f 80 21 84 3e 8a e4 6b bf
       -0.3981005 0.5275091 0.25806808 -0.921456
000090 13 21 09 bf 18 f5 dc be 8a 58 aa 3e ed 64 5d be
       -0.5356609 -0.43155742 0.33270675 -0.21620531
0000a0 a2 65 55 bf ea 4a c7 be ef 7c 02 bf 09 bc f4 bd
       -0.83358204 -0.38924342 -0.50971884 -0.11949927
0000b0 1f 4a 34 bd bb 55 d3 be a9 57 fc 3d 73 d7 95 bd
       -0.044016 -0.41276345 0.12321407 -0.07316484
0000c0 62 51 2a 3f 2e 7e b1 3d 1e 1b 9f 3d fe 5e f3 bc
       0.6653043 0.08666645 0.07768844 -0.029708382
0000d0 7e 2f b4 3e ab 5b 0d 3d 45 a0 81 3e d4 ed 1d 3e
       0.35192484 0.03451125 0.25317588 0.15422755
0000e0 5f f1 4a 3e 97 cb 4c 3e 1e 4e 59 be a4 58 df bc
       0.19818638 0.19999538 -0.21221206 -0.027263947
0000f0 63 b9 0a 3f 4f 91 7b be 23 96 74 3e b8 ab f7 bd
       0.5418913 -0.2456715 0.23885398 -0.120932996
000100 51 d5 ae 3e f7 c0 cd 3e a1 50 8c be 6b 13 a1 3e
       0.34147123 0.40186283 -0.27405265 0.31460127
000110 9b 5a f7 be 59 30 98 be 09 29 7d be 41 bb a4 3d
       -0.48311314 -0.29724386 -0.24722685 0.08043528
000120 a0 16 1b 3e 08 56 75 be 81 65 98 3c 74 96 67 be
       0.1514535 -0.239586 0.018603088 -0.22615987
000130 fb 40 5f 3d 51 e9 18 3e 41 79 bf 3e 82 6d 33 bd
       0.05450533 0.14932753 0.37397197 -0.043805607
000140 9e bc 1f bf 49 4b 1e be 4c 69 03 bf 00 cc 5b be
       -0.6239718 -0.15458407 -0.51332545 -0.21464539
000150 c7 66 8a be d2 8b 01 3f fc 0c 55 3e 0a 72 13 3e
       -0.27031538 0.50603974 0.20805734 0.14398971
000160 6e 39 87 3d d9 d8 08 be 6b 87 8b 3e 44 47 e8 be
       0.06602751 -0.13363971 0.27251753 -0.4536687
000170 81 53 27 3e b0 39 a8 bd ad 63 47 be 37 c1 a4 3d
       0.16340448 -0.08214128 -0.19471617 0.08044665
000180 1e de 8e 3e 2e 31 59 3e 51 7f 2f be ae 33 a5 be
       0.27903837 0.21210167 -0.17138411 -0.3226599
000190 5b eb 85 be 07 f5 16 bd 5a ad d4 bd d9 b6 8e bd
       -0.26156124 -0.03685477 -0.10384627 -0.06968469
0001a0 bd 07 03 be 3f 22 33 3e 00 91 89 be a6 68 66 3b
       -0.1279592 0.17493533 -0.2686844 0.003515759
0001b0 8c e6 9f be e1 55 69 be 2f 55 b3 3d da d1 e6 3e
       -0.3123058 -0.22786666 0.08756482 0.4508198
0001c0 f7 fe e8 3d 4d 4e 4b 3d 7d fb 64 3e 43 c6 07 bf
       0.11376756 0.04963522 0.2236156 -0.530369
0001d0 62 94 11 be e3 f5 96 be cb dc d5 3d b8 cb 33 3e
       -0.1421676 -0.29484472 0.104425035 0.17558181
0001e0 49 3e af be 5c 09 af 3b 11 b4 9c bd ee 6a 74 3d
       -0.34227207 0.005341692 -0.076515324 0.05967229
0001f0 9b 02 00 bf c7 c7 70 be 52 dc bf 3e bf 15 22 3e
       -0.50003976 -0.23513709 0.3747278 0.15828608
000200 09 58 d7 bd 3c 99 10 3e 6d c9 4a bd ca cf 5b be
       -0.10514838 0.14120954 -0.0495085 -0.21465984
000210 89 ee 06 3e db 97 09 3d 72 05 80 bb 95 e6 b7 bd
       0.13176931 0.033592086 -0.003906899 -0.08979527
000220 c4 9b 86 3e 78 1a 95 be 25 4c 68 bd b1 29 df 3c
       0.26290715 -0.29121757 -0.056713242 0.02724156
000230 b6 3e 33 be 8a d2 8a be e0 42 6c bf 46 b0 b5 3e
       -0.17504391 -0.27113754 -0.92289543 0.35486048
000240 fc 43 79 3e 1f 89 1a 3d 55 ee 7c be cb 91 68 3e
       0.2434234 0.037728425 -0.24700291 0.22711866
000250 6f b1 de 3e a0 1a b4 3d fe 50 72 3e cf 24 ac bd
       0.43494746 0.08794141 0.23663709 -0.08405458
000260 88 db f3 bc 2c 4c 73 be 52 73 37 bd 7a 2a 4c 3e
       -0.029767767 -0.23759526 -0.044787712 0.19938079
000270 4a 42 d3 3e 88 21 50 39 e8 32 66 3e 6f 04 a0 be
       0.41261512 0.00019848917 0.22480357 -0.31253383
000280 7b 9e 3f bd 8b 23 43 3e 64 26 99 3d d0 b0 da be
       -0.046781998 0.19056527 0.074780256 -0.42713022
000290 ec 9d 58 bf 65 33 2e be a7 72 43 3f fe ed ae be
       -0.8461597 -0.17011793 0.7634682 -0.3416595
0002a0 21 7a 64 3d b6 b2 0a be df 4a 2e bc 7f 46 02 bf
       0.055780534 -0.13544735 -0.010637968 -0.5088882
0002b0 89 f2 aa bc a3 52 02 be f5 c4 73 3d d6 b3 b4 3e
       -0.020867603 -0.12726836 0.059514005 0.35293454
0002c0 a7 a3 d4 3d 2a 93 9e be 60 c9 8a be 4d 2b b6 bc
       0.10382777 -0.30971652 -0.27106762 -0.022237444
0002d0 46 bf bd 3d e7 64 0d be e1 66 b2 bd f7 c4 2d be
       0.09264998 -0.13808022 -0.08711029 -0.16969667
0002e0 5d ed 7b be a1 8e 5e 3e a5 84 1d bd 64 9b 95 3e
       -0.24602266 0.21734096 -0.038456578 0.29220116
0002f0 b8 c4 78 be b3 99 5f be 9a d2 f4 bd 06 b9 82 3e
       -0.24293792 -0.21835975 -0.119542316 0.25531787
000300 cc 29 1e be 7c 1e 40 be ad a7 1c be b2 1f b7 be
       -0.15445632 -0.18761629 -0.15298338 -0.3576637
000310 00 94 24 3e e9 52 57 3d f0 c3 36 3d 84 f1 18 be
       0.16072083 0.052569304 0.044620454 -0.14935881
000320 c6 5f 6c bd cf 82 2e 3d a3 0b 7d 3e 79 dd 08 be
       -0.057708524 0.042605218 0.2471147 -0.13365735
000330 4e 84 d1 3e 74 24 46 be 05 ec 70 3e e2 7b 2a 3e
       0.40921253 -0.19349843 0.23527534 0.1664882
000340 0d 4f 35 3e de 15 cd 3b d1 b6 15 3e 75 2d 91 3e
       0.17705937 0.0062587103 0.1462052 0.28354993
000350 4b ce 51 be 99 00 45 3e 39 09 86 be 8a 69 ae be
       -0.20488851 0.19238509 -0.2617891 -0.34064895
000360 4f ee 9a bd 6f 0b e7 be 12 c8 b7 be b5 c5 08 be
       -0.07564985 -0.4512591 -0.3589483 -0.13356669
000370 af 12 9b bd 19 e9 9f bd 1a 41 ae 3c db 87 ac 3e
       -0.07571923 -0.07808132 0.021271277 0.336974
000380 0a 24 28 3e 4e 04 89 3e 13 af b2 bd 64 f6 06 bf
       0.16419998 0.26761097 -0.08724799 -0.5271971
000390 6a 9f 95 bd 59 34 86 3d 50 83 a5 be 64 00 2c 3e
       -0.073057964 0.06552953 -0.32326746 0.16797024
0003a0 1c f9 94 3e 43 79 96 3e 65 9a 2f 3d 4a 1c b7 3d
       0.29096305 0.2938939 0.04287185 0.089409426
0003b0 5e 4d ee 3e cc 8d 9f be 12 3a ad be 99 be 6f 3d
       0.465434 -0.3116287 -0.33833367 0.058531377
0003c0 94 08 85 3d c9 c9 88 bd 50 e7 4f be f9 94 9a be
       0.06495777 -0.066791125 -0.20303082 -0.30191782
0003d0 37 d1 c5 bd a3 ad d4 3c fc 9f 13 3e 59 d3 22 be
       -0.09659045 0.025961703 0.14416498 -0.15900935
0003e0 f9 8a d4 bd f0 a2 d6 3d 6a cb 41 3e 03 76 a7 be
       -0.103780694 0.104802966 0.18925253 -0.32707223
0003f0 0b 2b aa bd 82 c8 72 bd 78 7a 4f 3e 02 9d c8 bd
       -0.08308991 -0.05927325 0.20261562 -0.09795572

net.3.layer.bias f4 [20]
000000 4a 60 a9 3d 63 56 1f 3e 07 4a ad 3e 2d a1 9c be
       0.08270319 0.15560298 0.3384554 -0.30591717
000010 26 b8 cc 3d 2e c8 a8 bd b6 be 30 3d 5d fe 4e be
       0.09996061 -0.08241306 0.043150626 -0.2021422
000020 96 83 db 3e 2f 5f bb be 12 ff 1a bc 70 5e 5f 3d
       0.4287383 -0.36596057 -0.009460228 0.054533422
000030 4e 80 3c bd bf 19 84 3e 4f a1 a2 bc 00 67 9a 3d
       -0.0460208 0.25800893 -0.019852309 0.07539177
000040 6c d5 51 3e 91 de 0e be 82 57 9b be d8 02 55 be
       0.2049157 -0.1395209 -0.303402 -0.20801866

net.4.layer.weight f4 [20, 20]
000000 6b af 60 bf 28 bc fb 3e 5b c9 3f be ce 7d 15 bf
       -0.87767667 0.4916699 -0.18729155 -0.5839509
000010 61 96 82 bd 49 dc 4c bd 42 19 76 be 0a 0c 3d bf
       -0.06376339 -0.050014768 -0.24033073 -0.73846495
000020 ec e6 14 3f 61 fb 8a be 6b d5 9e be 9c e7 c9 3e
       0.5816486 -0.27144912 -0.310222 0.39434516
000030 bb 08 5e 3e c2 90 c6 bd 30 fc 8b 3d 07 6d d3 3d
       0.21683018 -0.09695579 0.0683521 0.1032353
000040 07 bc 02 3e c2 54 17 bf 7b 5f 00 bf e0 19 d9 be
       0.12767039 -0.59113705 -0.5014569 -0.42402554
000050 f0 a5 15 bd 7d 01 c3 3e 26 69 63 be 14 7b 88 be
       -0.036535203 0.38087073 -0.2220808 -0.266564
000060 4d 39 91 be af 9f be be f2 55 87 3e b7 72 9f be
       -0.2836403 -0.37231204 0.2643276 -0.31142208
000070 2b ee 32 3d f6 7d 0a 3e 22 85 9e 3c 2d 38 27 3e
       0.043684166 0.13524613 0.019350592 0.16330023
000080 01 44 0c 3e be d4 1e be 55 32 df be c0 46 60 3e
       0.13697816 -0.15510842 -0.43593088 0.21901989
000090 0d 8c 4e be 38 c0 b7 bb 56 bf 43 be 8b 37 1f be
       -0.20170613 -0.005607631 -0.19115958 -0.15548532
0000a0 b1 be 9b 3e 15 fc bf 3d f9 9f 95 3d 3c 75 61 3e
       0.30418923 0.09374253 0.07305903 0.22017378
0000b0 3a 3b e5 be 8b b3 9c 3d 87 eb c9 be da 10 90 3d
       -0.4477175 0.076514326 -0.39437506 0.07034464
0000c0 eb 7c 17 3e 3f d4 3e be 2e f5 b5 3e 08 2e f4 3d
       0.14793746 -0.18635653 0.3553862 0.11922842
0000d0 85 8d 4d 3e 7b 71 2e 3e dd 9a 88 be af e3 ab be
       0.20073517 0.17035477 -0.2668065 -0.33572146
0000e0 a6 b9 1a be 08 09 11 be b0 a2 71 3d 01 cc be 3d
       -0.15109882 -0.14163601 0.05899304 0.093162544
0000f0 97 c0 d2 3c aa 81 45 3e 0d d9 f9 3e dd 96 68 be
       0.0257266 0.19287744 0.4879841 -0.227138
000100 81 ef ff be 03 f6 98 bd 46 40 de 3c 5f c3 ba be
       -0.49987414 -0.07468798 0.027130257 -0.3647718
000110 c0 d8 96 be ce 58 83 3e 76 68 1e be 33 bb 5d be
       -0.29462242 0.2565369 -0.15469536 -0.21653442
000120 6d f2 d7 bd 97 5e 52 3e 5c a4 3e bd 46 5c 7f bc
       -0.10544286 0.20543896 -0.046543464 -0.015585965
000130 90 4e 23 3e 63 8f 1e be a2 12 ab bd 41 50 4c be
       0.15947938 -0.15484385 -0.08353163 -0.1995249
000140 7b 06 0c 3f 01 96 f2 3e 93 eb 84 be a2 86 2c 3e
       0.5469739 0.4738007 -0.2596098 0.16848233
000150 74 03 0b be c8 19 d3 3d 2a 7e 01 be 80 e6 3d 3e
       -0.13575536 0.10307652 -0.12645784 0.1854496
000160 9e 7b 45 be 0f 83 e6 bc 06 38 34 3c 04 c1 81 be
       -0.19285437 -0.028138665 0.010999685 -0.25342572
000170 4e ff da 3d 30 2e e2 bd 44 30 a3 bc 6f 3f cf bd
       0.10693227 -0.11043966 -0.019920476 -0.10119521
000180 4b 7a 97 bd 2a fa 23 be 47 35 82 3e ce 54 fe bd
       -0.073963724 -0.16013399 0.25431272 -0.12418519
000190 ed 0f ff 3b 23 6e 99 be 6f 53 08 3e b3 15 e7 3d
       0.007783881 -0.2996684 0.13313077 0.11283436
0001a0 39 62 8d 3d b7 9c a3 3e 3c e3 cc 3e d1 43 f0 be
       0.069035 0.319555 0.40017116 -0.4692674
0001b0 8d c9 2c 3e 92 62 6f 3e ee 51 fe 3d 0d 22 18 be
       0.1687376 0.23377445 0.124179706 -0.1485674
0001c0 0d 11 f5 3d 4c f8 4c be a1 b6 31 3d 17 3e 7b be
       0.11966143 -0.20016593 0.04338706 -0.24535404
0001d0 34 1b c1 3e 1b 14 c1 be 38 7a a4 bc aa 99 ce 3d
       0.37716067 -0.37710652 -0.02007781 0.10087903
0001e0 6b 3f a0 be ce a1 9c bf 8a f0 4f 3f a1 13 eb be
       -0.31298384 -1.2236879 0.8122641 -0.45913413
0001f0 c6 83 12 bd 3f 04 fc bd da d6 fa 3d a6 0e e2 3d
       -0.0357702 -0.123054974 0.12248011 0.1103795
000200 4e e3 29 3e 6c af 93 be 14 ec 18 bf 6a 71 a5 3e
       0.16590616 -0.28844774 -0.59735227 0.3231309
000210 19 00 aa 3e 60 1a 5a be 89 6e 02 3e be b8 be 3e
       0.332032 -0.21299124 0.12737478 0.37250322
000220 90 0a c0 bd 9e fe 12 3e 3e 95 e1 3c 61 f9 60 3e
       -0.09377015 0.14354941 0.027536985 0.2197013
000230 fa f1 3e 3e 72 c0 b9 bd 17 51 22 3e c8 de 5e 3c
       0.18646994 -0.09069909 0.15851246 0.01360292
000240 d9 89 ef be fc 55 1b be 27 78 45 3e 7a 36 b7 be
       -0.46784857 -0.15169519 0.19284116 -0.3578375
000250 8c 1d 5f 3e cc b7 95 be 10 c8 0a 3e 1e 02 cb be
       0.21788615 -0.29241788 0.1355288 -0.39650053
000260 4c a9 38 be ee 53 8d be e1 4c ed bd c3 bb 58 be
       -0.18033332 -0.27603096 -0.11586929 -0.21165375
000270 e9 6a 88 3d eb 71 a0 be 0a cc f8 be e9 f7 f5 bd
       0.066610165 -0.31336913 -0.4859317 -0.12010176
000280 42 50 3e 3d a5 4e c6 bd 5e b1 54 be 80 a2 c8 bd
       0.04646326 -0.09682969 -0.20770785 -0.097966194
000290 62 44 b2 bd 8e 64 cf be 17 fb 9e be 8d 57 ed bd
       -0.08704449 -0.40506405 -0.3105094 -0.115889646
0002a0 5f 9e 72 be ff 61 de 3d 56 1d 90 3e be 7c bc 3d
       -0.23693226 0.10858535 0.28147382 0.0920348
0002b0 83 74 46 3e 72 12 90 3e fa 7f 74 bd 83 7f 13 be
       0.19380383 0.28139073 -0.05969236 -0.1440411
0002c0 55 62 ba 3d 78 34 4f 3e 6a 79 c0 be a0 6a d3 3d
       0.091007866 0.20234859 -0.37592632 0.103230715
0002d0 f0 92 bb be 33 b6 5f 3f 5b ce 01 bf 26 4f d7 3e
       -0.36635542 0.8738739 -0.507055 0.42052573
0002e0 a9 22 60 be 6b b4 ab 3d c0 8c 81 be ad 2b 82 3d
       -0.21888222 0.08384021 -0.25302696 0.06355987
0002f0 42 f5 3b 3e 67 2f 40 3c 27 12 aa 3c 9d 53 0b 3f
       0.18355277 0.011730052 0.020760609 0.5442446
000300 90 51 20 be af 5a 1f be 8e 93 c0 be 5b 45 5f bd
       -0.15656114 -0.15561937 -0.37612575 -0.054509502
000310 45 be fa be db 2f 73 bc 2a 42 a9 be 79 ac ce bd
       -0.4897329 -0.014842953 -0.33058292 -0.1009149
000320 dc ac 82 3c 47 c6 79 be 17 68 db 3e 6e d5 94 be
       0.015951566 -0.24392043 0.42852852 -0.29069084
000330 50 36 2e 3e 90 83 4c 3e 10 c0 b1 be 58 fa 34 3e
       0.17012906 0.19972062 -0.34716845 0.17673624
000340 81 8f 85 3e e3 7d 14 3e 68 93 86 3e 70 24 81 3e
       0.26086047 0.14501147 0.26284337 0.25223112
000350 01 37 ca bd 5b a4 57 3e ba d0 6f be 20 b9 ca 3d
       -0.098737724 0.2105879 -0.23419467 0.09898591
000360 5f 76 93 bd e5 cd 96 3e 90 78 0c be e4 bb e5 bd
       -0.07200312 0.2945396 -0.13717866 -0.11217478
000370 11 5c 53 3d db 08 97 bd 62 86 68 3d e2 1b 79 3e
       0.051601473 -0.07374736 0.056768782 0.24327043
000380 b7 96 ac be 6b 3a 56 3e b8 01 00 3e b1 4c a3 be
       -0.33708736 0.20920722 0.12500656 -0.31894448
000390 b8 bd bd 3e 70 e9 85 be 38 67 86 3e 5f 41 eb bd
       0.37058806 -0.2615466 0.26250625 -0.11487078
0003a0 17 8d c9 be 84 fe 87 bc e9 98 ea be 66 22 5b 3e
       -0.39365456 -0.016600855 -0.45819786 0.2139984
0003b0 0a d4 7e bd f9 7d 66 3d 6f 04 87 bd 5d a1 8b be
       -0.062213935 0.05627248 -0.065926425 -0.27271548
0003c0 d0 9d 08 3d a2 42 0a bf 44 1b 64 be 3c 29 89 3e
       0.033353627 -0.54007924 -0.22276026 0.26789272
0003d0 a3 65 18 bd 25 0f 0d be fc 70 c8 be ac 54 38 be
       -0.037206303 -0.13775308 -0.391487 -0.1800105
0003e0 c5 b3 1b be b1 42 e1 be a6 55 29 be 48 dd 11 3f
       -0.15205295 -0.43996194 -0.16536579 0.56978273
0003f0 6d 1d f7 bd 9a 4e f4 3b a4 b0 31 3e 23 5f 17 3d
       -0.120661594 0.007455659 0.1735254 0.036955964

net.4.layer.bias f4 [20]
000000 9d d1 03 3e 20 23 96 be a2 97 1c bd c3 e2 3a 3d
       0.1287293 -0.29323673 -0.038230546 0.045626413
000010 d1 fd d3 be b0 28 5a bd 28 1e c6 3e 3a ed b7 3e
       -0.41404584 -0.05326146 0.38694882 0.35923177
000020 bb b9 6f 3e ca 57 15 be b2 4b 2f 3d ae 39 16 3e
       0.23410694 -0.1458427 0.042796798 0.1467044
000030 0d a5 52 3d 38 72 32 3e f7 2d 0c 3e d9 a7 6a be
       0.051426936 0.17426383 0.13689409 -0.22915591
000040 ef be da 3d 72 c1 b8 3d 78 3d c9 bd fc 14 16 be
       0.10680949 0.09021272 -0.09826177 -0.14656442

net.5.layer.weight f4 [20, 20]
000000 ad 0c 61 be b0 16 04 bd cc e5 00 bd 56 20 05 3e
       -0.21977492 -0.0322482 -0.03146915 0.13000616
000010 af 46 06 bf 0f 75 c5 3e 70 b9 52 3f 51 3e f3 bd
       -0.52451605 0.3856587 0.82314205 -0.1187712
000020 e5 32 07 3e e4 a2 84 bf 0d 8c 8c bd b2 ee 07 be
       0.13203008 -1.036221 -0.0686265 -0.13274649
000030 9f a2 c3 3c 38 46 54 3e 90 69 d4 be d9 46 a5 bd
       0.023881255 0.20729911 -0.41486788 -0.08070154
000040 06 7e bb bb bb b2 4c be 34 76 d9 be 51 ac 38 3e
       -0.0057218103 -0.19990055 -0.42472994 0.18034483
000050 38 af 3e 3d a1 17 a3 bd 89 10 c6 be 98 b7 8d be
       0.04655382 -0.07963491 -0.3868449 -0.27679133
000060 b2 6d 58 3e b4 4b 61 be ce 55 9f 3d a1 44 c4 be
       0.21135595 -0.22001535 0.07780038 -0.3833361
000070 17 8a 80 be 1f 75 20 bf e0 df 2c 3e 86 a3 6f be
       -0.25105354 -0.6267871 0.16882277 -0.23402223
000080 3c 8c 91 be 52 e9 ee bc d3 26 29 bf 40 f8 9b 3e
       -0.28427303 -0.02916399 -0.66074866 0.30462837
000090 ca e4 35 be 6e 13 23 bd 7c 2e b3 3d e5 17 b9 3d
       -0.17763057 -0.03981345 0.087491006 0.09037761
0000a0 04 fb 00 3f cf c3 57 be 40 2b 68 3e 09 73 b6 bd
       0.5038302 -0.21070789 0.22672749 -0.0890866
0000b0 d2 84 11 be 74 31 bb be a5 2a b2 3d 62 ff 76 3e
       -0.14210823 -0.36561167 0.0869954 0.24120858
0000c0 25 2e 82 3e 72 8e 15 be 45 16 9f be c1 6d 10 3d
       0.2542583 -0.1460512 -0.31071678 0.03526092
0000d0 9c 32 94 3e cf 09 dd bd a8 53 d9 bd 4a da 3f 3e
       0.28944862 -0.107928865 -0.10611659 0.18735614
0000e0 ab 3c a8 3e 53 d4 e7 be cf 95 4a 3e de 7a c9 ba
       0.32858786 -0.45279178 0.1978371 -0.00153717
0000f0 25 15 af 3e 84 ab 89 3d 7d 24 95 bd 48 78 17 3e
       0.3419582 0.06722167 -0.0728235 0.14791977
000100 be 3f 85 be 02 a9 84 be 69 b7 8a bd 7c 56 0c 3e
       -0.26025194 -0.25910193 -0.06773264 0.13704866
000110 88 08 ab 3d 3a d2 bb bc e7 16 56 3e 15 b2 47 3e
       0.083512366 -0.022927392 0.20907174 0.19501527
000120 01 25 cf bd 3d 4d 81 3e 9e 8d 23 3d 3a 39 24 be
       -0.1011448 0.2525424 0.03992998 -0.16037455
000130 2f 95 ae 3e f1 be 65 be aa 81 34 3e ed 49 d8 3e
       0.34098193 -0.2243612 0.17627588 0.422439
000140 e1 58 12 bf 46 9e 9a be 63 24 52 3e 7b 22 fa 3c
       -0.5716687 -0.30198878 0.20521693 0.03053402
000150 43 ca 4f 3e 68 ee de 3d 52 31 83 be 0c 55 0b be
       0.20292 0.10885316 -0.25623566 -0.13606662
000160 d8 db a3 bd f3 9a a0 be 3e b2 28 be 7b a9 cf bd
       -0.08000916 -0.31368217 -0.16474244 -0.10139748
000170 b5 45 06 3d 3e 8b b9 be f8 64 0b bf de f0 de 3e
       0.03278132 -0.36239046 -0.5445094 0.43543142
000180 95 56 a7 be 50 23 d3 3e 90 81 c4 3d f6 bc e7 bd
       -0.32683244 0.4123788 0.095950246 -0.11315338
000190 ab a3 9b 3e 76 24 de be c2 e7 6c bd f9 be 8a bd
       0.30398306 -0.43387192 -0.05783821 -0.067747064
0001a0 cc ce 05 bd 0e fa b9 3c db a9 4e 3b e8 69 08 bb
       -0.03266792 0.022702243 0.0031534347 -0.0020815078
0001b0 89 b7 4e 3c 6e 12 4c bd cf d2 a9 bd d6 1a 06 bd
       0.012617 -0.049822263 -0.08292162 -0.032740436
0001c0 56 b6 8a 3e d1 ba b0 3d b6 4b 1c bf 27 2e 76 3c
       0.27092236 0.086293824 -0.61053026 0.015025652
0001d0 fc f9 b8 bd e6 17 4c be 4a 56 d5 3e 1c 84 47 3e
       -0.09032056 -0.19930992 0.41667396 0.1948399
0001e0 5b 48 bd 3e b6 17 2a 3e 3c 9f f8 bd fa ab ae 3c
       0.36969265 0.16610608 -0.121397465 0.02132224
0001f0 33 3f 2b be c0 e2 4f 3e ac 22 15 3e 8a 89 73 be
       -0.16723327 0.20301342 0.14564008 -0.23782936
000200 1d 8a de 3d 2e de 84 3c 0e a7 95 be 48 11 05 3e
       0.10866187 0.016219225 -0.29229015 0.12994874
000210 8c 38 a9 3e eb 97 65 be 4e 9b 0e 3e 5e 8f b3 3d
       0.33050954 -0.22421233 0.13926432 0.087675795
000220 c7 51 81 3e 13 f9 5c be 2b cb 3f 3e c3 4a aa be
       0.25257704 -0.2157939 0.18729846 -0.33260164
000230 fa 90 af be 5a 6f a3 3e 78 34 7e bd 86 df ac 3e
       -0.34290296 0.31920892 -0.062061757 0.33764285
000240 0c f4 b6 bd ad 54 93 bb 85 98 6c 3d 71 22 d0 3d
       -0.08933267 -0.004496178 0.05776264 0.10162819
000250 50 a9 4a bc 7d 9d f0 be 12 3a 14 3e 3d 5c ca 3e
       -0.012369469 -0.46995154 0.14475277 0.39523497
000260 a5 c3 44 3e 9d 15 30 3e df 5f e8 be 62 55 52 3e
       0.19215257 0.17195745 -0.45385644 0.20540383
000270 6e 61 31 be 26 8e b3 3e f8 d2 81 3e 18 a2 06 be
       -0.17322323 0.35069388 0.2535627 -0.13147771
000280 50 ac f8 3d e7 f7 8a be f8 66 a8 be 45 e6 70 be
       0.12142241 -0.2714226 -0.3289106 -0.23525341
000290 74 b7 98 bd c3 38 05 be 20 3e 4e bd 98 b6 11 bc
       -0.07456866 -0.13009934 -0.050352216 -0.008893631
0002a0 91 91 93 be 39 5e 37 3e 90 54 35 bd 63 16 b1 3c
       -0.28821996 0.17907037 -0.0442701 0.02161712
0002b0 10 e1 a7 3e 83 e7 1a be 5b 2f b2 3e 22 df 6d be
       0.32788897 -0.15127377 0.34801754 -0.2322965
0002c0 0e 43 fa 3e 61 ef 2f be f7 94 c1 bd 80 0a c0 bd
       0.48879284 -0.1718116 -0.09452241 -0.09377003
0002d0 ac c1 d0 bb b1 b7 4e be 8b e5 a9 be cc 98 73 3e
       -0.0063707437 -0.2018726 -0.3318294 0.23788756
0002e0 bb 94 6f be f6 21 b1 bd 70 b3 13 3f ff 2f c7 3e
       -0.2339658 -0.08649056 0.57695675 0.38903806
0002f0 d7 7c af be 91 a6 8d 3e 4b 3f 8f 3e c2 24 6d be
       -0.34274933 0.27666143 0.27977976 -0.23158553
000300 d6 aa 30 bd b0 bb b5 3e 7b fc 82 be 9c 92 4f be
       -0.04313167 0.35494757 -0.25583252 -0.20270771
000310 be 3c a3 bd 0e 40 a9 3d 53 6a b1 be a3 63 12 3e
       -0.0797057 0.082641706 -0.3465143 0.14295821
000320 52 33 0d bf 44 ac 29 bd fe a5 a4 3e 18 5e 7d 3e
       -0.55156434 -0.04142405 0.32157892 0.24742925
000330 03 be bb 3c 46 a9 9a 3e 5c 11 8e be dd d3 be 3e
       0.022917753 0.3020727 -0.2774762 0.37271014
000340 79 cc 04 3e f3 c9 0d bf e7 6f 83 3d c5 35 b3 3e
       0.12968625 -0.55386275 0.06417828 0.3500196
000350 d8 b5 02 bf 1b 3c 29 3e e0 5b f7 bd b6 9e 56 bc
       -0.5105872 0.16526835 -0.12078071 -0.013099363
000360 aa 81 7c be 23 2c 77 3e eb 0e 37 be 60 41 1e 3d
       -0.24658838 0.2413793 -0.17876785 0.038636565
000370 9a 86 b8 3e 09 33 34 3e c4 33 f7 bd 66 7a f5 3d
       0.36040193 0.17597593 -0.120704204 0.11986236
000380 e6 b0 4e be fc d0 ab bd 4c 0f c2 be 30 b6 a2 3d
       -0.20184669 -0.0838947 -0.37902296 0.07944906
000390 40 8f b5 3e 1f f0 13 3e 6d 43 13 3e 5a 68 f5 bd
       0.35460854 0.14447068 0.1438119 -0.11982794
0003a0 7c aa 72 3e 99 ea a2 3e b5 fb d0 bd f4 c8 0f be
       0.23697847 0.3181961 -0.10204259 -0.14041501
0003b0 14 d5 92 bd d6 69 0c bf 5a 4e 02 be a8 03 04 bf
       -0.07169548 -0.5484899 -0.12725201 -0.5156808
0003c0 b8 d1 16 3e b5 1d b3 3e b8 db ed 3d eb c3 7c 3e
       0.14728439 0.34983602 0.11614174 0.24684112
0003d0 06 09 1b be fe 4d 10 bc d5 63 ff 3e 88 b6 8d bd
       -0.15140161 -0.008807657 0.49880853 -0.06919581
0003e0 8f 6a 88 bd 0d 3b a0 3e 81 96 a7 3e 4d da e0 bd
       -0.066609494 0.31295052 0.32732013 -0.109791376
0003f0 d2 4c 32 be a4 f2 1c 3e 6d aa 5d be fe 11 63 3e
       -0.17412117 0.15326935 -0.21647044 0.22174832

net.5.layer.bias f4 [20]
000000 2e 6b 00 3d e6 d8 45 bd 81 b9 6c 3d 97 a5 49 3e
       0.031352215 -0.048302554 0.057794098 0.19692074
000010 ba 02 98 bb 73 26 89 be 4a 80 47 3b b3 ad 19 bc
       -0.004638997 -0.26787147 0.0030441456 -0.009379792
000020 71 50 00 3e c5 81 2c bb ac 0e 6c 3c 7d e8 7c bd
       0.12530686 -0.0026322466 0.014407795 -0.061745156
000030 2e ef 79 3e f9 d7 05 3e c2 11 99 bd 1a 48 70 3e
       0.24407646 0.13070668 -0.0747409 0.23465005
000040 9a c2 61 3d 7b 9b a0 3e 29 b5 8c be 91 f3 ee be
       0.055117227 0.31368622 -0.27481964 -0.466702

net.6.layer.weight f4 [20, 20]
000000 42 88 0b 3c 63 d4 48 be 55 71 cc 3e 1e e3 78 be
       0.008516373 -0.19612269 0.39930215 -0.24305388
000010 d4 2e 05 3e c2 63 c3 3e 99 82 a4 3c 41 af 88 bc
       0.13006145 0.38162047 0.020081805 -0.01668513
000020 39 b8 c2 bd 28 1b 84 bc 14 86 b8 bd 8d 41 31 bd
       -0.09507794 -0.01612623 -0.090099484 -0.043275405
000030 e8 fb 93 bd 7b 00 6e bd 4c 34 3c be ae c7 df 3e
       -0.07225782 -0.058105927 -0.18379325 0.4370703
000040 74 8c 6b 3e 05 0b 8a 3c 99 b7 05 3e c9 eb 33 be
       0.23002797 0.016850958 0.13058318 -0.17570414
000050 95 cd 99 be 9b da eb be e7 27 2f be 06 c8 66 3d
       -0.3003966 -0.4606522 -0.17105065 0.0563431
000060 ef c6 1a 3d 30 24 eb be 0b 1a 8a bc 22 a4 8a 3e
       0.037787374 -0.45926046 -0.016858121 0.27078348
000070 78 c3 58 bd 90 27 f4 3c 38 1b 4b 3e 1e c9 71 bd
       -0.05292079 0.029804021 0.19834602 -0.05902969
000080 d5 14 11 3f bc e7 bd 3e 7e a0 4b bd 2e 7e 3e be
       0.5667241 0.37090862 -0.049713604 -0.18602821
000090 18 9e 52 3c c1 5d 3e 3e 27 98 5d 3b 69 db 24 3e
       0.012855075 0.18590452 0.0033812614 0.16099323
0000a0 89 5a 16 3d a1 75 02 bf 01 6d f6 3d 42 06 e4 3d
       0.036707435 -0.5096074 0.120325096 0.11134006
0000b0 9e bf a5 be 89 cb c7 be 98 31 47 be 66 2c 63 3e
       -0.32372755 -0.39022473 -0.19452512 0.22184905
0000c0 c0 60 56 3e 4b 6a a8 be dd c1 92 3e a7 88 ab 3d
       0.20935345 -0.32893595 0.2866353 0.08375674
0000d0 c6 56 60 3e 61 ef cf be ed 55 ee be b2 bf 31 be
       0.21908101 -0.4061232 -0.4654993 -0.17358282
0000e0 9c a2 3e 3e 85 c1 06 3e 1c 3f 87 be 12 6d 39 be
       0.18616718 0.1315976 -0.26415336 -0.18108013
0000f0 68 ed 33 bf e8 a3 84 be e0 a1 43 3e 26 fe 99 be
       -0.7028413 -0.259063 0.19104719 -0.30076712
000100 18 b4 98 be 62 bf 74 be d5 00 7c bd 0d c5 35 be
       -0.298249 -0.23901132 -0.06152423 -0.1775095
000110 76 61 61 3e 58 6d 0b bf 3b c5 8e 3e 12 49 e4 3e
       0.22009835 -0.5446372 0.2788485 0.44586998
000120 97 3a 9e be 3c 77 2c bf 61 4e a2 3c e1 2c f0 be
       -0.30904076 -0.6736944 0.019812765 -0.4690924
000130 87 c2 d6 bd c2 cd 90 be f4 3c f6 be b5 0a 05 3f
       -0.10486322 -0.2828198 -0.4809338 0.5196946
000140 8c 0e 95 be de 82 2d be bb 29 29 3e 57 fc 97 be
       -0.2911266 -0.16944453 0.16519825 -0.29684708
000150 f9 28 50 bd c0 c3 bd bd c5 96 7b 3c c7 64 cc 3e
       -0.050820325 -0.09265852 0.0153557705 0.39920637
000160 15 19 93 3c f6 da 8e be 06 8f 8c 3d d6 ff bc 3c
       0.017956296 -0.2790143 0.06863217 0.02307121
000170 65 fc 2d be 05 d5 d1 3e 6d 32 db bd d1 c9 a6 3e
       -0.16990812 0.40982834 -0.10702977 0.3257585
000180 59 63 91 bd e1 53 93 be 11 5c 67 bc 60 8b 91 bc
       -0.07099027 -0.28774932 -0.014121071 -0.017766654
000190 f2 34 c8 3e 9f b6 a0 be 8c 00 86 3e 9c 2b a5 3e
       0.39102894 -0.3138933 0.26172292 0.32259834
0001a0 e5 eb 11 bf 29 ed 27 3c d3 15 c7 3e c6 5a ad be
       -0.5700057 0.0102494145 0.38883838 -0.33858317
0001b0 d2 04 c0 3e 3a 48 4b be 04 26 d8 be 7e 47 8c 3e
       0.37503678 -0.19851771 -0.42216504 0.27398294
0001c0 21 74 1d 3e ab 9c 1e be 55 83 4c bd 96 f9 1b 3f
       0.15376331 -0.15489452 -0.049929935 0.6092771
0001d0 56 5e 39 3d 80 24 03 3a a5 35 ed 3d 29 d0 8d 3c
       0.04525598 0.00050026923 0.115824975 0.017311173
0001e0 af 01 1e 3d 9e 6e 69 be 33 e9 96 be 36 40 84 be
       0.038575824 -0.22796103 -0.29474792 -0.2583024
0001f0 85 a4 a3 3e e7 f8 50 3c 82 26 4f be 51 a3 2b bd
       0.31961456 0.012754655 -0.20229533 -0.041903798
000200 7e 05 b7 3e a9 e1 80 3d 42 aa 8c be 6c ab e3 bd
       0.35746378 0.06293041 -0.27473646 -0.111166805
000210 fa 04 86 be 5d bf 7c bd 55 e5 37 be 35 10 1d bd
       -0.26175672 -0.061705936 -0.17958577 -0.038345534
000220 09 4d 9d 3d df 23 aa be e5 f3 3c 3e 8a 9f 7b 3e
       0.07680709 -0.33230492 0.18452413 0.24572578
000230 e8 7e 2f be 88 5e 40 be 1f 85 4e 3e fe 5a b3 3e
       -0.17138255 -0.18786061 0.20167969 0.3503036
000240 7c 05 27 be 76 3e 99 3e d1 de 95 bd 85 c4 8f be
       -0.16310686 0.29930466 -0.073178895 -0.2807962
000250 72 b3 a3 3e 6f f5 98 3e 05 6c 88 be 05 58 ae 3d
       0.31972843 0.2987475 -0.26644912 0.08512882
000260 2c 59 ea 3d ea a7 f8 bc 19 11 97 be ae c4 1f 3e
       0.114427894 -0.030353505 -0.29505232 0.15602371
000270 d7 dc a8 bd 4f f4 82 3e 27 81 97 bd 3f f9 6d bd
       -0.08245247 0.25577018 -0.07397681 -0.058099028
000280 19 8e 7f 3e 86 bb fd 3d 41 26 04 bf e4 85 69 be
       0.2495655 0.12389283 -0.5162087 -0.22804981
000290 0d 61 d2 3e 10 d4 ce be 9f 6f a1 be 4f db 06 3e
       0.4108967 -0.40396166 -0.31530473 0.13169597
0002a0 21 7d da ba 2e e0 28 3d 0f 08 ab 3e ed df 52 be
       -0.0016669371 0.04122942 0.33404586 -0.20593233
0002b0 64 3d 3a bc e0 97 3f 3e 3f 53 a1 3e 4e 13 a4 bd
       -0.011367176 0.1871028 0.31508824 -0.080114946
0002c0 99 f7 f5 be 81 ed 43 be b7 14 a0 be 40 c3 66 be
       -0.48040465 -0.1913357 -0.31265804 -0.2253542
0002d0 11 16 ea be 5a 80 8b bd 4d 48 06 be e0 23 9c 3e
       -0.4571996 -0.068115905 -0.13113518 0.3049612
0002e0 ad 5d ad bd 0b 2c 3a bd 43 d1 b6 3d 53 df 81 be
       -0.08465133 -0.04545216 0.08926632 -0.25365695
0002f0 51 6f 2d bd e1 b7 58 be 90 5e a1 be 6a 4f 8e 3e
       -0.042342488 -0.21163894 -0.31517458 0.27794963
000300 4a f1 2f be 36 c6 db be d3 b7 6f be 0e 93 6b 3e
       -0.17181888 -0.4292466 -0.23409967 0.23005316
000310 04 fd e5 bc 69 30 d8 3d 46 56 2c 3d 2b 82 a7 3e
       -0.028074749 0.105561085 0.042074464 0.32716498
000320 4d cf d7 bd a0 d2 dc bd cd f6 1d be cc 87 e9 bd
       -0.10537586 -0.10782361 -0.15426178 -0.11402854
000330 df 75 ab 3e 53 52 ad 3e 4a a3 77 ba c5 22 4d 3c
       0.33488366 0.3385187 -0.0009446634 0.012520497
000340 8e c9 8d be 78 3a ca 3d 0e 83 67 3c e9 54 b3 3b
       -0.27692837 0.09874433 0.014130367 0.0054727686
000350 d5 aa 02 3d 1a 31 f2 3c ae 2e 2d be 9e 33 3f be
       0.0319012 0.02956443 -0.16912338 -0.18672034
000360 73 64 c9 be 18 fc 34 3d 3a 4d c8 3e 46 3f 80 3e
       -0.3933445 0.044185728 0.3912142 0.25048274
000370 3c 21 8b be 46 0f a3 3e 13 75 b6 3e 60 bf f2 bd
       -0.27173793 0.3184759 0.35636196 -0.11852908
000380 a9 1c 5c 3c 97 c0 9a 3d ee a2 aa 3e 95 89 5b 3e
       0.0134345675 0.07556265 0.3332743 0.21439202
000390 0a 77 b4 be 24 bf a0 3d 25 5f 37 3e 8b 2c 8c be
       -0.3524707 0.07848957 0.17907389 -0.27377734
0003a0 52 da bd be a6 57 57 3e ac f0 83 3d ed a4 08 3d
       -0.37080628 0.21029529 0.06442389 0.03336041
0003b0 ec 41 d1 be 94 89 2a bc 6e 1d 83 be 36 11 a0 3e
       -0.40870607 -0.010408778 -0.2560839 0.3126313
0003c0 68 35 9d be 03 22 cd be f4 b7 90 be 73 e2 83 bd
       -0.30704808 -0.4006501 -0.28265345 -0.06439676
0003d0 f9 3e 68 be 62 e6 f2 be 88 34 2e 3e 95 e8 0e bf
       -0.22680272 -0.47441393 0.17012227 -0.5582364
0003e0 c1 59 00 be 16 6e d7 3d 02 eb 97 3d 51 65 d0 3e
       -0.12534238 0.10519044 0.07417871 0.40702298
0003f0 2b d1 87 3e bd e8 34 3e 1a 55 28 bf 66 01 31 be
       0.2652677 0.17666908 -0.65754855 -0.1728569

net.6.layer.bias f4 [20]
000000 60 20 30 3d 0f 1e 50 3d 5f ee 55 3e c0 40 72 be
       0.042999625 0.050809916 0.20891713 -0.23657513
000010 bc df 71 3e 37 5b 7e 3d 1c a2 40 bb 29 f9 0e 3e
       0.23620504 0.062098708 -0.00293935 0.13962235
000020 17 7d ff 3b a8 21 9c bd 59 5b ab be fa 04 07 bd
       0.0077968943 -0.07623607 -0.3346813 -0.03296373
000030 d6 f6 87 3e 09 a9 3b be a9 b1 3d be 1c 9b 4d bd
       0.26555508 -0.183262 -0.18524803 -0.050196752
000040 d9 a8 43 bd 92 24 a1 3d e1 00 b6 3e 94 3b 87 bd
       -0.047768448 0.07868303 0.35547546 -0.066031605
